…
    mean_value: 128
    mean_value: 128
    mean_value: 128
    mean_value: 128
    mean_value: 128
    mean_value: 128
    mean_value: 128
    mean_value: 128
    mean_value: 128
    mean_value: 128
    mean_value: 128
    mean_value: 128
    fix_crop: true
    multi_scale: true
    scale_ratios: 1
    scale_ratios: 0.875
    scale_ratios: 0.75
    max_distort: 1
    is_flow: true
  }
  video_data_param {
    source: "/home/jiri/Lake/HAR/datasets/UCF-101/train-2-rnd.txt"
    batch_size: 64
    new_length: 10
    num_segments: 1
    modality: FLOW
  }
}
layer {
  name: "conv1_1"
  type: "Convolution"
  bottom: "data"
  top: "conv1_1"
  param {
    lr_mult: 1
    decay_mult: 1
  }
  param {
    lr_mult: 2
    decay_mult: 0
  }
  convolution_param {
    num_output: 64
    pad: 1
    kernel_size: 3
    weight_filler {
      type: "xavier"
    }
  }
}
layer {
  name: "relu1_1"
  type: "ReLU"
  bottom: "conv1_1"
  top: "conv1_1"
}
layer {
  name: "conv1_2"
  type: "Convolution"
  bottom: "conv1_1"
  top: "conv1_2"
  param {
    lr_mult: 1
    decay_mult: 1
  }
  param {
    lr_mult: 2
    decay_mult: 0
  }
  convolution_param {
    num_output: 64
    pad: 1
    kernel_size: 3
    weight_filler {
      type: "xavier"
    }
  }
}
layer {
  name: "relu1_2"
  type: "ReLU"
  bottom: "conv1_2"
  top: "conv1_2"
}
layer {
  name: "pool1"
  type: "Pooling"
  bottom: "conv1_2"
  top: "pool1"
  pooling_param {
    pool: MAX
    kernel_size: 2
    stride: 2
  }
}
layer {
  name: "conv2_1"
  type: "Convolution"
  bottom: "pool1"
  top: "conv2_1"
  param {
    lr_mult: 1
    decay_mult: 1
  }
  param {
    lr_mult: 2
    decay_mult: 0
  }
  convolution_param {
    num_output: 128
    pad: 1
    kernel_size: 3
    weight_filler {
      type: "xavier"
    }
  }
}
layer {
  name: "relu2_1"
  type: "ReLU"
  bottom: "conv2_1"
  top: "conv2_1"
}
layer {
  name: "conv2_2"
  type: "Convolution"
  bottom: "conv2_1"
  top: "conv2_2"
  param {
    lr_mult: 1
    decay_mult: 1
  }
  param {
    lr_mult: 2
    decay_mult: 0
  }
  convolution_param {
    num_output: 128
    pad: 1
    kernel_size: 3
    weight_filler {
      type: "xavier"
    }
  }
}
layer {
  name: "relu2_2"
  type: "ReLU"
  bottom: "conv2_2"
  top: "conv2_2"
}
layer {
  name: "pool2"
  type: "Pooling"
  bottom: "conv2_2"
  top: "pool2"
  pooling_param {
    pool: MAX
    kernel_size: 2
    stride: 2
  }
}
layer {
  name: "conv3_1"
  type: "Convolution"
  bottom: "pool2"
  top: "conv3_1"
  param {
    lr_mult: 1
    decay_mult: 1
  }
  param {
    lr_mult: 2
    decay_mult: 0
  }
  convolution_param {
    num_output: 256
    pad: 1
    kernel_size: 3
    weight_filler {
      type: "xavier"
    }
  }
}
layer {
  name: "relu3_1"
  type: "ReLU"
  bottom: "conv3_1"
  top: "conv3_1"
}
layer {
  name: "conv3_2"
  type: "Convolution"
  bottom: "conv3_1"
  top: "conv3_2"
  param {
    lr_mult: 1
    decay_mult: 1
  }
  param {
    lr_mult: 2
    decay_mult: 0
  }
  convolution_param {
    num_output: 256
    pad: 1
    kernel_size: 3
    weight_filler {
      type: "xavier"
    }
  }
}
layer {
  name: "relu3_2"
  type: "ReLU"
  bottom: "conv3_2"
  top: "conv3_2"
}
layer {
  name: "conv3_3"
  type: "Convolution"
  bottom: "conv3_2"
  top: "conv3_3"
  param {
    lr_mult: 1
    decay_mult: 1
  }
  param {
    lr_mult: 2
    decay_mult: 0
  }
  convolution_param {
    num_output: 256
    pad: 1
    kernel_size: 3
    weight_filler {
      type: "xavier"
    }
  }
}
layer {
  name: "relu3_3"
  type: "ReLU"
  bottom: "conv3_3"
  top: "conv3_3"
}
layer {
  name: "pool3"
  type: "Pooling"
  bottom: "conv3_3"
  top: "pool3"
  pooling_param {
    pool: MAX
    kernel_size: 2
    stride: 2
  }
}
layer {
  name: "conv4_1"
  type: "Convolution"
  bottom: "pool3"
  top: "conv4_1"
  param {
    lr_mult: 1
    decay_mult: 1
  }
  param {
    lr_mult: 2
    decay_mult: 0
  }
  convolution_param {
    num_output: 512
    pad: 1
    kernel_size: 3
    weight_filler {
      type: "xavier"
    }
  }
}
layer {
  name: "relu4_1"
  type: "ReLU"
  bottom: "conv4_1"
  top: "conv4_1"
}
layer {
  name: "conv4_2"
  type: "Convolution"
  bottom: "conv4_1"
  top: "conv4_2"
  param {
    lr_mult: 1
    decay_mult: 1
  }
  param {
    lr_mult: 2
    decay_mult: 0
  }
  convolution_param {
    num_output: 512
    pad: 1
    kernel_size: 3
    weight_filler {
      type: "xavier"
    }
  }
}
layer {
  name: "relu4_2"
  type: "ReLU"
  bottom: "conv4_2"
  top: "conv4_2"
}
layer {
  name: "conv4_3"
  type: "Convolution"
  bottom: "conv4_2"
  top: "conv4_3"
  param {
    lr_mult: 1
    decay_mult: 1
  }
  param {
    lr_mult: 2
    decay_mult: 0
  }
  convolution_param {
    num_output: 512
    pad: 1
    kernel_size: 3
    weight_filler {
      type: "xavier"
    }
  }
}
layer {
  name: "relu4_3"
  type: "ReLU"
  bottom: "conv4_3"
  top: "conv4_3"
}
layer {
  name: "pool4"
  type: "Pooling"
  bottom: "conv4_3"
  top: "pool4"
  pooling_param {
    pool: MAX
    kernel_size: 2
    stride: 2
  }
}
layer {
  name: "conv5_1"
  type: "Convolution"
  bottom: "pool4"
  top: "conv5_1"
  param {
    lr_mult: 1
    decay_mult: 1
  }
  param {
    lr_mult: 2
    decay_mult: 0
  }
  convolution_param {
    num_output: 512
    pad: 1
    kernel_size: 3
    weight_filler {
      type: "xavier"
    }
  }
}
layer {
  name: "relu5_1"
  type: "ReLU"
  bottom: "conv5_1"
  top: "conv5_1"
}
layer {
  name: "conv5_2"
  type: "Convolution"
  bottom: "conv5_1"
  top: "conv5_2"
  param {
    lr_mult: 1
    decay_mult: 1
  }
  param {
    lr_mult: 2
    decay_mult: 0
  }
  convolution_param {
    num_output: 512
    pad: 1
    kernel_size: 3
    weight_filler {
      type: "xavier"
    }
  }
}
layer {
  name: "relu5_2"
  type: "ReLU"
  bottom: "conv5_2"
  top: "conv5_2"
}
layer {
  name: "conv5_3"
  type: "Convolution"
  bottom: "conv5_2"
  top: "conv5_3"
  param {
    lr_mult: 1
    decay_mult: 1
  }
  param {
    lr_mult: 2
    decay_mult: 0
  }
  convolution_param {
    num_output: 512
    pad: 1
    kernel_size: 3
    weight_filler {
      type: "xavier"
    }
  }
}
layer {
  name: "relu5_3"
  type: "ReLU"
  bottom: "conv5_3"
  top: "conv5_3"
}
layer {
  name: "pool5"
  type: "Pooling"
  bottom: "conv5_3"
  top: "pool5"
  pooling_param {
    pool: MAX
    kernel_size: 2
    stride: 2
  }
}
layer {
  name: "fc6"
  type: "InnerProduct"
  bottom: "pool5"
  top: "fc6"
  param {
    lr_mult: 1
    decay_mult: 1
  }
  param {
    lr_mult: 2
    decay_mult: 0
  }
  inner_product_param {
    num_output: 4096
    weight_filler {
      type: "xavier"
    }
  }
}
layer {
  name: "relu6"
  type: "ReLU"
  bottom: "fc6"
  top: "fc6"
}
layer {
  name: "drop6"
  type: "Dropout"
  bottom: "fc6"
  top: "fc6"
  dropout_param {
    dropout_ratio: 0.9
  }
}
layer {
  name: "fc7"
  type: "InnerProduct"
  bottom: "fc6"
  top: "fc7"
  param {
    lr_mult: 1
    decay_mult: 1
  }
  param {
    lr_mult: 2
    decay_mult: 0
  }
  inner_product_param {
    num_output: 4096
    weight_filler {
      type: "xavier"
    }
  }
}
layer {
  name: "relu7"
  type: "ReLU"
  bottom: "fc7"
  top: "fc7"
}
layer {
  name: "drop7"
  type: "Dropout"
  bottom: "fc7"
  top: "fc7"
  dropout_param {
    dropout_ratio: 0.8
  }
}
layer {
  name: "fc8-1"
  type: "InnerProduct"
  bottom: "fc7"
  top: "fc8-1"
  param {
    lr_mult: 1
    decay_mult: 1
  }
  param {
    lr_mult: 2
    decay_mult: 0
  }
  inner_product_param {
    num_output: 101
    weight_filler {
      type: "gaussian"
      std: 0.001
    }
    bias_filler {
      type: "constant"
      value: 0
    }
  }
}
layer {
  name: "loss"
  type: "SoftmaxWithLoss"
  bottom: "fc8-1"
  bottom: "label_local"
  include {
    phase: TRAIN
  }
}
I0809 18:09:41.037209 30033 layer_factory.hpp:75] Creating layer data
I0809 18:09:41.037247 30033 net.cpp:99] Creating Layer data
I0809 18:09:41.037256 30033 net.cpp:409] data -> data
I0809 18:09:41.037278 30033 net.cpp:409] data -> label_local
I0809 18:09:41.037288 30033 net.cpp:131] Setting up data
I0809 18:09:41.037295 30033 video_data_layer.cpp:34] Opening file: /home/jiri/Lake/HAR/datasets/UCF-101/train-2-rnd.txt
I0809 18:09:41.041784 30033 video_data_layer.cpp:50] A total of 9537 videos.
I0809 18:09:41.067180 30033 video_data_layer.cpp:85] output data size: 64,20,224,224
I0809 18:09:41.489749 30033 net.cpp:140] Top shape: 64 20 224 224 (64225280)
I0809 18:09:41.489776 30033 net.cpp:140] Top shape: 64 1 1 1 (64)
I0809 18:09:41.489787 30033 layer_factory.hpp:75] Creating layer conv1_1
I0809 18:09:41.489804 30033 net.cpp:99] Creating Layer conv1_1
I0809 18:09:41.489812 30033 net.cpp:453] conv1_1 <- data
I0809 18:09:41.489825 30033 net.cpp:409] conv1_1 -> conv1_1
I0809 18:09:41.489843 30033 net.cpp:131] Setting up conv1_1
I0809 18:09:41.547956 30033 net.cpp:140] Top shape: 64 64 224 224 (205520896)
I0809 18:09:41.547996 30033 layer_factory.hpp:75] Creating layer relu1_1
I0809 18:09:41.548010 30033 net.cpp:99] Creating Layer relu1_1
I0809 18:09:41.548018 30033 net.cpp:453] relu1_1 <- conv1_1
I0809 18:09:41.548027 30033 net.cpp:396] relu1_1 -> conv1_1 (in-place)
I0809 18:09:41.548035 30033 net.cpp:131] Setting up relu1_1
I0809 18:09:41.548105 30033 net.cpp:140] Top shape: 64 64 224 224 (205520896)
I0809 18:09:41.548113 30033 layer_factory.hpp:75] Creating layer conv1_2
I0809 18:09:41.548123 30033 net.cpp:99] Creating Layer conv1_2
I0809 18:09:41.548130 30033 net.cpp:453] conv1_2 <- conv1_1
I0809 18:09:41.548136 30033 net.cpp:409] conv1_2 -> conv1_2
I0809 18:09:41.548144 30033 net.cpp:131] Setting up conv1_2
I0809 18:09:41.548662 30033 net.cpp:140] Top shape: 64 64 224 224 (205520896)
I0809 18:09:41.548681 30033 layer_factory.hpp:75] Creating layer relu1_2
I0809 18:09:41.548689 30033 net.cpp:99] Creating Layer relu1_2
I0809 18:09:41.548694 30033 net.cpp:453] relu1_2 <- conv1_2
I0809 18:09:41.548702 30033 net.cpp:396] relu1_2 -> conv1_2 (in-place)
I0809 18:09:41.548708 30033 net.cpp:131] Setting up relu1_2
I0809 18:09:41.548879 30033 net.cpp:140] Top shape: 64 64 224 224 (205520896)
I0809 18:09:41.548892 30033 layer_factory.hpp:75] Creating layer pool1
I0809 18:09:41.548903 30033 net.cpp:99] Creating Layer pool1
I0809 18:09:41.548909 30033 net.cpp:453] pool1 <- conv1_2
I0809 18:09:41.548915 30033 net.cpp:409] pool1 -> pool1
I0809 18:09:41.548923 30033 net.cpp:131] Setting up pool1
I0809 18:09:41.548988 30033 net.cpp:140] Top shape: 64 64 112 112 (51380224)
I0809 18:09:41.548997 30033 layer_factory.hpp:75] Creating layer conv2_1
I0809 18:09:41.549006 30033 net.cpp:99] Creating Layer conv2_1
I0809 18:09:41.549011 30033 net.cpp:453] conv2_1 <- pool1
I0809 18:09:41.549018 30033 net.cpp:409] conv2_1 -> conv2_1
I0809 18:09:41.549026 30033 net.cpp:131] Setting up conv2_1
I0809 18:09:41.550150 30033 net.cpp:140] Top shape: 64 128 112 112 (102760448)
I0809 18:09:41.550170 30033 layer_factory.hpp:75] Creating layer relu2_1
I0809 18:09:41.550179 30033 net.cpp:99] Creating Layer relu2_1
I0809 18:09:41.550204 30033 net.cpp:453] relu2_1 <- conv2_1
I0809 18:09:41.550212 30033 net.cpp:396] relu2_1 -> conv2_1 (in-place)
I0809 18:09:41.550220 30033 net.cpp:131] Setting up relu2_1
I0809 18:09:41.550284 30033 net.cpp:140] Top shape: 64 128 112 112 (102760448)
I0809 18:09:41.550293 30033 layer_factory.hpp:75] Creating layer conv2_2
I0809 18:09:41.550303 30033 net.cpp:99] Creating Layer conv2_2
I0809 18:09:41.550309 30033 net.cpp:453] conv2_2 <- conv2_1
I0809 18:09:41.550317 30033 net.cpp:409] conv2_2 -> conv2_2
I0809 18:09:41.550324 30033 net.cpp:131] Setting up conv2_2
I0809 18:09:41.551372 30033 net.cpp:140] Top shape: 64 128 112 112 (102760448)
I0809 18:09:41.551388 30033 layer_factory.hpp:75] Creating layer relu2_2
I0809 18:09:41.551396 30033 net.cpp:99] Creating Layer relu2_2
I0809 18:09:41.551403 30033 net.cpp:453] relu2_2 <- conv2_2
I0809 18:09:41.551409 30033 net.cpp:396] relu2_2 -> conv2_2 (in-place)
I0809 18:09:41.551416 30033 net.cpp:131] Setting up relu2_2
I0809 18:09:41.551476 30033 net.cpp:140] Top shape: 64 128 112 112 (102760448)
I0809 18:09:41.551484 30033 layer_factory.hpp:75] Creating layer pool2
I0809 18:09:41.551492 30033 net.cpp:99] Creating Layer pool2
I0809 18:09:41.551497 30033 net.cpp:453] pool2 <- conv2_2
I0809 18:09:41.551504 30033 net.cpp:409] pool2 -> pool2
I0809 18:09:41.551512 30033 net.cpp:131] Setting up pool2
I0809 18:09:41.551690 30033 net.cpp:140] Top shape: 64 128 56 56 (25690112)
I0809 18:09:41.551703 30033 layer_factory.hpp:75] Creating layer conv3_1
I0809 18:09:41.551712 30033 net.cpp:99] Creating Layer conv3_1
I0809 18:09:41.551718 30033 net.cpp:453] conv3_1 <- pool2
I0809 18:09:41.551725 30033 net.cpp:409] conv3_1 -> conv3_1
I0809 18:09:41.551735 30033 net.cpp:131] Setting up conv3_1
I0809 18:09:41.554364 30033 net.cpp:140] Top shape: 64 256 56 56 (51380224)
I0809 18:09:41.554388 30033 layer_factory.hpp:75] Creating layer relu3_1
I0809 18:09:41.554399 30033 net.cpp:99] Creating Layer relu3_1
I0809 18:09:41.554404 30033 net.cpp:453] relu3_1 <- conv3_1
I0809 18:09:41.554411 30033 net.cpp:396] relu3_1 -> conv3_1 (in-place)
I0809 18:09:41.554419 30033 net.cpp:131] Setting up relu3_1
I0809 18:09:41.554478 30033 net.cpp:140] Top shape: 64 256 56 56 (51380224)
I0809 18:09:41.554496 30033 layer_factory.hpp:75] Creating layer conv3_2
I0809 18:09:41.554504 30033 net.cpp:99] Creating Layer conv3_2
I0809 18:09:41.554510 30033 net.cpp:453] conv3_2 <- conv3_1
I0809 18:09:41.554518 30033 net.cpp:409] conv3_2 -> conv3_2
I0809 18:09:41.554527 30033 net.cpp:131] Setting up conv3_2
I0809 18:09:41.558396 30033 net.cpp:140] Top shape: 64 256 56 56 (51380224)
I0809 18:09:41.558415 30033 layer_factory.hpp:75] Creating layer relu3_2
I0809 18:09:41.558424 30033 net.cpp:99] Creating Layer relu3_2
I0809 18:09:41.558430 30033 net.cpp:453] relu3_2 <- conv3_2
I0809 18:09:41.558437 30033 net.cpp:396] relu3_2 -> conv3_2 (in-place)
I0809 18:09:41.558444 30033 net.cpp:131] Setting up relu3_2
I0809 18:09:41.558501 30033 net.cpp:140] Top shape: 64 256 56 56 (51380224)
I0809 18:09:41.558511 30033 layer_factory.hpp:75] Creating layer conv3_3
I0809 18:09:41.558519 30033 net.cpp:99] Creating Layer conv3_3
I0809 18:09:41.558524 30033 net.cpp:453] conv3_3 <- conv3_2
I0809 18:09:41.558531 30033 net.cpp:409] conv3_3 -> conv3_3
I0809 18:09:41.558539 30033 net.cpp:131] Setting up conv3_3
I0809 18:09:41.562408 30033 net.cpp:140] Top shape: 64 256 56 56 (51380224)
I0809 18:09:41.562427 30033 layer_factory.hpp:75] Creating layer relu3_3
I0809 18:09:41.562436 30033 net.cpp:99] Creating Layer relu3_3
I0809 18:09:41.562443 30033 net.cpp:453] relu3_3 <- conv3_3
I0809 18:09:41.562448 30033 net.cpp:396] relu3_3 -> conv3_3 (in-place)
I0809 18:09:41.562455 30033 net.cpp:131] Setting up relu3_3
I0809 18:09:41.562628 30033 net.cpp:140] Top shape: 64 256 56 56 (51380224)
I0809 18:09:41.562640 30033 layer_factory.hpp:75] Creating layer pool3
I0809 18:09:41.562649 30033 net.cpp:99] Creating Layer pool3
I0809 18:09:41.562654 30033 net.cpp:453] pool3 <- conv3_3
I0809 18:09:41.562661 30033 net.cpp:409] pool3 -> pool3
I0809 18:09:41.562688 30033 net.cpp:131] Setting up pool3
I0809 18:09:41.562747 30033 net.cpp:140] Top shape: 64 256 28 28 (12845056)
I0809 18:09:41.562755 30033 layer_factory.hpp:75] Creating layer conv4_1
I0809 18:09:41.562764 30033 net.cpp:99] Creating Layer conv4_1
I0809 18:09:41.562769 30033 net.cpp:453] conv4_1 <- pool3
I0809 18:09:41.562777 30033 net.cpp:409] conv4_1 -> conv4_1
I0809 18:09:41.562783 30033 net.cpp:131] Setting up conv4_1
I0809 18:09:41.570608 30033 net.cpp:140] Top shape: 64 512 28 28 (25690112)
I0809 18:09:41.570644 30033 layer_factory.hpp:75] Creating layer relu4_1
I0809 18:09:41.570657 30033 net.cpp:99] Creating Layer relu4_1
I0809 18:09:41.570663 30033 net.cpp:453] relu4_1 <- conv4_1
I0809 18:09:41.570670 30033 net.cpp:396] relu4_1 -> conv4_1 (in-place)
I0809 18:09:41.570678 30033 net.cpp:131] Setting up relu4_1
I0809 18:09:41.570739 30033 net.cpp:140] Top shape: 64 512 28 28 (25690112)
I0809 18:09:41.570747 30033 layer_factory.hpp:75] Creating layer conv4_2
I0809 18:09:41.570756 30033 net.cpp:99] Creating Layer conv4_2
I0809 18:09:41.570761 30033 net.cpp:453] conv4_2 <- conv4_1
I0809 18:09:41.570768 30033 net.cpp:409] conv4_2 -> conv4_2
I0809 18:09:41.570776 30033 net.cpp:131] Setting up conv4_2
I0809 18:09:41.585371 30033 net.cpp:140] Top shape: 64 512 28 28 (25690112)
I0809 18:09:41.585404 30033 layer_factory.hpp:75] Creating layer relu4_2
I0809 18:09:41.585417 30033 net.cpp:99] Creating Layer relu4_2
I0809 18:09:41.585424 30033 net.cpp:453] relu4_2 <- conv4_2
I0809 18:09:41.585433 30033 net.cpp:396] relu4_2 -> conv4_2 (in-place)
I0809 18:09:41.585440 30033 net.cpp:131] Setting up relu4_2
I0809 18:09:41.585495 30033 net.cpp:140] Top shape: 64 512 28 28 (25690112)
I0809 18:09:41.585506 30033 layer_factory.hpp:75] Creating layer conv4_3
I0809 18:09:41.585515 30033 net.cpp:99] Creating Layer conv4_3
I0809 18:09:41.585521 30033 net.cpp:453] conv4_3 <- conv4_2
I0809 18:09:41.585530 30033 net.cpp:409] conv4_3 -> conv4_3
I0809 18:09:41.585538 30033 net.cpp:131] Setting up conv4_3
I0809 18:09:41.600110 30033 net.cpp:140] Top shape: 64 512 28 28 (25690112)
I0809 18:09:41.600142 30033 layer_factory.hpp:75] Creating layer relu4_3
I0809 18:09:41.600153 30033 net.cpp:99] Creating Layer relu4_3
I0809 18:09:41.600160 30033 net.cpp:453] relu4_3 <- conv4_3
I0809 18:09:41.600168 30033 net.cpp:396] relu4_3 -> conv4_3 (in-place)
I0809 18:09:41.600177 30033 net.cpp:131] Setting up relu4_3
I0809 18:09:41.600355 30033 net.cpp:140] Top shape: 64 512 28 28 (25690112)
I0809 18:09:41.600369 30033 layer_factory.hpp:75] Creating layer pool4
I0809 18:09:41.600379 30033 net.cpp:99] Creating Layer pool4
I0809 18:09:41.600385 30033 net.cpp:453] pool4 <- conv4_3
I0809 18:09:41.600392 30033 net.cpp:409] pool4 -> pool4
I0809 18:09:41.600401 30033 net.cpp:131] Setting up pool4
I0809 18:09:41.600466 30033 net.cpp:140] Top shape: 64 512 14 14 (6422528)
I0809 18:09:41.600476 30033 layer_factory.hpp:75] Creating layer conv5_1
I0809 18:09:41.600486 30033 net.cpp:99] Creating Layer conv5_1
I0809 18:09:41.600492 30033 net.cpp:453] conv5_1 <- pool4
I0809 18:09:41.600499 30033 net.cpp:409] conv5_1 -> conv5_1
I0809 18:09:41.600513 30033 net.cpp:131] Setting up conv5_1
I0809 18:09:41.615147 30033 net.cpp:140] Top shape: 64 512 14 14 (6422528)
I0809 18:09:41.615178 30033 layer_factory.hpp:75] Creating layer relu5_1
I0809 18:09:41.615190 30033 net.cpp:99] Creating Layer relu5_1
I0809 18:09:41.615196 30033 net.cpp:453] relu5_1 <- conv5_1
I0809 18:09:41.615207 30033 net.cpp:396] relu5_1 -> conv5_1 (in-place)
I0809 18:09:41.615216 30033 net.cpp:131] Setting up relu5_1
I0809 18:09:41.615275 30033 net.cpp:140] Top shape: 64 512 14 14 (6422528)
I0809 18:09:41.615285 30033 layer_factory.hpp:75] Creating layer conv5_2
I0809 18:09:41.615296 30033 net.cpp:99] Creating Layer conv5_2
I0809 18:09:41.615303 30033 net.cpp:453] conv5_2 <- conv5_1
I0809 18:09:41.615309 30033 net.cpp:409] conv5_2 -> conv5_2
I0809 18:09:41.615317 30033 net.cpp:131] Setting up conv5_2
I0809 18:09:41.630085 30033 net.cpp:140] Top shape: 64 512 14 14 (6422528)
I0809 18:09:41.630118 30033 layer_factory.hpp:75] Creating layer relu5_2
I0809 18:09:41.630154 30033 net.cpp:99] Creating Layer relu5_2
I0809 18:09:41.630162 30033 net.cpp:453] relu5_2 <- conv5_2
I0809 18:09:41.630170 30033 net.cpp:396] relu5_2 -> conv5_2 (in-place)
I0809 18:09:41.630178 30033 net.cpp:131] Setting up relu5_2
I0809 18:09:41.630242 30033 net.cpp:140] Top shape: 64 512 14 14 (6422528)
I0809 18:09:41.630254 30033 layer_factory.hpp:75] Creating layer conv5_3
I0809 18:09:41.630264 30033 net.cpp:99] Creating Layer conv5_3
I0809 18:09:41.630270 30033 net.cpp:453] conv5_3 <- conv5_2
I0809 18:09:41.630277 30033 net.cpp:409] conv5_3 -> conv5_3
I0809 18:09:41.630286 30033 net.cpp:131] Setting up conv5_3
I0809 18:09:41.645263 30033 net.cpp:140] Top shape: 64 512 14 14 (6422528)
I0809 18:09:41.645297 30033 layer_factory.hpp:75] Creating layer relu5_3
I0809 18:09:41.645308 30033 net.cpp:99] Creating Layer relu5_3
I0809 18:09:41.645314 30033 net.cpp:453] relu5_3 <- conv5_3
I0809 18:09:41.645324 30033 net.cpp:396] relu5_3 -> conv5_3 (in-place)
I0809 18:09:41.645334 30033 net.cpp:131] Setting up relu5_3
I0809 18:09:41.645524 30033 net.cpp:140] Top shape: 64 512 14 14 (6422528)
I0809 18:09:41.645537 30033 layer_factory.hpp:75] Creating layer pool5
I0809 18:09:41.645547 30033 net.cpp:99] Creating Layer pool5
I0809 18:09:41.645555 30033 net.cpp:453] pool5 <- conv5_3
I0809 18:09:41.645562 30033 net.cpp:409] pool5 -> pool5
I0809 18:09:41.645570 30033 net.cpp:131] Setting up pool5
I0809 18:09:41.645637 30033 net.cpp:140] Top shape: 64 512 7 7 (1605632)
I0809 18:09:41.645648 30033 layer_factory.hpp:75] Creating layer fc6
I0809 18:09:41.645659 30033 net.cpp:99] Creating Layer fc6
I0809 18:09:41.645665 30033 net.cpp:453] fc6 <- pool5
I0809 18:09:41.645673 30033 net.cpp:409] fc6 -> fc6
I0809 18:09:41.645683 30033 net.cpp:131] Setting up fc6
I0809 18:09:42.444154 30033 net.cpp:140] Top shape: 64 4096 (262144)
I0809 18:09:42.444190 30033 layer_factory.hpp:75] Creating layer relu6
I0809 18:09:42.444206 30033 net.cpp:99] Creating Layer relu6
I0809 18:09:42.444216 30033 net.cpp:453] relu6 <- fc6
I0809 18:09:42.444229 30033 net.cpp:396] relu6 -> fc6 (in-place)
I0809 18:09:42.444242 30033 net.cpp:131] Setting up relu6
I0809 18:09:42.444355 30033 net.cpp:140] Top shape: 64 4096 (262144)
I0809 18:09:42.444372 30033 layer_factory.hpp:75] Creating layer drop6
I0809 18:09:42.444386 30033 net.cpp:99] Creating Layer drop6
I0809 18:09:42.444393 30033 net.cpp:453] drop6 <- fc6
I0809 18:09:42.444403 30033 net.cpp:396] drop6 -> fc6 (in-place)
I0809 18:09:42.444418 30033 net.cpp:131] Setting up drop6
I0809 18:09:42.444432 30033 net.cpp:140] Top shape: 64 4096 (262144)
I0809 18:09:42.444442 30033 layer_factory.hpp:75] Creating layer fc7
I0809 18:09:42.444455 30033 net.cpp:99] Creating Layer fc7
I0809 18:09:42.444464 30033 net.cpp:453] fc7 <- fc6
I0809 18:09:42.444474 30033 net.cpp:409] fc7 -> fc7
I0809 18:09:42.444489 30033 net.cpp:131] Setting up fc7
I0809 18:09:42.573820 30033 net.cpp:140] Top shape: 64 4096 (262144)
I0809 18:09:42.573868 30033 layer_factory.hpp:75] Creating layer relu7
I0809 18:09:42.573887 30033 net.cpp:99] Creating Layer relu7
I0809 18:09:42.573899 30033 net.cpp:453] relu7 <- fc7
I0809 18:09:42.573911 30033 net.cpp:396] relu7 -> fc7 (in-place)
I0809 18:09:42.573922 30033 net.cpp:131] Setting up relu7
I0809 18:09:42.574033 30033 net.cpp:140] Top shape: 64 4096 (262144)
I0809 18:09:42.574048 30033 layer_factory.hpp:75] Creating layer drop7
I0809 18:09:42.574059 30033 net.cpp:99] Creating Layer drop7
I0809 18:09:42.574065 30033 net.cpp:453] drop7 <- fc7
I0809 18:09:42.574074 30033 net.cpp:396] drop7 -> fc7 (in-place)
I0809 18:09:42.574084 30033 net.cpp:131] Setting up drop7
I0809 18:09:42.574095 30033 net.cpp:140] Top shape: 64 4096 (262144)
I0809 18:09:42.574102 30033 layer_factory.hpp:75] Creating layer fc8-1
I0809 18:09:42.574116 30033 net.cpp:99] Creating Layer fc8-1
I0809 18:09:42.574123 30033 net.cpp:453] fc8-1 <- fc7
I0809 18:09:42.574133 30033 net.cpp:409] fc8-1 -> fc8-1
I0809 18:09:42.574144 30033 net.cpp:131] Setting up fc8-1
I0809 18:09:42.588449 30033 net.cpp:140] Top shape: 64 101 (6464)
I0809 18:09:42.588502 30033 layer_factory.hpp:75] Creating layer loss
I0809 18:09:42.588524 30033 net.cpp:99] Creating Layer loss
I0809 18:09:42.588533 30033 net.cpp:453] loss <- fc8-1
I0809 18:09:42.588539 30033 net.cpp:453] loss <- label_local
I0809 18:09:42.588548 30033 net.cpp:409] loss -> (automatic)
I0809 18:09:42.588557 30033 net.cpp:131] Setting up loss
I0809 18:09:42.588563 30033 layer_factory.hpp:75] Creating layer loss
…
    mean_value: 128
    mean_value: 128
    mean_value: 128
    mean_value: 128
    mean_value: 128
    mean_value: 128
    mean_value: 128
    mean_value: 128
    mean_value: 128
    mean_value: 128
    mean_value: 128
    mean_value: 128
    mean_value: 128
    mean_value: 128
    mean_value: 128
    mean_value: 128
    mean_value: 128
    mean_value: 128
    fix_crop: true
    is_flow: true
  }
  video_data_param {
    source: "/home/jiri/Lake/HAR/datasets/UCF-101/val-2-rnd.txt"
    batch_size: 5
    new_length: 10
    num_segments: 1
    modality: FLOW
  }
}
layer {
  name: "conv1_1"
  type: "Convolution"
  bottom: "data"
  top: "conv1_1"
  param {
    lr_mult: 1
    decay_mult: 1
  }
  param {
    lr_mult: 2
    decay_mult: 0
  }
  convolution_param {
    num_output: 64
    pad: 1
    kernel_size: 3
    weight_filler {
      type: "xavier"
    }
  }
}
layer {
  name: "relu1_1"
  type: "ReLU"
  bottom: "conv1_1"
  top: "conv1_1"
}
layer {
  name: "conv1_2"
  type: "Convolution"
  bottom: "conv1_1"
  top: "conv1_2"
  param {
    lr_mult: 1
    decay_mult: 1
  }
  param {
    lr_mult: 2
    decay_mult: 0
  }
  convolution_param {
    num_output: 64
    pad: 1
    kernel_size: 3
    weight_filler {
      type: "xavier"
    }
  }
}
layer {
  name: "relu1_2"
  type: "ReLU"
  bottom: "conv1_2"
  top: "conv1_2"
}
layer {
  name: "pool1"
  type: "Pooling"
  bottom: "conv1_2"
  top: "pool1"
  pooling_param {
    pool: MAX
    kernel_size: 2
    stride: 2
  }
}
layer {
  name: "conv2_1"
  type: "Convolution"
  bottom: "pool1"
  top: "conv2_1"
  param {
    lr_mult: 1
    decay_mult: 1
  }
  param {
    lr_mult: 2
    decay_mult: 0
  }
  convolution_param {
    num_output: 128
    pad: 1
    kernel_size: 3
    weight_filler {
      type: "xavier"
    }
  }
}
layer {
  name: "relu2_1"
  type: "ReLU"
  bottom: "conv2_1"
  top: "conv2_1"
}
layer {
  name: "conv2_2"
  type: "Convolution"
  bottom: "conv2_1"
  top: "conv2_2"
  param {
    lr_mult: 1
    decay_mult: 1
  }
  param {
    lr_mult: 2
    decay_mult: 0
  }
  convolution_param {
    num_output: 128
    pad: 1
    kernel_size: 3
    weight_filler {
      type: "xavier"
    }
  }
}
layer {
  name: "relu2_2"
  type: "ReLU"
  bottom: "conv2_2"
  top: "conv2_2"
}
layer {
  name: "pool2"
  type: "Pooling"
  bottom: "conv2_2"
  top: "pool2"
  pooling_param {
    pool: MAX
    kernel_size: 2
    stride: 2
  }
}
layer {
  name: "conv3_1"
  type: "Convolution"
  bottom: "pool2"
  top: "conv3_1"
  param {
    lr_mult: 1
    decay_mult: 1
  }
  param {
    lr_mult: 2
    decay_mult: 0
  }
  convolution_param {
    num_output: 256
    pad: 1
    kernel_size: 3
    weight_filler {
      type: "xavier"
    }
  }
}
layer {
  name: "relu3_1"
  type: "ReLU"
  bottom: "conv3_1"
  top: "conv3_1"
}
layer {
  name: "conv3_2"
  type: "Convolution"
  bottom: "conv3_1"
  top: "conv3_2"
  param {
    lr_mult: 1
    decay_mult: 1
  }
  param {
    lr_mult: 2
    decay_mult: 0
  }
  convolution_param {
    num_output: 256
    pad: 1
    kernel_size: 3
    weight_filler {
      type: "xavier"
    }
  }
}
layer {
  name: "relu3_2"
  type: "ReLU"
  bottom: "conv3_2"
  top: "conv3_2"
}
layer {
  name: "conv3_3"
  type: "Convolution"
  bottom: "conv3_2"
  top: "conv3_3"
  param {
    lr_mult: 1
    decay_mult: 1
  }
  param {
    lr_mult: 2
    decay_mult: 0
  }
  convolution_param {
    num_output: 256
    pad: 1
    kernel_size: 3
    weight_filler {
      type: "xavier"
    }
  }
}
layer {
  name: "relu3_3"
  type: "ReLU"
  bottom: "conv3_3"
  top: "conv3_3"
}
layer {
  name: "pool3"
  type: "Pooling"
  bottom: "conv3_3"
  top: "pool3"
  pooling_param {
    pool: MAX
    kernel_size: 2
    stride: 2
  }
}
layer {
  name: "conv4_1"
  type: "Convolution"
  bottom: "pool3"
  top: "conv4_1"
  param {
    lr_mult: 1
    decay_mult: 1
  }
  param {
    lr_mult: 2
    decay_mult: 0
  }
  convolution_param {
    num_output: 512
    pad: 1
    kernel_size: 3
    weight_filler {
      type: "xavier"
    }
  }
}
layer {
  name: "relu4_1"
  type: "ReLU"
  bottom: "conv4_1"
  top: "conv4_1"
}
layer {
  name: "conv4_2"
  type: "Convolution"
  bottom: "conv4_1"
  top: "conv4_2"
  param {
    lr_mult: 1
    decay_mult: 1
  }
  param {
    lr_mult: 2
    decay_mult: 0
  }
  convolution_param {
    num_output: 512
    pad: 1
    kernel_size: 3
    weight_filler {
      type: "xavier"
    }
  }
}
layer {
  name: "relu4_2"
  type: "ReLU"
  bottom: "conv4_2"
  top: "conv4_2"
}
layer {
  name: "conv4_3"
  type: "Convolution"
  bottom: "conv4_2"
  top: "conv4_3"
  param {
    lr_mult: 1
    decay_mult: 1
  }
  param {
    lr_mult: 2
    decay_mult: 0
  }
  convolution_param {
    num_output: 512
    pad: 1
    kernel_size: 3
    weight_filler {
      type: "xavier"
    }
  }
}
layer {
  name: "relu4_3"
  type: "ReLU"
  bottom: "conv4_3"
  top: "conv4_3"
}
layer {
  name: "pool4"
  type: "Pooling"
  bottom: "conv4_3"
  top: "pool4"
  pooling_param {
    pool: MAX
    kernel_size: 2
    stride: 2
  }
}
layer {
  name: "conv5_1"
  type: "Convolution"
  bottom: "pool4"
  top: "conv5_1"
  param {
    lr_mult: 1
    decay_mult: 1
  }
  param {
    lr_mult: 2
    decay_mult: 0
  }
  convolution_param {
    num_output: 512
    pad: 1
    kernel_size: 3
    weight_filler {
      type: "xavier"
    }
  }
}
layer {
  name: "relu5_1"
  type: "ReLU"
  bottom: "conv5_1"
  top: "conv5_1"
}
layer {
  name: "conv5_2"
  type: "Convolution"
  bottom: "conv5_1"
  top: "conv5_2"
  param {
    lr_mult: 1
    decay_mult: 1
  }
  param {
    lr_mult: 2
    decay_mult: 0
  }
  convolution_param {
    num_output: 512
    pad: 1
    kernel_size: 3
    weight_filler {
      type: "xavier"
    }
  }
}
layer {
  name: "relu5_2"
  type: "ReLU"
  bottom: "conv5_2"
  top: "conv5_2"
}
layer {
  name: "conv5_3"
  type: "Convolution"
  bottom: "conv5_2"
  top: "conv5_3"
  param {
    lr_mult: 1
    decay_mult: 1
  }
  param {
    lr_mult: 2
    decay_mult: 0
  }
  convolution_param {
    num_output: 512
    pad: 1
    kernel_size: 3
    weight_filler {
      type: "xavier"
    }
  }
}
layer {
  name: "relu5_3"
  type: "ReLU"
  bottom: "conv5_3"
  top: "conv5_3"
}
layer {
  name: "pool5"
  type: "Pooling"
  bottom: "conv5_3"
  top: "pool5"
  pooling_param {
    pool: MAX
    kernel_size: 2
    stride: 2
  }
}
layer {
  name: "fc6"
  type: "InnerProduct"
  bottom: "pool5"
  top: "fc6"
  param {
    lr_mult: 1
    decay_mult: 1
  }
  param {
    lr_mult: 2
    decay_mult: 0
  }
  inner_product_param {
    num_output: 4096
    weight_filler {
      type: "xavier"
    }
  }
}
layer {
  name: "relu6"
  type: "ReLU"
  bottom: "fc6"
  top: "fc6"
}
layer {
  name: "drop6"
  type: "Dropout"
  bottom: "fc6"
  top: "fc6"
  dropout_param {
    dropout_ratio: 0.9
  }
}
layer {
  name: "fc7"
  type: "InnerProduct"
  bottom: "fc6"
  top: "fc7"
  param {
    lr_mult: 1
    decay_mult: 1
  }
  param {
    lr_mult: 2
    decay_mult: 0
  }
  inner_product_param {
    num_output: 4096
    weight_filler {
      type: "xavier"
    }
  }
}
layer {
  name: "relu7"
  type: "ReLU"
  bottom: "fc7"
  top: "fc7"
}
layer {
  name: "drop7"
  type: "Dropout"
  bottom: "fc7"
  top: "fc7"
  dropout_param {
    dropout_ratio: 0.8
  }
}
layer {
  name: "fc8-1"
  type: "InnerProduct"
  bottom: "fc7"
  top: "fc8-1"
  param {
    lr_mult: 1
    decay_mult: 1
  }
  param {
    lr_mult: 2
    decay_mult: 0
  }
  inner_product_param {
    num_output: 101
    weight_filler {
      type: "gaussian"
      std: 0.001
    }
    bias_filler {
      type: "constant"
      value: 0
    }
  }
}
layer {
  name: "loss"
  type: "SoftmaxWithLoss"
  bottom: "fc8-1"
  bottom: "label_local"
  top: "loss"
  include {
    phase: TEST
  }
}
layer {
  name: "accuracy"
  type: "Accuracy"
  bottom: "fc8-1"
  bottom: "label_local"
  top: "accuracy"
  include {
    phase: TEST
  }
}
I0809 18:09:42.592694 30033 layer_factory.hpp:75] Creating layer data
I0809 18:09:42.592717 30033 net.cpp:99] Creating Layer data
I0809 18:09:42.592727 30033 net.cpp:409] data -> data
I0809 18:09:42.592741 30033 net.cpp:409] data -> label_local
I0809 18:09:42.592751 30033 net.cpp:131] Setting up data
I0809 18:09:42.592758 30033 video_data_layer.cpp:34] Opening file: /home/jiri/Lake/HAR/datasets/UCF-101/val-2-rnd.txt
I0809 18:09:42.595398 30033 video_data_layer.cpp:50] A total of 3783 videos.
I0809 18:09:42.606827 30033 video_data_layer.cpp:85] output data size: 5,20,224,224
I0809 18:09:42.632236 30033 net.cpp:140] Top shape: 5 20 224 224 (5017600)
I0809 18:09:42.632261 30033 net.cpp:140] Top shape: 5 1 1 1 (5)
I0809 18:09:42.632268 30033 layer_factory.hpp:75] Creating layer label_local_data_1_split
I0809 18:09:42.632280 30033 net.cpp:99] Creating Layer label_local_data_1_split
I0809 18:09:42.632287 30033 net.cpp:453] label_local_data_1_split <- label_local
I0809 18:09:42.632295 30033 net.cpp:409] label_local_data_1_split -> label_local_data_1_split_0
I0809 18:09:42.632304 30033 net.cpp:409] label_local_data_1_split -> label_local_data_1_split_1
I0809 18:09:42.632311 30033 net.cpp:131] Setting up label_local_data_1_split
I0809 18:09:42.632320 30033 net.cpp:140] Top shape: 5 1 1 1 (5)
I0809 18:09:42.632325 30033 net.cpp:140] Top shape: 5 1 1 1 (5)
I0809 18:09:42.632330 30033 layer_factory.hpp:75] Creating layer conv1_1
I0809 18:09:42.632340 30033 net.cpp:99] Creating Layer conv1_1
I0809 18:09:42.632345 30033 net.cpp:453] conv1_1 <- data
I0809 18:09:42.632351 30033 net.cpp:409] conv1_1 -> conv1_1
I0809 18:09:42.632359 30033 net.cpp:131] Setting up conv1_1
I0809 18:09:42.632889 30033 net.cpp:140] Top shape: 5 64 224 224 (16056320)
I0809 18:09:42.632905 30033 layer_factory.hpp:75] Creating layer relu1_1
I0809 18:09:42.632913 30033 net.cpp:99] Creating Layer relu1_1
I0809 18:09:42.632918 30033 net.cpp:453] relu1_1 <- conv1_1
I0809 18:09:42.632925 30033 net.cpp:396] relu1_1 -> conv1_1 (in-place)
I0809 18:09:42.632931 30033 net.cpp:131] Setting up relu1_1
I0809 18:09:42.632987 30033 net.cpp:140] Top shape: 5 64 224 224 (16056320)
I0809 18:09:42.632994 30033 layer_factory.hpp:75] Creating layer conv1_2
I0809 18:09:42.633002 30033 net.cpp:99] Creating Layer conv1_2
I0809 18:09:42.633008 30033 net.cpp:453] conv1_2 <- conv1_1
I0809 18:09:42.633013 30033 net.cpp:409] conv1_2 -> conv1_2
I0809 18:09:42.633020 30033 net.cpp:131] Setting up conv1_2
I0809 18:09:42.633961 30033 net.cpp:140] Top shape: 5 64 224 224 (16056320)
I0809 18:09:42.633978 30033 layer_factory.hpp:75] Creating layer relu1_2
I0809 18:09:42.633986 30033 net.cpp:99] Creating Layer relu1_2
I0809 18:09:42.633991 30033 net.cpp:453] relu1_2 <- conv1_2
I0809 18:09:42.633998 30033 net.cpp:396] relu1_2 -> conv1_2 (in-place)
I0809 18:09:42.634006 30033 net.cpp:131] Setting up relu1_2
I0809 18:09:42.634068 30033 net.cpp:140] Top shape: 5 64 224 224 (16056320)
I0809 18:09:42.634076 30033 layer_factory.hpp:75] Creating layer pool1
I0809 18:09:42.634085 30033 net.cpp:99] Creating Layer pool1
I0809 18:09:42.634090 30033 net.cpp:453] pool1 <- conv1_2
I0809 18:09:42.634096 30033 net.cpp:409] pool1 -> pool1
I0809 18:09:42.634104 30033 net.cpp:131] Setting up pool1
I0809 18:09:42.634282 30033 net.cpp:140] Top shape: 5 64 112 112 (4014080)
I0809 18:09:42.634292 30033 layer_factory.hpp:75] Creating layer conv2_1
I0809 18:09:42.634301 30033 net.cpp:99] Creating Layer conv2_1
I0809 18:09:42.634306 30033 net.cpp:453] conv2_1 <- pool1
I0809 18:09:42.634313 30033 net.cpp:409] conv2_1 -> conv2_1
I0809 18:09:42.634321 30033 net.cpp:131] Setting up conv2_1
I0809 18:09:42.636656 30033 net.cpp:140] Top shape: 5 128 112 112 (8028160)
I0809 18:09:42.636672 30033 layer_factory.hpp:75] Creating layer relu2_1
I0809 18:09:42.636682 30033 net.cpp:99] Creating Layer relu2_1
I0809 18:09:42.636687 30033 net.cpp:453] relu2_1 <- conv2_1
I0809 18:09:42.636709 30033 net.cpp:396] relu2_1 -> conv2_1 (in-place)
I0809 18:09:42.636716 30033 net.cpp:131] Setting up relu2_1
I0809 18:09:42.636772 30033 net.cpp:140] Top shape: 5 128 112 112 (8028160)
I0809 18:09:42.636780 30033 layer_factory.hpp:75] Creating layer conv2_2
I0809 18:09:42.636787 30033 net.cpp:99] Creating Layer conv2_2
I0809 18:09:42.636792 30033 net.cpp:453] conv2_2 <- conv2_1
I0809 18:09:42.636798 30033 net.cpp:409] conv2_2 -> conv2_2
I0809 18:09:42.636807 30033 net.cpp:131] Setting up conv2_2
I0809 18:09:42.637825 30033 net.cpp:140] Top shape: 5 128 112 112 (8028160)
I0809 18:09:42.637848 30033 layer_factory.hpp:75] Creating layer relu2_2
I0809 18:09:42.637857 30033 net.cpp:99] Creating Layer relu2_2
I0809 18:09:42.637863 30033 net.cpp:453] relu2_2 <- conv2_2
I0809 18:09:42.637869 30033 net.cpp:396] relu2_2 -> conv2_2 (in-place)
I0809 18:09:42.637876 30033 net.cpp:131] Setting up relu2_2
I0809 18:09:42.637929 30033 net.cpp:140] Top shape: 5 128 112 112 (8028160)
I0809 18:09:42.637936 30033 layer_factory.hpp:75] Creating layer pool2
I0809 18:09:42.637943 30033 net.cpp:99] Creating Layer pool2
I0809 18:09:42.637948 30033 net.cpp:453] pool2 <- conv2_2
I0809 18:09:42.637954 30033 net.cpp:409] pool2 -> pool2
I0809 18:09:42.637961 30033 net.cpp:131] Setting up pool2
I0809 18:09:42.638013 30033 net.cpp:140] Top shape: 5 128 56 56 (2007040)
I0809 18:09:42.638020 30033 layer_factory.hpp:75] Creating layer conv3_1
I0809 18:09:42.638027 30033 net.cpp:99] Creating Layer conv3_1
I0809 18:09:42.638032 30033 net.cpp:453] conv3_1 <- pool2
I0809 18:09:42.638038 30033 net.cpp:409] conv3_1 -> conv3_1
I0809 18:09:42.638046 30033 net.cpp:131] Setting up conv3_1
I0809 18:09:42.640141 30033 net.cpp:140] Top shape: 5 256 56 56 (4014080)
I0809 18:09:42.640167 30033 layer_factory.hpp:75] Creating layer relu3_1
I0809 18:09:42.640180 30033 net.cpp:99] Creating Layer relu3_1
I0809 18:09:42.640189 30033 net.cpp:453] relu3_1 <- conv3_1
I0809 18:09:42.640200 30033 net.cpp:396] relu3_1 -> conv3_1 (in-place)
I0809 18:09:42.640211 30033 net.cpp:131] Setting up relu3_1
I0809 18:09:42.640382 30033 net.cpp:140] Top shape: 5 256 56 56 (4014080)
I0809 18:09:42.640393 30033 layer_factory.hpp:75] Creating layer conv3_2
I0809 18:09:42.640401 30033 net.cpp:99] Creating Layer conv3_2
I0809 18:09:42.640406 30033 net.cpp:453] conv3_2 <- conv3_1
I0809 18:09:42.640413 30033 net.cpp:409] conv3_2 -> conv3_2
I0809 18:09:42.640421 30033 net.cpp:131] Setting up conv3_2
I0809 18:09:42.644136 30033 net.cpp:140] Top shape: 5 256 56 56 (4014080)
I0809 18:09:42.644158 30033 layer_factory.hpp:75] Creating layer relu3_2
I0809 18:09:42.644170 30033 net.cpp:99] Creating Layer relu3_2
I0809 18:09:42.644176 30033 net.cpp:453] relu3_2 <- conv3_2
I0809 18:09:42.644183 30033 net.cpp:396] relu3_2 -> conv3_2 (in-place)
I0809 18:09:42.644189 30033 net.cpp:131] Setting up relu3_2
I0809 18:09:42.644244 30033 net.cpp:140] Top shape: 5 256 56 56 (4014080)
I0809 18:09:42.644253 30033 layer_factory.hpp:75] Creating layer conv3_3
I0809 18:09:42.644264 30033 net.cpp:99] Creating Layer conv3_3
I0809 18:09:42.644269 30033 net.cpp:453] conv3_3 <- conv3_2
I0809 18:09:42.644276 30033 net.cpp:409] conv3_3 -> conv3_3
I0809 18:09:42.644284 30033 net.cpp:131] Setting up conv3_3
I0809 18:09:42.648010 30033 net.cpp:140] Top shape: 5 256 56 56 (4014080)
I0809 18:09:42.648032 30033 layer_factory.hpp:75] Creating layer relu3_3
I0809 18:09:42.648041 30033 net.cpp:99] Creating Layer relu3_3
I0809 18:09:42.648047 30033 net.cpp:453] relu3_3 <- conv3_3
I0809 18:09:42.648054 30033 net.cpp:396] relu3_3 -> conv3_3 (in-place)
I0809 18:09:42.648062 30033 net.cpp:131] Setting up relu3_3
I0809 18:09:42.648114 30033 net.cpp:140] Top shape: 5 256 56 56 (4014080)
I0809 18:09:42.648123 30033 layer_factory.hpp:75] Creating layer pool3
I0809 18:09:42.648130 30033 net.cpp:99] Creating Layer pool3
I0809 18:09:42.648135 30033 net.cpp:453] pool3 <- conv3_3
I0809 18:09:42.648141 30033 net.cpp:409] pool3 -> pool3
I0809 18:09:42.648149 30033 net.cpp:131] Setting up pool3
I0809 18:09:42.648201 30033 net.cpp:140] Top shape: 5 256 28 28 (1003520)
I0809 18:09:42.648226 30033 layer_factory.hpp:75] Creating layer conv4_1
I0809 18:09:42.648234 30033 net.cpp:99] Creating Layer conv4_1
I0809 18:09:42.648239 30033 net.cpp:453] conv4_1 <- pool3
I0809 18:09:42.648246 30033 net.cpp:409] conv4_1 -> conv4_1
I0809 18:09:42.648253 30033 net.cpp:131] Setting up conv4_1
I0809 18:09:42.655268 30033 net.cpp:140] Top shape: 5 512 28 28 (2007040)
I0809 18:09:42.655292 30033 layer_factory.hpp:75] Creating layer relu4_1
I0809 18:09:42.655302 30033 net.cpp:99] Creating Layer relu4_1
I0809 18:09:42.655308 30033 net.cpp:453] relu4_1 <- conv4_1
I0809 18:09:42.655314 30033 net.cpp:396] relu4_1 -> conv4_1 (in-place)
I0809 18:09:42.655323 30033 net.cpp:131] Setting up relu4_1
I0809 18:09:42.655503 30033 net.cpp:140] Top shape: 5 512 28 28 (2007040)
I0809 18:09:42.655514 30033 layer_factory.hpp:75] Creating layer conv4_2
I0809 18:09:42.655524 30033 net.cpp:99] Creating Layer conv4_2
I0809 18:09:42.655529 30033 net.cpp:453] conv4_2 <- conv4_1
I0809 18:09:42.655535 30033 net.cpp:409] conv4_2 -> conv4_2
I0809 18:09:42.655542 30033 net.cpp:131] Setting up conv4_2
I0809 18:09:42.669643 30033 net.cpp:140] Top shape: 5 512 28 28 (2007040)
I0809 18:09:42.669672 30033 layer_factory.hpp:75] Creating layer relu4_2
I0809 18:09:42.669682 30033 net.cpp:99] Creating Layer relu4_2
I0809 18:09:42.669689 30033 net.cpp:453] relu4_2 <- conv4_2
I0809 18:09:42.669697 30033 net.cpp:396] relu4_2 -> conv4_2 (in-place)
I0809 18:09:42.669703 30033 net.cpp:131] Setting up relu4_2
I0809 18:09:42.669757 30033 net.cpp:140] Top shape: 5 512 28 28 (2007040)
I0809 18:09:42.669764 30033 layer_factory.hpp:75] Creating layer conv4_3
I0809 18:09:42.669773 30033 net.cpp:99] Creating Layer conv4_3
I0809 18:09:42.669778 30033 net.cpp:453] conv4_3 <- conv4_2
I0809 18:09:42.669785 30033 net.cpp:409] conv4_3 -> conv4_3
I0809 18:09:42.669795 30033 net.cpp:131] Setting up conv4_3
I0809 18:09:42.684263 30033 net.cpp:140] Top shape: 5 512 28 28 (2007040)
I0809 18:09:42.684293 30033 layer_factory.hpp:75] Creating layer relu4_3
I0809 18:09:42.684316 30033 net.cpp:99] Creating Layer relu4_3
I0809 18:09:42.684325 30033 net.cpp:453] relu4_3 <- conv4_3
I0809 18:09:42.684334 30033 net.cpp:396] relu4_3 -> conv4_3 (in-place)
I0809 18:09:42.684342 30033 net.cpp:131] Setting up relu4_3
I0809 18:09:42.684401 30033 net.cpp:140] Top shape: 5 512 28 28 (2007040)
I0809 18:09:42.684417 30033 layer_factory.hpp:75] Creating layer pool4
I0809 18:09:42.684425 30033 net.cpp:99] Creating Layer pool4
I0809 18:09:42.684432 30033 net.cpp:453] pool4 <- conv4_3
I0809 18:09:42.684438 30033 net.cpp:409] pool4 -> pool4
I0809 18:09:42.684445 30033 net.cpp:131] Setting up pool4
I0809 18:09:42.684623 30033 net.cpp:140] Top shape: 5 512 14 14 (501760)
I0809 18:09:42.684633 30033 layer_factory.hpp:75] Creating layer conv5_1
I0809 18:09:42.684643 30033 net.cpp:99] Creating Layer conv5_1
I0809 18:09:42.684648 30033 net.cpp:453] conv5_1 <- pool4
I0809 18:09:42.684654 30033 net.cpp:409] conv5_1 -> conv5_1
I0809 18:09:42.684664 30033 net.cpp:131] Setting up conv5_1
I0809 18:09:42.698845 30033 net.cpp:140] Top shape: 5 512 14 14 (501760)
I0809 18:09:42.698875 30033 layer_factory.hpp:75] Creating layer relu5_1
I0809 18:09:42.698886 30033 net.cpp:99] Creating Layer relu5_1
I0809 18:09:42.698894 30033 net.cpp:453] relu5_1 <- conv5_1
I0809 18:09:42.698900 30033 net.cpp:396] relu5_1 -> conv5_1 (in-place)
I0809 18:09:42.698909 30033 net.cpp:131] Setting up relu5_1
I0809 18:09:42.698963 30033 net.cpp:140] Top shape: 5 512 14 14 (501760)
I0809 18:09:42.698971 30033 layer_factory.hpp:75] Creating layer conv5_2
I0809 18:09:42.698982 30033 net.cpp:99] Creating Layer conv5_2
I0809 18:09:42.698987 30033 net.cpp:453] conv5_2 <- conv5_1
I0809 18:09:42.698993 30033 net.cpp:409] conv5_2 -> conv5_2
I0809 18:09:42.699002 30033 net.cpp:131] Setting up conv5_2
I0809 18:09:42.713290 30033 net.cpp:140] Top shape: 5 512 14 14 (501760)
I0809 18:09:42.713317 30033 layer_factory.hpp:75] Creating layer relu5_2
I0809 18:09:42.713328 30033 net.cpp:99] Creating Layer relu5_2
I0809 18:09:42.713353 30033 net.cpp:453] relu5_2 <- conv5_2
I0809 18:09:42.713362 30033 net.cpp:396] relu5_2 -> conv5_2 (in-place)
I0809 18:09:42.713371 30033 net.cpp:131] Setting up relu5_2
I0809 18:09:42.713424 30033 net.cpp:140] Top shape: 5 512 14 14 (501760)
I0809 18:09:42.713433 30033 layer_factory.hpp:75] Creating layer conv5_3
I0809 18:09:42.713443 30033 net.cpp:99] Creating Layer conv5_3
I0809 18:09:42.713449 30033 net.cpp:453] conv5_3 <- conv5_2
I0809 18:09:42.713455 30033 net.cpp:409] conv5_3 -> conv5_3
I0809 18:09:42.713464 30033 net.cpp:131] Setting up conv5_3
I0809 18:09:42.727488 30033 net.cpp:140] Top shape: 5 512 14 14 (501760)
I0809 18:09:42.727515 30033 layer_factory.hpp:75] Creating layer relu5_3
I0809 18:09:42.727526 30033 net.cpp:99] Creating Layer relu5_3
I0809 18:09:42.727535 30033 net.cpp:453] relu5_3 <- conv5_3
I0809 18:09:42.727543 30033 net.cpp:396] relu5_3 -> conv5_3 (in-place)
I0809 18:09:42.727550 30033 net.cpp:131] Setting up relu5_3
I0809 18:09:42.727607 30033 net.cpp:140] Top shape: 5 512 14 14 (501760)
I0809 18:09:42.727614 30033 layer_factory.hpp:75] Creating layer pool5
I0809 18:09:42.727627 30033 net.cpp:99] Creating Layer pool5
I0809 18:09:42.727632 30033 net.cpp:453] pool5 <- conv5_3
I0809 18:09:42.727638 30033 net.cpp:409] pool5 -> pool5
I0809 18:09:42.727645 30033 net.cpp:131] Setting up pool5
I0809 18:09:42.727819 30033 net.cpp:140] Top shape: 5 512 7 7 (125440)
I0809 18:09:42.727830 30033 layer_factory.hpp:75] Creating layer fc6
I0809 18:09:42.727839 30033 net.cpp:99] Creating Layer fc6
I0809 18:09:42.727844 30033 net.cpp:453] fc6 <- pool5
I0809 18:09:42.727851 30033 net.cpp:409] fc6 -> fc6
I0809 18:09:42.727859 30033 net.cpp:131] Setting up fc6
I0809 18:09:43.320399 30033 net.cpp:140] Top shape: 5 4096 (20480)
I0809 18:09:43.320431 30033 layer_factory.hpp:75] Creating layer relu6
I0809 18:09:43.320443 30033 net.cpp:99] Creating Layer relu6
I0809 18:09:43.320451 30033 net.cpp:453] relu6 <- fc6
I0809 18:09:43.320458 30033 net.cpp:396] relu6 -> fc6 (in-place)
I0809 18:09:43.320466 30033 net.cpp:131] Setting up relu6
I0809 18:09:43.320545 30033 net.cpp:140] Top shape: 5 4096 (20480)
I0809 18:09:43.320554 30033 layer_factory.hpp:75] Creating layer drop6
I0809 18:09:43.320561 30033 net.cpp:99] Creating Layer drop6
I0809 18:09:43.320566 30033 net.cpp:453] drop6 <- fc6
I0809 18:09:43.320572 30033 net.cpp:396] drop6 -> fc6 (in-place)
I0809 18:09:43.320580 30033 net.cpp:131] Setting up drop6
I0809 18:09:43.320586 30033 net.cpp:140] Top shape: 5 4096 (20480)
I0809 18:09:43.320591 30033 layer_factory.hpp:75] Creating layer fc7
I0809 18:09:43.320600 30033 net.cpp:99] Creating Layer fc7
I0809 18:09:43.320605 30033 net.cpp:453] fc7 <- fc6
I0809 18:09:43.320611 30033 net.cpp:409] fc7 -> fc7
I0809 18:09:43.320619 30033 net.cpp:131] Setting up fc7
I0809 18:09:43.416347 30033 net.cpp:140] Top shape: 5 4096 (20480)
I0809 18:09:43.416376 30033 layer_factory.hpp:75] Creating layer relu7
I0809 18:09:43.416388 30033 net.cpp:99] Creating Layer relu7
I0809 18:09:43.416395 30033 net.cpp:453] relu7 <- fc7
I0809 18:09:43.416414 30033 net.cpp:396] relu7 -> fc7 (in-place)
I0809 18:09:43.416422 30033 net.cpp:131] Setting up relu7
I0809 18:09:43.416501 30033 net.cpp:140] Top shape: 5 4096 (20480)
I0809 18:09:43.416510 30033 layer_factory.hpp:75] Creating layer drop7
I0809 18:09:43.416519 30033 net.cpp:99] Creating Layer drop7
I0809 18:09:43.416524 30033 net.cpp:453] drop7 <- fc7
I0809 18:09:43.416529 30033 net.cpp:396] drop7 -> fc7 (in-place)
I0809 18:09:43.416537 30033 net.cpp:131] Setting up drop7
I0809 18:09:43.416543 30033 net.cpp:140] Top shape: 5 4096 (20480)
I0809 18:09:43.416549 30033 layer_factory.hpp:75] Creating layer fc8-1
I0809 18:09:43.416558 30033 net.cpp:99] Creating Layer fc8-1
I0809 18:09:43.416563 30033 net.cpp:453] fc8-1 <- fc7
I0809 18:09:43.416570 30033 net.cpp:409] fc8-1 -> fc8-1
I0809 18:09:43.416577 30033 net.cpp:131] Setting up fc8-1
I0809 18:09:43.425964 30033 net.cpp:140] Top shape: 5 101 (505)
I0809 18:09:43.425981 30033 layer_factory.hpp:75] Creating layer fc8-1_fc8-1_0_split
I0809 18:09:43.426004 30033 net.cpp:99] Creating Layer fc8-1_fc8-1_0_split
I0809 18:09:43.426012 30033 net.cpp:453] fc8-1_fc8-1_0_split <- fc8-1
I0809 18:09:43.426019 30033 net.cpp:409] fc8-1_fc8-1_0_split -> fc8-1_fc8-1_0_split_0
I0809 18:09:43.426028 30033 net.cpp:409] fc8-1_fc8-1_0_split -> fc8-1_fc8-1_0_split_1
I0809 18:09:43.426033 30033 net.cpp:131] Setting up fc8-1_fc8-1_0_split
I0809 18:09:43.426041 30033 net.cpp:140] Top shape: 5 101 (505)
I0809 18:09:43.426048 30033 net.cpp:140] Top shape: 5 101 (505)
I0809 18:09:43.426053 30033 layer_factory.hpp:75] Creating layer loss
I0809 18:09:43.426059 30033 net.cpp:99] Creating Layer loss
I0809 18:09:43.426064 30033 net.cpp:453] loss <- fc8-1_fc8-1_0_split_0
I0809 18:09:43.426070 30033 net.cpp:453] loss <- label_local_data_1_split_0
I0809 18:09:43.426076 30033 net.cpp:409] loss -> loss
I0809 18:09:43.426084 30033 net.cpp:131] Setting up loss
I0809 18:09:43.426091 30033 layer_factory.hpp:75] Creating layer loss
…
