…
    mean_value: 128
    mean_value: 128
    mean_value: 128
    mean_value: 128
    mean_value: 128
    mean_value: 128
    mean_value: 128
    mean_value: 128
    mean_value: 128
    mean_value: 128
    mean_value: 128
    mean_value: 128
    fix_crop: true
    multi_scale: true
    scale_ratios: 1
    scale_ratios: 0.875
    scale_ratios: 0.75
    max_distort: 1
    is_flow: true
  }
  video_data_param {
    source: "/home/jiri/Lake/HAR/datasets/UCF-101/train-2-rnd.txt"
    batch_size: 64
    new_length: 10
    num_segments: 1
    modality: FLOW
  }
}
layer {
  name: "conv1_1"
  type: "Convolution"
  bottom: "data"
  top: "conv1_1"
  param {
    lr_mult: 1
    decay_mult: 1
  }
  param {
    lr_mult: 2
    decay_mult: 0
  }
  convolution_param {
    num_output: 64
    pad: 1
    kernel_size: 3
    weight_filler {
      type: "xavier"
    }
  }
}
layer {
  name: "relu1_1"
  type: "ReLU"
  bottom: "conv1_1"
  top: "conv1_1"
}
layer {
  name: "conv1_2"
  type: "Convolution"
  bottom: "conv1_1"
  top: "conv1_2"
  param {
    lr_mult: 1
    decay_mult: 1
  }
  param {
    lr_mult: 2
    decay_mult: 0
  }
  convolution_param {
    num_output: 64
    pad: 1
    kernel_size: 3
    weight_filler {
      type: "xavier"
    }
  }
}
layer {
  name: "relu1_2"
  type: "ReLU"
  bottom: "conv1_2"
  top: "conv1_2"
}
layer {
  name: "pool1"
  type: "Pooling"
  bottom: "conv1_2"
  top: "pool1"
  pooling_param {
    pool: MAX
    kernel_size: 2
    stride: 2
  }
}
layer {
  name: "conv2_1"
  type: "Convolution"
  bottom: "pool1"
  top: "conv2_1"
  param {
    lr_mult: 1
    decay_mult: 1
  }
  param {
    lr_mult: 2
    decay_mult: 0
  }
  convolution_param {
    num_output: 128
    pad: 1
    kernel_size: 3
    weight_filler {
      type: "xavier"
    }
  }
}
layer {
  name: "relu2_1"
  type: "ReLU"
  bottom: "conv2_1"
  top: "conv2_1"
}
layer {
  name: "conv2_2"
  type: "Convolution"
  bottom: "conv2_1"
  top: "conv2_2"
  param {
    lr_mult: 1
    decay_mult: 1
  }
  param {
    lr_mult: 2
    decay_mult: 0
  }
  convolution_param {
    num_output: 128
    pad: 1
    kernel_size: 3
    weight_filler {
      type: "xavier"
    }
  }
}
layer {
  name: "relu2_2"
  type: "ReLU"
  bottom: "conv2_2"
  top: "conv2_2"
}
layer {
  name: "pool2"
  type: "Pooling"
  bottom: "conv2_2"
  top: "pool2"
  pooling_param {
    pool: MAX
    kernel_size: 2
    stride: 2
  }
}
layer {
  name: "conv3_1"
  type: "Convolution"
  bottom: "pool2"
  top: "conv3_1"
  param {
    lr_mult: 1
    decay_mult: 1
  }
  param {
    lr_mult: 2
    decay_mult: 0
  }
  convolution_param {
    num_output: 256
    pad: 1
    kernel_size: 3
    weight_filler {
      type: "xavier"
    }
  }
}
layer {
  name: "relu3_1"
  type: "ReLU"
  bottom: "conv3_1"
  top: "conv3_1"
}
layer {
  name: "conv3_2"
  type: "Convolution"
  bottom: "conv3_1"
  top: "conv3_2"
  param {
    lr_mult: 1
    decay_mult: 1
  }
  param {
    lr_mult: 2
    decay_mult: 0
  }
  convolution_param {
    num_output: 256
    pad: 1
    kernel_size: 3
    weight_filler {
      type: "xavier"
    }
  }
}
layer {
  name: "relu3_2"
  type: "ReLU"
  bottom: "conv3_2"
  top: "conv3_2"
}
layer {
  name: "conv3_3"
  type: "Convolution"
  bottom: "conv3_2"
  top: "conv3_3"
  param {
    lr_mult: 1
    decay_mult: 1
  }
  param {
    lr_mult: 2
    decay_mult: 0
  }
  convolution_param {
    num_output: 256
    pad: 1
    kernel_size: 3
    weight_filler {
      type: "xavier"
    }
  }
}
layer {
  name: "relu3_3"
  type: "ReLU"
  bottom: "conv3_3"
  top: "conv3_3"
}
layer {
  name: "pool3"
  type: "Pooling"
  bottom: "conv3_3"
  top: "pool3"
  pooling_param {
    pool: MAX
    kernel_size: 2
    stride: 2
  }
}
layer {
  name: "conv4_1"
  type: "Convolution"
  bottom: "pool3"
  top: "conv4_1"
  param {
    lr_mult: 1
    decay_mult: 1
  }
  param {
    lr_mult: 2
    decay_mult: 0
  }
  convolution_param {
    num_output: 512
    pad: 1
    kernel_size: 3
    weight_filler {
      type: "xavier"
    }
  }
}
layer {
  name: "relu4_1"
  type: "ReLU"
  bottom: "conv4_1"
  top: "conv4_1"
}
layer {
  name: "conv4_2"
  type: "Convolution"
  bottom: "conv4_1"
  top: "conv4_2"
  param {
    lr_mult: 1
    decay_mult: 1
  }
  param {
    lr_mult: 2
    decay_mult: 0
  }
  convolution_param {
    num_output: 512
    pad: 1
    kernel_size: 3
    weight_filler {
      type: "xavier"
    }
  }
}
layer {
  name: "relu4_2"
  type: "ReLU"
  bottom: "conv4_2"
  top: "conv4_2"
}
layer {
  name: "conv4_3"
  type: "Convolution"
  bottom: "conv4_2"
  top: "conv4_3"
  param {
    lr_mult: 1
    decay_mult: 1
  }
  param {
    lr_mult: 2
    decay_mult: 0
  }
  convolution_param {
    num_output: 512
    pad: 1
    kernel_size: 3
    weight_filler {
      type: "xavier"
    }
  }
}
layer {
  name: "relu4_3"
  type: "ReLU"
  bottom: "conv4_3"
  top: "conv4_3"
}
layer {
  name: "pool4"
  type: "Pooling"
  bottom: "conv4_3"
  top: "pool4"
  pooling_param {
    pool: MAX
    kernel_size: 2
    stride: 2
  }
}
layer {
  name: "conv5_1"
  type: "Convolution"
  bottom: "pool4"
  top: "conv5_1"
  param {
    lr_mult: 1
    decay_mult: 1
  }
  param {
    lr_mult: 2
    decay_mult: 0
  }
  convolution_param {
    num_output: 512
    pad: 1
    kernel_size: 3
    weight_filler {
      type: "xavier"
    }
  }
}
layer {
  name: "relu5_1"
  type: "ReLU"
  bottom: "conv5_1"
  top: "conv5_1"
}
layer {
  name: "conv5_2"
  type: "Convolution"
  bottom: "conv5_1"
  top: "conv5_2"
  param {
    lr_mult: 1
    decay_mult: 1
  }
  param {
    lr_mult: 2
    decay_mult: 0
  }
  convolution_param {
    num_output: 512
    pad: 1
    kernel_size: 3
    weight_filler {
      type: "xavier"
    }
  }
}
layer {
  name: "relu5_2"
  type: "ReLU"
  bottom: "conv5_2"
  top: "conv5_2"
}
layer {
  name: "conv5_3"
  type: "Convolution"
  bottom: "conv5_2"
  top: "conv5_3"
  param {
    lr_mult: 1
    decay_mult: 1
  }
  param {
    lr_mult: 2
    decay_mult: 0
  }
  convolution_param {
    num_output: 512
    pad: 1
    kernel_size: 3
    weight_filler {
      type: "xavier"
    }
  }
}
layer {
  name: "relu5_3"
  type: "ReLU"
  bottom: "conv5_3"
  top: "conv5_3"
}
layer {
  name: "pool5"
  type: "Pooling"
  bottom: "conv5_3"
  top: "pool5"
  pooling_param {
    pool: MAX
    kernel_size: 2
    stride: 2
  }
}
layer {
  name: "fc6"
  type: "InnerProduct"
  bottom: "pool5"
  top: "fc6"
  param {
    lr_mult: 1
    decay_mult: 1
  }
  param {
    lr_mult: 2
    decay_mult: 0
  }
  inner_product_param {
    num_output: 4096
    weight_filler {
      type: "xavier"
    }
  }
}
layer {
  name: "relu6"
  type: "ReLU"
  bottom: "fc6"
  top: "fc6"
}
layer {
  name: "drop6"
  type: "Dropout"
  bottom: "fc6"
  top: "fc6"
  dropout_param {
    dropout_ratio: 0.9
  }
}
layer {
  name: "fc7"
  type: "InnerProduct"
  bottom: "fc6"
  top: "fc7"
  param {
    lr_mult: 1
    decay_mult: 1
  }
  param {
    lr_mult: 2
    decay_mult: 0
  }
  inner_product_param {
    num_output: 4096
    weight_filler {
      type: "xavier"
    }
  }
}
layer {
  name: "relu7"
  type: "ReLU"
  bottom: "fc7"
  top: "fc7"
}
layer {
  name: "drop7"
  type: "Dropout"
  bottom: "fc7"
  top: "fc7"
  dropout_param {
    dropout_ratio: 0.8
  }
}
layer {
  name: "fc8-1"
  type: "InnerProduct"
  bottom: "fc7"
  top: "fc8-1"
  param {
    lr_mult: 1
    decay_mult: 1
  }
  param {
    lr_mult: 2
    decay_mult: 0
  }
  inner_product_param {
    num_output: 101
    weight_filler {
      type: "gaussian"
      std: 0.001
    }
    bias_filler {
      type: "constant"
      value: 0
    }
  }
}
layer {
  name: "loss"
  type: "SoftmaxWithLoss"
  bottom: "fc8-1"
  bottom: "label_local"
  include {
    phase: TRAIN
  }
}
I0811 11:40:59.528159  3658 layer_factory.hpp:75] Creating layer data
I0811 11:40:59.528194  3658 net.cpp:99] Creating Layer data
I0811 11:40:59.528203  3658 net.cpp:409] data -> data
I0811 11:40:59.528224  3658 net.cpp:409] data -> label_local
I0811 11:40:59.528234  3658 net.cpp:131] Setting up data
I0811 11:40:59.528244  3658 video_data_layer.cpp:34] Opening file: /home/jiri/Lake/HAR/datasets/UCF-101/train-2-rnd.txt
I0811 11:40:59.532642  3658 video_data_layer.cpp:50] A total of 9537 videos.
I0811 11:40:59.563840  3658 video_data_layer.cpp:85] output data size: 64,20,224,224
I0811 11:40:59.956657  3658 net.cpp:140] Top shape: 64 20 224 224 (64225280)
I0811 11:40:59.956683  3658 net.cpp:140] Top shape: 64 1 1 1 (64)
I0811 11:40:59.956693  3658 layer_factory.hpp:75] Creating layer conv1_1
I0811 11:40:59.956712  3658 net.cpp:99] Creating Layer conv1_1
I0811 11:40:59.956718  3658 net.cpp:453] conv1_1 <- data
I0811 11:40:59.956732  3658 net.cpp:409] conv1_1 -> conv1_1
I0811 11:40:59.956745  3658 net.cpp:131] Setting up conv1_1
I0811 11:41:00.012156  3658 net.cpp:140] Top shape: 64 64 224 224 (205520896)
I0811 11:41:00.012194  3658 layer_factory.hpp:75] Creating layer relu1_1
I0811 11:41:00.012209  3658 net.cpp:99] Creating Layer relu1_1
I0811 11:41:00.012217  3658 net.cpp:453] relu1_1 <- conv1_1
I0811 11:41:00.012225  3658 net.cpp:396] relu1_1 -> conv1_1 (in-place)
I0811 11:41:00.012234  3658 net.cpp:131] Setting up relu1_1
I0811 11:41:00.012296  3658 net.cpp:140] Top shape: 64 64 224 224 (205520896)
I0811 11:41:00.012306  3658 layer_factory.hpp:75] Creating layer conv1_2
I0811 11:41:00.012317  3658 net.cpp:99] Creating Layer conv1_2
I0811 11:41:00.012322  3658 net.cpp:453] conv1_2 <- conv1_1
I0811 11:41:00.012331  3658 net.cpp:409] conv1_2 -> conv1_2
I0811 11:41:00.012339  3658 net.cpp:131] Setting up conv1_2
I0811 11:41:00.012835  3658 net.cpp:140] Top shape: 64 64 224 224 (205520896)
I0811 11:41:00.012853  3658 layer_factory.hpp:75] Creating layer relu1_2
I0811 11:41:00.012862  3658 net.cpp:99] Creating Layer relu1_2
I0811 11:41:00.012868  3658 net.cpp:453] relu1_2 <- conv1_2
I0811 11:41:00.012876  3658 net.cpp:396] relu1_2 -> conv1_2 (in-place)
I0811 11:41:00.012882  3658 net.cpp:131] Setting up relu1_2
I0811 11:41:00.013072  3658 net.cpp:140] Top shape: 64 64 224 224 (205520896)
I0811 11:41:00.013085  3658 layer_factory.hpp:75] Creating layer pool1
I0811 11:41:00.013098  3658 net.cpp:99] Creating Layer pool1
I0811 11:41:00.013103  3658 net.cpp:453] pool1 <- conv1_2
I0811 11:41:00.013110  3658 net.cpp:409] pool1 -> pool1
I0811 11:41:00.013118  3658 net.cpp:131] Setting up pool1
I0811 11:41:00.013180  3658 net.cpp:140] Top shape: 64 64 112 112 (51380224)
I0811 11:41:00.013190  3658 layer_factory.hpp:75] Creating layer conv2_1
I0811 11:41:00.013197  3658 net.cpp:99] Creating Layer conv2_1
I0811 11:41:00.013203  3658 net.cpp:453] conv2_1 <- pool1
I0811 11:41:00.013211  3658 net.cpp:409] conv2_1 -> conv2_1
I0811 11:41:00.013218  3658 net.cpp:131] Setting up conv2_1
I0811 11:41:00.014251  3658 net.cpp:140] Top shape: 64 128 112 112 (102760448)
I0811 11:41:00.014271  3658 layer_factory.hpp:75] Creating layer relu2_1
I0811 11:41:00.014279  3658 net.cpp:99] Creating Layer relu2_1
I0811 11:41:00.014307  3658 net.cpp:453] relu2_1 <- conv2_1
I0811 11:41:00.014315  3658 net.cpp:396] relu2_1 -> conv2_1 (in-place)
I0811 11:41:00.014322  3658 net.cpp:131] Setting up relu2_1
I0811 11:41:00.014374  3658 net.cpp:140] Top shape: 64 128 112 112 (102760448)
I0811 11:41:00.014382  3658 layer_factory.hpp:75] Creating layer conv2_2
I0811 11:41:00.014391  3658 net.cpp:99] Creating Layer conv2_2
I0811 11:41:00.014396  3658 net.cpp:453] conv2_2 <- conv2_1
I0811 11:41:00.014403  3658 net.cpp:409] conv2_2 -> conv2_2
I0811 11:41:00.014411  3658 net.cpp:131] Setting up conv2_2
I0811 11:41:00.015430  3658 net.cpp:140] Top shape: 64 128 112 112 (102760448)
I0811 11:41:00.015446  3658 layer_factory.hpp:75] Creating layer relu2_2
I0811 11:41:00.015455  3658 net.cpp:99] Creating Layer relu2_2
I0811 11:41:00.015460  3658 net.cpp:453] relu2_2 <- conv2_2
I0811 11:41:00.015466  3658 net.cpp:396] relu2_2 -> conv2_2 (in-place)
I0811 11:41:00.015486  3658 net.cpp:131] Setting up relu2_2
I0811 11:41:00.015537  3658 net.cpp:140] Top shape: 64 128 112 112 (102760448)
I0811 11:41:00.015545  3658 layer_factory.hpp:75] Creating layer pool2
I0811 11:41:00.015553  3658 net.cpp:99] Creating Layer pool2
I0811 11:41:00.015558  3658 net.cpp:453] pool2 <- conv2_2
I0811 11:41:00.015564  3658 net.cpp:409] pool2 -> pool2
I0811 11:41:00.015571  3658 net.cpp:131] Setting up pool2
I0811 11:41:00.015745  3658 net.cpp:140] Top shape: 64 128 56 56 (25690112)
I0811 11:41:00.015756  3658 layer_factory.hpp:75] Creating layer conv3_1
I0811 11:41:00.015766  3658 net.cpp:99] Creating Layer conv3_1
I0811 11:41:00.015771  3658 net.cpp:453] conv3_1 <- pool2
I0811 11:41:00.015779  3658 net.cpp:409] conv3_1 -> conv3_1
I0811 11:41:00.015787  3658 net.cpp:131] Setting up conv3_1
I0811 11:41:00.018303  3658 net.cpp:140] Top shape: 64 256 56 56 (51380224)
I0811 11:41:00.018323  3658 layer_factory.hpp:75] Creating layer relu3_1
I0811 11:41:00.018332  3658 net.cpp:99] Creating Layer relu3_1
I0811 11:41:00.018337  3658 net.cpp:453] relu3_1 <- conv3_1
I0811 11:41:00.018344  3658 net.cpp:396] relu3_1 -> conv3_1 (in-place)
I0811 11:41:00.018352  3658 net.cpp:131] Setting up relu3_1
I0811 11:41:00.018404  3658 net.cpp:140] Top shape: 64 256 56 56 (51380224)
I0811 11:41:00.018411  3658 layer_factory.hpp:75] Creating layer conv3_2
I0811 11:41:00.018420  3658 net.cpp:99] Creating Layer conv3_2
I0811 11:41:00.018425  3658 net.cpp:453] conv3_2 <- conv3_1
I0811 11:41:00.018432  3658 net.cpp:409] conv3_2 -> conv3_2
I0811 11:41:00.018440  3658 net.cpp:131] Setting up conv3_2
I0811 11:41:00.022389  3658 net.cpp:140] Top shape: 64 256 56 56 (51380224)
I0811 11:41:00.022410  3658 layer_factory.hpp:75] Creating layer relu3_2
I0811 11:41:00.022419  3658 net.cpp:99] Creating Layer relu3_2
I0811 11:41:00.022425  3658 net.cpp:453] relu3_2 <- conv3_2
I0811 11:41:00.022433  3658 net.cpp:396] relu3_2 -> conv3_2 (in-place)
I0811 11:41:00.022439  3658 net.cpp:131] Setting up relu3_2
I0811 11:41:00.022495  3658 net.cpp:140] Top shape: 64 256 56 56 (51380224)
I0811 11:41:00.022505  3658 layer_factory.hpp:75] Creating layer conv3_3
I0811 11:41:00.022513  3658 net.cpp:99] Creating Layer conv3_3
I0811 11:41:00.022518  3658 net.cpp:453] conv3_3 <- conv3_2
I0811 11:41:00.022526  3658 net.cpp:409] conv3_3 -> conv3_3
I0811 11:41:00.022533  3658 net.cpp:131] Setting up conv3_3
I0811 11:41:00.026358  3658 net.cpp:140] Top shape: 64 256 56 56 (51380224)
I0811 11:41:00.026376  3658 layer_factory.hpp:75] Creating layer relu3_3
I0811 11:41:00.026388  3658 net.cpp:99] Creating Layer relu3_3
I0811 11:41:00.026394  3658 net.cpp:453] relu3_3 <- conv3_3
I0811 11:41:00.026401  3658 net.cpp:396] relu3_3 -> conv3_3 (in-place)
I0811 11:41:00.026409  3658 net.cpp:131] Setting up relu3_3
I0811 11:41:00.026585  3658 net.cpp:140] Top shape: 64 256 56 56 (51380224)
I0811 11:41:00.026599  3658 layer_factory.hpp:75] Creating layer pool3
I0811 11:41:00.026608  3658 net.cpp:99] Creating Layer pool3
I0811 11:41:00.026614  3658 net.cpp:453] pool3 <- conv3_3
I0811 11:41:00.026623  3658 net.cpp:409] pool3 -> pool3
I0811 11:41:00.026649  3658 net.cpp:131] Setting up pool3
I0811 11:41:00.026712  3658 net.cpp:140] Top shape: 64 256 28 28 (12845056)
I0811 11:41:00.026721  3658 layer_factory.hpp:75] Creating layer conv4_1
I0811 11:41:00.026729  3658 net.cpp:99] Creating Layer conv4_1
I0811 11:41:00.026734  3658 net.cpp:453] conv4_1 <- pool3
I0811 11:41:00.026741  3658 net.cpp:409] conv4_1 -> conv4_1
I0811 11:41:00.026749  3658 net.cpp:131] Setting up conv4_1
I0811 11:41:00.034215  3658 net.cpp:140] Top shape: 64 512 28 28 (25690112)
I0811 11:41:00.034242  3658 layer_factory.hpp:75] Creating layer relu4_1
I0811 11:41:00.034253  3658 net.cpp:99] Creating Layer relu4_1
I0811 11:41:00.034260  3658 net.cpp:453] relu4_1 <- conv4_1
I0811 11:41:00.034267  3658 net.cpp:396] relu4_1 -> conv4_1 (in-place)
I0811 11:41:00.034274  3658 net.cpp:131] Setting up relu4_1
I0811 11:41:00.034325  3658 net.cpp:140] Top shape: 64 512 28 28 (25690112)
I0811 11:41:00.034333  3658 layer_factory.hpp:75] Creating layer conv4_2
I0811 11:41:00.034343  3658 net.cpp:99] Creating Layer conv4_2
I0811 11:41:00.034348  3658 net.cpp:453] conv4_2 <- conv4_1
I0811 11:41:00.034354  3658 net.cpp:409] conv4_2 -> conv4_2
I0811 11:41:00.034363  3658 net.cpp:131] Setting up conv4_2
I0811 11:41:00.048718  3658 net.cpp:140] Top shape: 64 512 28 28 (25690112)
I0811 11:41:00.048750  3658 layer_factory.hpp:75] Creating layer relu4_2
I0811 11:41:00.048768  3658 net.cpp:99] Creating Layer relu4_2
I0811 11:41:00.048775  3658 net.cpp:453] relu4_2 <- conv4_2
I0811 11:41:00.048784  3658 net.cpp:396] relu4_2 -> conv4_2 (in-place)
I0811 11:41:00.048791  3658 net.cpp:131] Setting up relu4_2
I0811 11:41:00.048848  3658 net.cpp:140] Top shape: 64 512 28 28 (25690112)
I0811 11:41:00.048856  3658 layer_factory.hpp:75] Creating layer conv4_3
I0811 11:41:00.048866  3658 net.cpp:99] Creating Layer conv4_3
I0811 11:41:00.048871  3658 net.cpp:453] conv4_3 <- conv4_2
I0811 11:41:00.048877  3658 net.cpp:409] conv4_3 -> conv4_3
I0811 11:41:00.048885  3658 net.cpp:131] Setting up conv4_3
I0811 11:41:00.063415  3658 net.cpp:140] Top shape: 64 512 28 28 (25690112)
I0811 11:41:00.063447  3658 layer_factory.hpp:75] Creating layer relu4_3
I0811 11:41:00.063459  3658 net.cpp:99] Creating Layer relu4_3
I0811 11:41:00.063467  3658 net.cpp:453] relu4_3 <- conv4_3
I0811 11:41:00.063475  3658 net.cpp:396] relu4_3 -> conv4_3 (in-place)
I0811 11:41:00.063484  3658 net.cpp:131] Setting up relu4_3
I0811 11:41:00.063665  3658 net.cpp:140] Top shape: 64 512 28 28 (25690112)
I0811 11:41:00.063679  3658 layer_factory.hpp:75] Creating layer pool4
I0811 11:41:00.063689  3658 net.cpp:99] Creating Layer pool4
I0811 11:41:00.063695  3658 net.cpp:453] pool4 <- conv4_3
I0811 11:41:00.063706  3658 net.cpp:409] pool4 -> pool4
I0811 11:41:00.063714  3658 net.cpp:131] Setting up pool4
I0811 11:41:00.063772  3658 net.cpp:140] Top shape: 64 512 14 14 (6422528)
I0811 11:41:00.063781  3658 layer_factory.hpp:75] Creating layer conv5_1
I0811 11:41:00.063792  3658 net.cpp:99] Creating Layer conv5_1
I0811 11:41:00.063798  3658 net.cpp:453] conv5_1 <- pool4
I0811 11:41:00.063807  3658 net.cpp:409] conv5_1 -> conv5_1
I0811 11:41:00.063820  3658 net.cpp:131] Setting up conv5_1
I0811 11:41:00.078297  3658 net.cpp:140] Top shape: 64 512 14 14 (6422528)
I0811 11:41:00.078326  3658 layer_factory.hpp:75] Creating layer relu5_1
I0811 11:41:00.078340  3658 net.cpp:99] Creating Layer relu5_1
I0811 11:41:00.078346  3658 net.cpp:453] relu5_1 <- conv5_1
I0811 11:41:00.078356  3658 net.cpp:396] relu5_1 -> conv5_1 (in-place)
I0811 11:41:00.078364  3658 net.cpp:131] Setting up relu5_1
I0811 11:41:00.078418  3658 net.cpp:140] Top shape: 64 512 14 14 (6422528)
I0811 11:41:00.078425  3658 layer_factory.hpp:75] Creating layer conv5_2
I0811 11:41:00.078435  3658 net.cpp:99] Creating Layer conv5_2
I0811 11:41:00.078441  3658 net.cpp:453] conv5_2 <- conv5_1
I0811 11:41:00.078449  3658 net.cpp:409] conv5_2 -> conv5_2
I0811 11:41:00.078456  3658 net.cpp:131] Setting up conv5_2
I0811 11:41:00.092869  3658 net.cpp:140] Top shape: 64 512 14 14 (6422528)
I0811 11:41:00.092901  3658 layer_factory.hpp:75] Creating layer relu5_2
I0811 11:41:00.092934  3658 net.cpp:99] Creating Layer relu5_2
I0811 11:41:00.092943  3658 net.cpp:453] relu5_2 <- conv5_2
I0811 11:41:00.092952  3658 net.cpp:396] relu5_2 -> conv5_2 (in-place)
I0811 11:41:00.092962  3658 net.cpp:131] Setting up relu5_2
I0811 11:41:00.093019  3658 net.cpp:140] Top shape: 64 512 14 14 (6422528)
I0811 11:41:00.093037  3658 layer_factory.hpp:75] Creating layer conv5_3
I0811 11:41:00.093050  3658 net.cpp:99] Creating Layer conv5_3
I0811 11:41:00.093055  3658 net.cpp:453] conv5_3 <- conv5_2
I0811 11:41:00.093066  3658 net.cpp:409] conv5_3 -> conv5_3
I0811 11:41:00.093075  3658 net.cpp:131] Setting up conv5_3
I0811 11:41:00.107280  3658 net.cpp:140] Top shape: 64 512 14 14 (6422528)
I0811 11:41:00.107307  3658 layer_factory.hpp:75] Creating layer relu5_3
I0811 11:41:00.107321  3658 net.cpp:99] Creating Layer relu5_3
I0811 11:41:00.107327  3658 net.cpp:453] relu5_3 <- conv5_3
I0811 11:41:00.107336  3658 net.cpp:396] relu5_3 -> conv5_3 (in-place)
I0811 11:41:00.107344  3658 net.cpp:131] Setting up relu5_3
I0811 11:41:00.107543  3658 net.cpp:140] Top shape: 64 512 14 14 (6422528)
I0811 11:41:00.107555  3658 layer_factory.hpp:75] Creating layer pool5
I0811 11:41:00.107565  3658 net.cpp:99] Creating Layer pool5
I0811 11:41:00.107571  3658 net.cpp:453] pool5 <- conv5_3
I0811 11:41:00.107579  3658 net.cpp:409] pool5 -> pool5
I0811 11:41:00.107588  3658 net.cpp:131] Setting up pool5
I0811 11:41:00.107645  3658 net.cpp:140] Top shape: 64 512 7 7 (1605632)
I0811 11:41:00.107653  3658 layer_factory.hpp:75] Creating layer fc6
I0811 11:41:00.107669  3658 net.cpp:99] Creating Layer fc6
I0811 11:41:00.107676  3658 net.cpp:453] fc6 <- pool5
I0811 11:41:00.107682  3658 net.cpp:409] fc6 -> fc6
I0811 11:41:00.107694  3658 net.cpp:131] Setting up fc6
I0811 11:41:00.709910  3658 net.cpp:140] Top shape: 64 4096 (262144)
I0811 11:41:00.709941  3658 layer_factory.hpp:75] Creating layer relu6
I0811 11:41:00.709955  3658 net.cpp:99] Creating Layer relu6
I0811 11:41:00.709972  3658 net.cpp:453] relu6 <- fc6
I0811 11:41:00.709982  3658 net.cpp:396] relu6 -> fc6 (in-place)
I0811 11:41:00.709990  3658 net.cpp:131] Setting up relu6
I0811 11:41:00.710083  3658 net.cpp:140] Top shape: 64 4096 (262144)
I0811 11:41:00.710091  3658 layer_factory.hpp:75] Creating layer drop6
I0811 11:41:00.710100  3658 net.cpp:99] Creating Layer drop6
I0811 11:41:00.710108  3658 net.cpp:453] drop6 <- fc6
I0811 11:41:00.710114  3658 net.cpp:396] drop6 -> fc6 (in-place)
I0811 11:41:00.710121  3658 net.cpp:131] Setting up drop6
I0811 11:41:00.710130  3658 net.cpp:140] Top shape: 64 4096 (262144)
I0811 11:41:00.710136  3658 layer_factory.hpp:75] Creating layer fc7
I0811 11:41:00.710146  3658 net.cpp:99] Creating Layer fc7
I0811 11:41:00.710152  3658 net.cpp:453] fc7 <- fc6
I0811 11:41:00.710160  3658 net.cpp:409] fc7 -> fc7
I0811 11:41:00.710167  3658 net.cpp:131] Setting up fc7
I0811 11:41:00.805148  3658 net.cpp:140] Top shape: 64 4096 (262144)
I0811 11:41:00.805178  3658 layer_factory.hpp:75] Creating layer relu7
I0811 11:41:00.805189  3658 net.cpp:99] Creating Layer relu7
I0811 11:41:00.805197  3658 net.cpp:453] relu7 <- fc7
I0811 11:41:00.805204  3658 net.cpp:396] relu7 -> fc7 (in-place)
I0811 11:41:00.805212  3658 net.cpp:131] Setting up relu7
I0811 11:41:00.805289  3658 net.cpp:140] Top shape: 64 4096 (262144)
I0811 11:41:00.805297  3658 layer_factory.hpp:75] Creating layer drop7
I0811 11:41:00.805306  3658 net.cpp:99] Creating Layer drop7
I0811 11:41:00.805313  3658 net.cpp:453] drop7 <- fc7
I0811 11:41:00.805320  3658 net.cpp:396] drop7 -> fc7 (in-place)
I0811 11:41:00.805325  3658 net.cpp:131] Setting up drop7
I0811 11:41:00.805332  3658 net.cpp:140] Top shape: 64 4096 (262144)
I0811 11:41:00.805337  3658 layer_factory.hpp:75] Creating layer fc8-1
I0811 11:41:00.805346  3658 net.cpp:99] Creating Layer fc8-1
I0811 11:41:00.805352  3658 net.cpp:453] fc8-1 <- fc7
I0811 11:41:00.805359  3658 net.cpp:409] fc8-1 -> fc8-1
I0811 11:41:00.805368  3658 net.cpp:131] Setting up fc8-1
I0811 11:41:00.814738  3658 net.cpp:140] Top shape: 64 101 (6464)
I0811 11:41:00.814770  3658 layer_factory.hpp:75] Creating layer loss
I0811 11:41:00.814781  3658 net.cpp:99] Creating Layer loss
I0811 11:41:00.814786  3658 net.cpp:453] loss <- fc8-1
I0811 11:41:00.814792  3658 net.cpp:453] loss <- label_local
I0811 11:41:00.814800  3658 net.cpp:409] loss -> (automatic)
I0811 11:41:00.814807  3658 net.cpp:131] Setting up loss
I0811 11:41:00.814820  3658 layer_factory.hpp:75] Creating layer loss
…
    mean_value: 128
    mean_value: 128
    mean_value: 128
    mean_value: 128
    mean_value: 128
    mean_value: 128
    mean_value: 128
    mean_value: 128
    mean_value: 128
    mean_value: 128
    mean_value: 128
    mean_value: 128
    mean_value: 128
    mean_value: 128
    mean_value: 128
    mean_value: 128
    mean_value: 128
    mean_value: 128
    fix_crop: true
    is_flow: true
  }
  video_data_param {
    source: "/home/jiri/Lake/HAR/datasets/UCF-101/val-2-rnd.txt"
    batch_size: 5
    new_length: 10
    num_segments: 1
    modality: FLOW
  }
}
layer {
  name: "conv1_1"
  type: "Convolution"
  bottom: "data"
  top: "conv1_1"
  param {
    lr_mult: 1
    decay_mult: 1
  }
  param {
    lr_mult: 2
    decay_mult: 0
  }
  convolution_param {
    num_output: 64
    pad: 1
    kernel_size: 3
    weight_filler {
      type: "xavier"
    }
  }
}
layer {
  name: "relu1_1"
  type: "ReLU"
  bottom: "conv1_1"
  top: "conv1_1"
}
layer {
  name: "conv1_2"
  type: "Convolution"
  bottom: "conv1_1"
  top: "conv1_2"
  param {
    lr_mult: 1
    decay_mult: 1
  }
  param {
    lr_mult: 2
    decay_mult: 0
  }
  convolution_param {
    num_output: 64
    pad: 1
    kernel_size: 3
    weight_filler {
      type: "xavier"
    }
  }
}
layer {
  name: "relu1_2"
  type: "ReLU"
  bottom: "conv1_2"
  top: "conv1_2"
}
layer {
  name: "pool1"
  type: "Pooling"
  bottom: "conv1_2"
  top: "pool1"
  pooling_param {
    pool: MAX
    kernel_size: 2
    stride: 2
  }
}
layer {
  name: "conv2_1"
  type: "Convolution"
  bottom: "pool1"
  top: "conv2_1"
  param {
    lr_mult: 1
    decay_mult: 1
  }
  param {
    lr_mult: 2
    decay_mult: 0
  }
  convolution_param {
    num_output: 128
    pad: 1
    kernel_size: 3
    weight_filler {
      type: "xavier"
    }
  }
}
layer {
  name: "relu2_1"
  type: "ReLU"
  bottom: "conv2_1"
  top: "conv2_1"
}
layer {
  name: "conv2_2"
  type: "Convolution"
  bottom: "conv2_1"
  top: "conv2_2"
  param {
    lr_mult: 1
    decay_mult: 1
  }
  param {
    lr_mult: 2
    decay_mult: 0
  }
  convolution_param {
    num_output: 128
    pad: 1
    kernel_size: 3
    weight_filler {
      type: "xavier"
    }
  }
}
layer {
  name: "relu2_2"
  type: "ReLU"
  bottom: "conv2_2"
  top: "conv2_2"
}
layer {
  name: "pool2"
  type: "Pooling"
  bottom: "conv2_2"
  top: "pool2"
  pooling_param {
    pool: MAX
    kernel_size: 2
    stride: 2
  }
}
layer {
  name: "conv3_1"
  type: "Convolution"
  bottom: "pool2"
  top: "conv3_1"
  param {
    lr_mult: 1
    decay_mult: 1
  }
  param {
    lr_mult: 2
    decay_mult: 0
  }
  convolution_param {
    num_output: 256
    pad: 1
    kernel_size: 3
    weight_filler {
      type: "xavier"
    }
  }
}
layer {
  name: "relu3_1"
  type: "ReLU"
  bottom: "conv3_1"
  top: "conv3_1"
}
layer {
  name: "conv3_2"
  type: "Convolution"
  bottom: "conv3_1"
  top: "conv3_2"
  param {
    lr_mult: 1
    decay_mult: 1
  }
  param {
    lr_mult: 2
    decay_mult: 0
  }
  convolution_param {
    num_output: 256
    pad: 1
    kernel_size: 3
    weight_filler {
      type: "xavier"
    }
  }
}
layer {
  name: "relu3_2"
  type: "ReLU"
  bottom: "conv3_2"
  top: "conv3_2"
}
layer {
  name: "conv3_3"
  type: "Convolution"
  bottom: "conv3_2"
  top: "conv3_3"
  param {
    lr_mult: 1
    decay_mult: 1
  }
  param {
    lr_mult: 2
    decay_mult: 0
  }
  convolution_param {
    num_output: 256
    pad: 1
    kernel_size: 3
    weight_filler {
      type: "xavier"
    }
  }
}
layer {
  name: "relu3_3"
  type: "ReLU"
  bottom: "conv3_3"
  top: "conv3_3"
}
layer {
  name: "pool3"
  type: "Pooling"
  bottom: "conv3_3"
  top: "pool3"
  pooling_param {
    pool: MAX
    kernel_size: 2
    stride: 2
  }
}
layer {
  name: "conv4_1"
  type: "Convolution"
  bottom: "pool3"
  top: "conv4_1"
  param {
    lr_mult: 1
    decay_mult: 1
  }
  param {
    lr_mult: 2
    decay_mult: 0
  }
  convolution_param {
    num_output: 512
    pad: 1
    kernel_size: 3
    weight_filler {
      type: "xavier"
    }
  }
}
layer {
  name: "relu4_1"
  type: "ReLU"
  bottom: "conv4_1"
  top: "conv4_1"
}
layer {
  name: "conv4_2"
  type: "Convolution"
  bottom: "conv4_1"
  top: "conv4_2"
  param {
    lr_mult: 1
    decay_mult: 1
  }
  param {
    lr_mult: 2
    decay_mult: 0
  }
  convolution_param {
    num_output: 512
    pad: 1
    kernel_size: 3
    weight_filler {
      type: "xavier"
    }
  }
}
layer {
  name: "relu4_2"
  type: "ReLU"
  bottom: "conv4_2"
  top: "conv4_2"
}
layer {
  name: "conv4_3"
  type: "Convolution"
  bottom: "conv4_2"
  top: "conv4_3"
  param {
    lr_mult: 1
    decay_mult: 1
  }
  param {
    lr_mult: 2
    decay_mult: 0
  }
  convolution_param {
    num_output: 512
    pad: 1
    kernel_size: 3
    weight_filler {
      type: "xavier"
    }
  }
}
layer {
  name: "relu4_3"
  type: "ReLU"
  bottom: "conv4_3"
  top: "conv4_3"
}
layer {
  name: "pool4"
  type: "Pooling"
  bottom: "conv4_3"
  top: "pool4"
  pooling_param {
    pool: MAX
    kernel_size: 2
    stride: 2
  }
}
layer {
  name: "conv5_1"
  type: "Convolution"
  bottom: "pool4"
  top: "conv5_1"
  param {
    lr_mult: 1
    decay_mult: 1
  }
  param {
    lr_mult: 2
    decay_mult: 0
  }
  convolution_param {
    num_output: 512
    pad: 1
    kernel_size: 3
    weight_filler {
      type: "xavier"
    }
  }
}
layer {
  name: "relu5_1"
  type: "ReLU"
  bottom: "conv5_1"
  top: "conv5_1"
}
layer {
  name: "conv5_2"
  type: "Convolution"
  bottom: "conv5_1"
  top: "conv5_2"
  param {
    lr_mult: 1
    decay_mult: 1
  }
  param {
    lr_mult: 2
    decay_mult: 0
  }
  convolution_param {
    num_output: 512
    pad: 1
    kernel_size: 3
    weight_filler {
      type: "xavier"
    }
  }
}
layer {
  name: "relu5_2"
  type: "ReLU"
  bottom: "conv5_2"
  top: "conv5_2"
}
layer {
  name: "conv5_3"
  type: "Convolution"
  bottom: "conv5_2"
  top: "conv5_3"
  param {
    lr_mult: 1
    decay_mult: 1
  }
  param {
    lr_mult: 2
    decay_mult: 0
  }
  convolution_param {
    num_output: 512
    pad: 1
    kernel_size: 3
    weight_filler {
      type: "xavier"
    }
  }
}
layer {
  name: "relu5_3"
  type: "ReLU"
  bottom: "conv5_3"
  top: "conv5_3"
}
layer {
  name: "pool5"
  type: "Pooling"
  bottom: "conv5_3"
  top: "pool5"
  pooling_param {
    pool: MAX
    kernel_size: 2
    stride: 2
  }
}
layer {
  name: "fc6"
  type: "InnerProduct"
  bottom: "pool5"
  top: "fc6"
  param {
    lr_mult: 1
    decay_mult: 1
  }
  param {
    lr_mult: 2
    decay_mult: 0
  }
  inner_product_param {
    num_output: 4096
    weight_filler {
      type: "xavier"
    }
  }
}
layer {
  name: "relu6"
  type: "ReLU"
  bottom: "fc6"
  top: "fc6"
}
layer {
  name: "drop6"
  type: "Dropout"
  bottom: "fc6"
  top: "fc6"
  dropout_param {
    dropout_ratio: 0.9
  }
}
layer {
  name: "fc7"
  type: "InnerProduct"
  bottom: "fc6"
  top: "fc7"
  param {
    lr_mult: 1
    decay_mult: 1
  }
  param {
    lr_mult: 2
    decay_mult: 0
  }
  inner_product_param {
    num_output: 4096
    weight_filler {
      type: "xavier"
    }
  }
}
layer {
  name: "relu7"
  type: "ReLU"
  bottom: "fc7"
  top: "fc7"
}
layer {
  name: "drop7"
  type: "Dropout"
  bottom: "fc7"
  top: "fc7"
  dropout_param {
    dropout_ratio: 0.8
  }
}
layer {
  name: "fc8-1"
  type: "InnerProduct"
  bottom: "fc7"
  top: "fc8-1"
  param {
    lr_mult: 1
    decay_mult: 1
  }
  param {
    lr_mult: 2
    decay_mult: 0
  }
  inner_product_param {
    num_output: 101
    weight_filler {
      type: "gaussian"
      std: 0.001
    }
    bias_filler {
      type: "constant"
      value: 0
    }
  }
}
layer {
  name: "loss"
  type: "SoftmaxWithLoss"
  bottom: "fc8-1"
  bottom: "label_local"
  top: "loss"
  include {
    phase: TEST
  }
}
layer {
  name: "accuracy"
  type: "Accuracy"
  bottom: "fc8-1"
  bottom: "label_local"
  top: "accuracy"
  include {
    phase: TEST
  }
}
I0811 11:41:00.817564  3658 layer_factory.hpp:75] Creating layer data
I0811 11:41:00.817581  3658 net.cpp:99] Creating Layer data
I0811 11:41:00.817589  3658 net.cpp:409] data -> data
I0811 11:41:00.817597  3658 net.cpp:409] data -> label_local
I0811 11:41:00.817605  3658 net.cpp:131] Setting up data
I0811 11:41:00.817610  3658 video_data_layer.cpp:34] Opening file: /home/jiri/Lake/HAR/datasets/UCF-101/val-2-rnd.txt
I0811 11:41:00.819481  3658 video_data_layer.cpp:50] A total of 3783 videos.
I0811 11:41:00.832592  3658 video_data_layer.cpp:85] output data size: 5,20,224,224
I0811 11:41:00.856575  3658 net.cpp:140] Top shape: 5 20 224 224 (5017600)
I0811 11:41:00.856601  3658 net.cpp:140] Top shape: 5 1 1 1 (5)
I0811 11:41:00.856611  3658 layer_factory.hpp:75] Creating layer label_local_data_1_split
I0811 11:41:00.856624  3658 net.cpp:99] Creating Layer label_local_data_1_split
I0811 11:41:00.856631  3658 net.cpp:453] label_local_data_1_split <- label_local
I0811 11:41:00.856638  3658 net.cpp:409] label_local_data_1_split -> label_local_data_1_split_0
I0811 11:41:00.856648  3658 net.cpp:409] label_local_data_1_split -> label_local_data_1_split_1
I0811 11:41:00.856655  3658 net.cpp:131] Setting up label_local_data_1_split
I0811 11:41:00.856663  3658 net.cpp:140] Top shape: 5 1 1 1 (5)
I0811 11:41:00.856669  3658 net.cpp:140] Top shape: 5 1 1 1 (5)
I0811 11:41:00.856674  3658 layer_factory.hpp:75] Creating layer conv1_1
I0811 11:41:00.856684  3658 net.cpp:99] Creating Layer conv1_1
I0811 11:41:00.856690  3658 net.cpp:453] conv1_1 <- data
I0811 11:41:00.856696  3658 net.cpp:409] conv1_1 -> conv1_1
I0811 11:41:00.856704  3658 net.cpp:131] Setting up conv1_1
I0811 11:41:00.857270  3658 net.cpp:140] Top shape: 5 64 224 224 (16056320)
I0811 11:41:00.857286  3658 layer_factory.hpp:75] Creating layer relu1_1
I0811 11:41:00.857295  3658 net.cpp:99] Creating Layer relu1_1
I0811 11:41:00.857300  3658 net.cpp:453] relu1_1 <- conv1_1
I0811 11:41:00.857307  3658 net.cpp:396] relu1_1 -> conv1_1 (in-place)
I0811 11:41:00.857313  3658 net.cpp:131] Setting up relu1_1
I0811 11:41:00.857367  3658 net.cpp:140] Top shape: 5 64 224 224 (16056320)
I0811 11:41:00.857374  3658 layer_factory.hpp:75] Creating layer conv1_2
I0811 11:41:00.857383  3658 net.cpp:99] Creating Layer conv1_2
I0811 11:41:00.857388  3658 net.cpp:453] conv1_2 <- conv1_1
I0811 11:41:00.857394  3658 net.cpp:409] conv1_2 -> conv1_2
I0811 11:41:00.857403  3658 net.cpp:131] Setting up conv1_2
I0811 11:41:00.858228  3658 net.cpp:140] Top shape: 5 64 224 224 (16056320)
I0811 11:41:00.858245  3658 layer_factory.hpp:75] Creating layer relu1_2
I0811 11:41:00.858253  3658 net.cpp:99] Creating Layer relu1_2
I0811 11:41:00.858258  3658 net.cpp:453] relu1_2 <- conv1_2
I0811 11:41:00.858265  3658 net.cpp:396] relu1_2 -> conv1_2 (in-place)
I0811 11:41:00.858271  3658 net.cpp:131] Setting up relu1_2
I0811 11:41:00.858327  3658 net.cpp:140] Top shape: 5 64 224 224 (16056320)
I0811 11:41:00.858336  3658 layer_factory.hpp:75] Creating layer pool1
I0811 11:41:00.858345  3658 net.cpp:99] Creating Layer pool1
I0811 11:41:00.858351  3658 net.cpp:453] pool1 <- conv1_2
I0811 11:41:00.858360  3658 net.cpp:409] pool1 -> pool1
I0811 11:41:00.858366  3658 net.cpp:131] Setting up pool1
I0811 11:41:00.858712  3658 net.cpp:140] Top shape: 5 64 112 112 (4014080)
I0811 11:41:00.858739  3658 layer_factory.hpp:75] Creating layer conv2_1
I0811 11:41:00.858757  3658 net.cpp:99] Creating Layer conv2_1
I0811 11:41:00.858767  3658 net.cpp:453] conv2_1 <- pool1
I0811 11:41:00.858780  3658 net.cpp:409] conv2_1 -> conv2_1
I0811 11:41:00.858798  3658 net.cpp:131] Setting up conv2_1
I0811 11:41:00.861814  3658 net.cpp:140] Top shape: 5 128 112 112 (8028160)
I0811 11:41:00.861846  3658 layer_factory.hpp:75] Creating layer relu2_1
I0811 11:41:00.861862  3658 net.cpp:99] Creating Layer relu2_1
I0811 11:41:00.861871  3658 net.cpp:453] relu2_1 <- conv2_1
I0811 11:41:00.861907  3658 net.cpp:396] relu2_1 -> conv2_1 (in-place)
I0811 11:41:00.861922  3658 net.cpp:131] Setting up relu2_1
I0811 11:41:00.862006  3658 net.cpp:140] Top shape: 5 128 112 112 (8028160)
I0811 11:41:00.862020  3658 layer_factory.hpp:75] Creating layer conv2_2
I0811 11:41:00.862035  3658 net.cpp:99] Creating Layer conv2_2
I0811 11:41:00.862046  3658 net.cpp:453] conv2_2 <- conv2_1
I0811 11:41:00.862057  3658 net.cpp:409] conv2_2 -> conv2_2
I0811 11:41:00.862071  3658 net.cpp:131] Setting up conv2_2
I0811 11:41:00.863739  3658 net.cpp:140] Top shape: 5 128 112 112 (8028160)
I0811 11:41:00.863764  3658 layer_factory.hpp:75] Creating layer relu2_2
I0811 11:41:00.863776  3658 net.cpp:99] Creating Layer relu2_2
I0811 11:41:00.863785  3658 net.cpp:453] relu2_2 <- conv2_2
I0811 11:41:00.863796  3658 net.cpp:396] relu2_2 -> conv2_2 (in-place)
I0811 11:41:00.863813  3658 net.cpp:131] Setting up relu2_2
I0811 11:41:00.863890  3658 net.cpp:140] Top shape: 5 128 112 112 (8028160)
I0811 11:41:00.863901  3658 layer_factory.hpp:75] Creating layer pool2
I0811 11:41:00.863912  3658 net.cpp:99] Creating Layer pool2
I0811 11:41:00.863920  3658 net.cpp:453] pool2 <- conv2_2
I0811 11:41:00.863930  3658 net.cpp:409] pool2 -> pool2
I0811 11:41:00.863941  3658 net.cpp:131] Setting up pool2
I0811 11:41:00.864019  3658 net.cpp:140] Top shape: 5 128 56 56 (2007040)
I0811 11:41:00.864029  3658 layer_factory.hpp:75] Creating layer conv3_1
I0811 11:41:00.864042  3658 net.cpp:99] Creating Layer conv3_1
I0811 11:41:00.864049  3658 net.cpp:453] conv3_1 <- pool2
I0811 11:41:00.864059  3658 net.cpp:409] conv3_1 -> conv3_1
I0811 11:41:00.864071  3658 net.cpp:131] Setting up conv3_1
I0811 11:41:00.867349  3658 net.cpp:140] Top shape: 5 256 56 56 (4014080)
I0811 11:41:00.867379  3658 layer_factory.hpp:75] Creating layer relu3_1
I0811 11:41:00.867393  3658 net.cpp:99] Creating Layer relu3_1
I0811 11:41:00.867401  3658 net.cpp:453] relu3_1 <- conv3_1
I0811 11:41:00.867413  3658 net.cpp:396] relu3_1 -> conv3_1 (in-place)
I0811 11:41:00.867424  3658 net.cpp:131] Setting up relu3_1
I0811 11:41:00.867676  3658 net.cpp:140] Top shape: 5 256 56 56 (4014080)
I0811 11:41:00.867699  3658 layer_factory.hpp:75] Creating layer conv3_2
I0811 11:41:00.867714  3658 net.cpp:99] Creating Layer conv3_2
I0811 11:41:00.867724  3658 net.cpp:453] conv3_2 <- conv3_1
I0811 11:41:00.867735  3658 net.cpp:409] conv3_2 -> conv3_2
I0811 11:41:00.867748  3658 net.cpp:131] Setting up conv3_2
I0811 11:41:00.873662  3658 net.cpp:140] Top shape: 5 256 56 56 (4014080)
I0811 11:41:00.873692  3658 layer_factory.hpp:75] Creating layer relu3_2
I0811 11:41:00.873705  3658 net.cpp:99] Creating Layer relu3_2
I0811 11:41:00.873715  3658 net.cpp:453] relu3_2 <- conv3_2
I0811 11:41:00.873728  3658 net.cpp:396] relu3_2 -> conv3_2 (in-place)
I0811 11:41:00.873739  3658 net.cpp:131] Setting up relu3_2
I0811 11:41:00.873821  3658 net.cpp:140] Top shape: 5 256 56 56 (4014080)
I0811 11:41:00.873832  3658 layer_factory.hpp:75] Creating layer conv3_3
I0811 11:41:00.873847  3658 net.cpp:99] Creating Layer conv3_3
I0811 11:41:00.873857  3658 net.cpp:453] conv3_3 <- conv3_2
I0811 11:41:00.873867  3658 net.cpp:409] conv3_3 -> conv3_3
I0811 11:41:00.873880  3658 net.cpp:131] Setting up conv3_3
I0811 11:41:00.879622  3658 net.cpp:140] Top shape: 5 256 56 56 (4014080)
I0811 11:41:00.879657  3658 layer_factory.hpp:75] Creating layer relu3_3
I0811 11:41:00.879672  3658 net.cpp:99] Creating Layer relu3_3
I0811 11:41:00.879681  3658 net.cpp:453] relu3_3 <- conv3_3
I0811 11:41:00.879693  3658 net.cpp:396] relu3_3 -> conv3_3 (in-place)
I0811 11:41:00.879704  3658 net.cpp:131] Setting up relu3_3
I0811 11:41:00.879781  3658 net.cpp:140] Top shape: 5 256 56 56 (4014080)
I0811 11:41:00.879793  3658 layer_factory.hpp:75] Creating layer pool3
I0811 11:41:00.879806  3658 net.cpp:99] Creating Layer pool3
I0811 11:41:00.879814  3658 net.cpp:453] pool3 <- conv3_3
I0811 11:41:00.879824  3658 net.cpp:409] pool3 -> pool3
I0811 11:41:00.879835  3658 net.cpp:131] Setting up pool3
I0811 11:41:00.879911  3658 net.cpp:140] Top shape: 5 256 28 28 (1003520)
I0811 11:41:00.879946  3658 layer_factory.hpp:75] Creating layer conv4_1
I0811 11:41:00.879961  3658 net.cpp:99] Creating Layer conv4_1
I0811 11:41:00.879968  3658 net.cpp:453] conv4_1 <- pool3
I0811 11:41:00.879981  3658 net.cpp:409] conv4_1 -> conv4_1
I0811 11:41:00.879992  3658 net.cpp:131] Setting up conv4_1
I0811 11:41:00.890576  3658 net.cpp:140] Top shape: 5 512 28 28 (2007040)
I0811 11:41:00.890610  3658 layer_factory.hpp:75] Creating layer relu4_1
I0811 11:41:00.890625  3658 net.cpp:99] Creating Layer relu4_1
I0811 11:41:00.890633  3658 net.cpp:453] relu4_1 <- conv4_1
I0811 11:41:00.890645  3658 net.cpp:396] relu4_1 -> conv4_1 (in-place)
I0811 11:41:00.890655  3658 net.cpp:131] Setting up relu4_1
I0811 11:41:00.890871  3658 net.cpp:140] Top shape: 5 512 28 28 (2007040)
I0811 11:41:00.890887  3658 layer_factory.hpp:75] Creating layer conv4_2
I0811 11:41:00.890900  3658 net.cpp:99] Creating Layer conv4_2
I0811 11:41:00.890910  3658 net.cpp:453] conv4_2 <- conv4_1
I0811 11:41:00.890920  3658 net.cpp:409] conv4_2 -> conv4_2
I0811 11:41:00.890933  3658 net.cpp:131] Setting up conv4_2
I0811 11:41:00.910898  3658 net.cpp:140] Top shape: 5 512 28 28 (2007040)
I0811 11:41:00.910938  3658 layer_factory.hpp:75] Creating layer relu4_2
I0811 11:41:00.910951  3658 net.cpp:99] Creating Layer relu4_2
I0811 11:41:00.910960  3658 net.cpp:453] relu4_2 <- conv4_2
I0811 11:41:00.910970  3658 net.cpp:396] relu4_2 -> conv4_2 (in-place)
I0811 11:41:00.910981  3658 net.cpp:131] Setting up relu4_2
I0811 11:41:00.911053  3658 net.cpp:140] Top shape: 5 512 28 28 (2007040)
I0811 11:41:00.911064  3658 layer_factory.hpp:75] Creating layer conv4_3
I0811 11:41:00.911078  3658 net.cpp:99] Creating Layer conv4_3
I0811 11:41:00.911087  3658 net.cpp:453] conv4_3 <- conv4_2
I0811 11:41:00.911095  3658 net.cpp:409] conv4_3 -> conv4_3
I0811 11:41:00.911109  3658 net.cpp:131] Setting up conv4_3
I0811 11:41:00.929937  3658 net.cpp:140] Top shape: 5 512 28 28 (2007040)
I0811 11:41:00.929970  3658 layer_factory.hpp:75] Creating layer relu4_3
I0811 11:41:00.929982  3658 net.cpp:99] Creating Layer relu4_3
I0811 11:41:00.929992  3658 net.cpp:453] relu4_3 <- conv4_3
I0811 11:41:00.930003  3658 net.cpp:396] relu4_3 -> conv4_3 (in-place)
I0811 11:41:00.930013  3658 net.cpp:131] Setting up relu4_3
I0811 11:41:00.930083  3658 net.cpp:140] Top shape: 5 512 28 28 (2007040)
I0811 11:41:00.930093  3658 layer_factory.hpp:75] Creating layer pool4
I0811 11:41:00.930104  3658 net.cpp:99] Creating Layer pool4
I0811 11:41:00.930110  3658 net.cpp:453] pool4 <- conv4_3
I0811 11:41:00.930120  3658 net.cpp:409] pool4 -> pool4
I0811 11:41:00.930132  3658 net.cpp:131] Setting up pool4
I0811 11:41:00.930342  3658 net.cpp:140] Top shape: 5 512 14 14 (501760)
I0811 11:41:00.930357  3658 layer_factory.hpp:75] Creating layer conv5_1
I0811 11:41:00.930369  3658 net.cpp:99] Creating Layer conv5_1
I0811 11:41:00.930377  3658 net.cpp:453] conv5_1 <- pool4
I0811 11:41:00.930387  3658 net.cpp:409] conv5_1 -> conv5_1
I0811 11:41:00.930398  3658 net.cpp:131] Setting up conv5_1
I0811 11:41:00.948230  3658 net.cpp:140] Top shape: 5 512 14 14 (501760)
I0811 11:41:00.948261  3658 layer_factory.hpp:75] Creating layer relu5_1
I0811 11:41:00.948274  3658 net.cpp:99] Creating Layer relu5_1
I0811 11:41:00.948283  3658 net.cpp:453] relu5_1 <- conv5_1
I0811 11:41:00.948292  3658 net.cpp:396] relu5_1 -> conv5_1 (in-place)
I0811 11:41:00.948302  3658 net.cpp:131] Setting up relu5_1
I0811 11:41:00.948365  3658 net.cpp:140] Top shape: 5 512 14 14 (501760)
I0811 11:41:00.948376  3658 layer_factory.hpp:75] Creating layer conv5_2
I0811 11:41:00.948387  3658 net.cpp:99] Creating Layer conv5_2
I0811 11:41:00.948395  3658 net.cpp:453] conv5_2 <- conv5_1
I0811 11:41:00.948402  3658 net.cpp:409] conv5_2 -> conv5_2
I0811 11:41:00.948412  3658 net.cpp:131] Setting up conv5_2
I0811 11:41:00.965355  3658 net.cpp:140] Top shape: 5 512 14 14 (501760)
I0811 11:41:00.965387  3658 layer_factory.hpp:75] Creating layer relu5_2
I0811 11:41:00.965399  3658 net.cpp:99] Creating Layer relu5_2
I0811 11:41:00.965426  3658 net.cpp:453] relu5_2 <- conv5_2
I0811 11:41:00.965436  3658 net.cpp:396] relu5_2 -> conv5_2 (in-place)
I0811 11:41:00.965446  3658 net.cpp:131] Setting up relu5_2
I0811 11:41:00.965509  3658 net.cpp:140] Top shape: 5 512 14 14 (501760)
I0811 11:41:00.965518  3658 layer_factory.hpp:75] Creating layer conv5_3
I0811 11:41:00.965530  3658 net.cpp:99] Creating Layer conv5_3
I0811 11:41:00.965536  3658 net.cpp:453] conv5_3 <- conv5_2
I0811 11:41:00.965544  3658 net.cpp:409] conv5_3 -> conv5_3
I0811 11:41:00.965554  3658 net.cpp:131] Setting up conv5_3
I0811 11:41:00.995594  3658 net.cpp:140] Top shape: 5 512 14 14 (501760)
I0811 11:41:00.995641  3658 layer_factory.hpp:75] Creating layer relu5_3
I0811 11:41:00.995663  3658 net.cpp:99] Creating Layer relu5_3
I0811 11:41:00.995678  3658 net.cpp:453] relu5_3 <- conv5_3
I0811 11:41:00.995695  3658 net.cpp:396] relu5_3 -> conv5_3 (in-place)
I0811 11:41:00.995714  3658 net.cpp:131] Setting up relu5_3
I0811 11:41:00.995820  3658 net.cpp:140] Top shape: 5 512 14 14 (501760)
I0811 11:41:00.995838  3658 layer_factory.hpp:75] Creating layer pool5
I0811 11:41:00.995862  3658 net.cpp:99] Creating Layer pool5
I0811 11:41:00.995877  3658 net.cpp:453] pool5 <- conv5_3
I0811 11:41:00.995893  3658 net.cpp:409] pool5 -> pool5
I0811 11:41:00.995918  3658 net.cpp:131] Setting up pool5
I0811 11:41:00.996189  3658 net.cpp:140] Top shape: 5 512 7 7 (125440)
I0811 11:41:00.996209  3658 layer_factory.hpp:75] Creating layer fc6
I0811 11:41:00.996227  3658 net.cpp:99] Creating Layer fc6
I0811 11:41:00.996238  3658 net.cpp:453] fc6 <- pool5
I0811 11:41:00.996253  3658 net.cpp:409] fc6 -> fc6
I0811 11:41:00.996269  3658 net.cpp:131] Setting up fc6
I0811 11:41:01.649590  3658 net.cpp:140] Top shape: 5 4096 (20480)
I0811 11:41:01.649624  3658 layer_factory.hpp:75] Creating layer relu6
I0811 11:41:01.649637  3658 net.cpp:99] Creating Layer relu6
I0811 11:41:01.649644  3658 net.cpp:453] relu6 <- fc6
I0811 11:41:01.649652  3658 net.cpp:396] relu6 -> fc6 (in-place)
I0811 11:41:01.649660  3658 net.cpp:131] Setting up relu6
I0811 11:41:01.649741  3658 net.cpp:140] Top shape: 5 4096 (20480)
I0811 11:41:01.649751  3658 layer_factory.hpp:75] Creating layer drop6
I0811 11:41:01.649760  3658 net.cpp:99] Creating Layer drop6
I0811 11:41:01.649765  3658 net.cpp:453] drop6 <- fc6
I0811 11:41:01.649772  3658 net.cpp:396] drop6 -> fc6 (in-place)
I0811 11:41:01.649778  3658 net.cpp:131] Setting up drop6
I0811 11:41:01.649786  3658 net.cpp:140] Top shape: 5 4096 (20480)
I0811 11:41:01.649791  3658 layer_factory.hpp:75] Creating layer fc7
I0811 11:41:01.649801  3658 net.cpp:99] Creating Layer fc7
I0811 11:41:01.649806  3658 net.cpp:453] fc7 <- fc6
I0811 11:41:01.649812  3658 net.cpp:409] fc7 -> fc7
I0811 11:41:01.649821  3658 net.cpp:131] Setting up fc7
I0811 11:41:01.748194  3658 net.cpp:140] Top shape: 5 4096 (20480)
I0811 11:41:01.748226  3658 layer_factory.hpp:75] Creating layer relu7
I0811 11:41:01.748237  3658 net.cpp:99] Creating Layer relu7
I0811 11:41:01.748245  3658 net.cpp:453] relu7 <- fc7
I0811 11:41:01.748255  3658 net.cpp:396] relu7 -> fc7 (in-place)
I0811 11:41:01.748262  3658 net.cpp:131] Setting up relu7
I0811 11:41:01.748342  3658 net.cpp:140] Top shape: 5 4096 (20480)
I0811 11:41:01.748353  3658 layer_factory.hpp:75] Creating layer drop7
I0811 11:41:01.748361  3658 net.cpp:99] Creating Layer drop7
I0811 11:41:01.748366  3658 net.cpp:453] drop7 <- fc7
I0811 11:41:01.748373  3658 net.cpp:396] drop7 -> fc7 (in-place)
I0811 11:41:01.748381  3658 net.cpp:131] Setting up drop7
I0811 11:41:01.748390  3658 net.cpp:140] Top shape: 5 4096 (20480)
I0811 11:41:01.748396  3658 layer_factory.hpp:75] Creating layer fc8-1
I0811 11:41:01.748405  3658 net.cpp:99] Creating Layer fc8-1
I0811 11:41:01.748412  3658 net.cpp:453] fc8-1 <- fc7
I0811 11:41:01.748420  3658 net.cpp:409] fc8-1 -> fc8-1
I0811 11:41:01.748430  3658 net.cpp:131] Setting up fc8-1
I0811 11:41:01.758009  3658 net.cpp:140] Top shape: 5 101 (505)
I0811 11:41:01.758033  3658 layer_factory.hpp:75] Creating layer fc8-1_fc8-1_0_split
I0811 11:41:01.758067  3658 net.cpp:99] Creating Layer fc8-1_fc8-1_0_split
I0811 11:41:01.758074  3658 net.cpp:453] fc8-1_fc8-1_0_split <- fc8-1
I0811 11:41:01.758083  3658 net.cpp:409] fc8-1_fc8-1_0_split -> fc8-1_fc8-1_0_split_0
I0811 11:41:01.758092  3658 net.cpp:409] fc8-1_fc8-1_0_split -> fc8-1_fc8-1_0_split_1
I0811 11:41:01.758100  3658 net.cpp:131] Setting up fc8-1_fc8-1_0_split
I0811 11:41:01.758107  3658 net.cpp:140] Top shape: 5 101 (505)
I0811 11:41:01.758113  3658 net.cpp:140] Top shape: 5 101 (505)
I0811 11:41:01.758119  3658 layer_factory.hpp:75] Creating layer loss
I0811 11:41:01.758128  3658 net.cpp:99] Creating Layer loss
I0811 11:41:01.758133  3658 net.cpp:453] loss <- fc8-1_fc8-1_0_split_0
I0811 11:41:01.758139  3658 net.cpp:453] loss <- label_local_data_1_split_0
I0811 11:41:01.758147  3658 net.cpp:409] loss -> loss
I0811 11:41:01.758153  3658 net.cpp:131] Setting up loss
I0811 11:41:01.758160  3658 layer_factory.hpp:75] Creating layer loss
…
