…
  type: "VideoData"
  top: "data"
  top: "label_local"
  include {
    phase: TRAIN
  }
  transform_param {
    mirror: true
    crop_size: 224
    mean_value: 104
    mean_value: 117
    mean_value: 123
    fix_crop: true
    multi_scale: true
    scale_ratios: 1
    scale_ratios: 0.875
    scale_ratios: 0.75
    scale_ratios: 0.66
    max_distort: 1
  }
  video_data_param {
    source: "/home/jiri/Lake/HAR/datasets/UCF-101/train-2-rnd.txt"
    batch_size: 64
    new_height: 256
    new_width: 340
    new_length: 1
    num_segments: 1
    modality: RGB
  }
}
layer {
  name: "conv1_1"
  type: "Convolution"
  bottom: "data"
  top: "conv1_1"
  param {
    lr_mult: 1
    decay_mult: 1
  }
  param {
    lr_mult: 2
    decay_mult: 0
  }
  convolution_param {
    num_output: 64
    pad: 1
    kernel_size: 3
  }
}
layer {
  name: "relu1_1"
  type: "ReLU"
  bottom: "conv1_1"
  top: "conv1_1"
}
layer {
  name: "conv1_2"
  type: "Convolution"
  bottom: "conv1_1"
  top: "conv1_2"
  param {
    lr_mult: 1
    decay_mult: 1
  }
  param {
    lr_mult: 2
    decay_mult: 0
  }
  convolution_param {
    num_output: 64
    pad: 1
    kernel_size: 3
  }
}
layer {
  name: "relu1_2"
  type: "ReLU"
  bottom: "conv1_2"
  top: "conv1_2"
}
layer {
  name: "pool1"
  type: "Pooling"
  bottom: "conv1_2"
  top: "pool1"
  pooling_param {
    pool: MAX
    kernel_size: 2
    stride: 2
  }
}
layer {
  name: "conv2_1"
  type: "Convolution"
  bottom: "pool1"
  top: "conv2_1"
  param {
    lr_mult: 1
    decay_mult: 1
  }
  param {
    lr_mult: 2
    decay_mult: 0
  }
  convolution_param {
    num_output: 128
    pad: 1
    kernel_size: 3
  }
}
layer {
  name: "relu2_1"
  type: "ReLU"
  bottom: "conv2_1"
  top: "conv2_1"
}
layer {
  name: "conv2_2"
  type: "Convolution"
  bottom: "conv2_1"
  top: "conv2_2"
  param {
    lr_mult: 1
    decay_mult: 1
  }
  param {
    lr_mult: 2
    decay_mult: 0
  }
  convolution_param {
    num_output: 128
    pad: 1
    kernel_size: 3
  }
}
layer {
  name: "relu2_2"
  type: "ReLU"
  bottom: "conv2_2"
  top: "conv2_2"
}
layer {
  name: "pool2"
  type: "Pooling"
  bottom: "conv2_2"
  top: "pool2"
  pooling_param {
    pool: MAX
    kernel_size: 2
    stride: 2
  }
}
layer {
  name: "conv3_1"
  type: "Convolution"
  bottom: "pool2"
  top: "conv3_1"
  param {
    lr_mult: 1
    decay_mult: 1
  }
  param {
    lr_mult: 2
    decay_mult: 0
  }
  convolution_param {
    num_output: 256
    pad: 1
    kernel_size: 3
  }
}
layer {
  name: "relu3_1"
  type: "ReLU"
  bottom: "conv3_1"
  top: "conv3_1"
}
layer {
  name: "conv3_2"
  type: "Convolution"
  bottom: "conv3_1"
  top: "conv3_2"
  param {
    lr_mult: 1
    decay_mult: 1
  }
  param {
    lr_mult: 2
    decay_mult: 0
  }
  convolution_param {
    num_output: 256
    pad: 1
    kernel_size: 3
  }
}
layer {
  name: "relu3_2"
  type: "ReLU"
  bottom: "conv3_2"
  top: "conv3_2"
}
layer {
  name: "conv3_3"
  type: "Convolution"
  bottom: "conv3_2"
  top: "conv3_3"
  param {
    lr_mult: 1
    decay_mult: 1
  }
  param {
    lr_mult: 2
    decay_mult: 0
  }
  convolution_param {
    num_output: 256
    pad: 1
    kernel_size: 3
  }
}
layer {
  name: "relu3_3"
  type: "ReLU"
  bottom: "conv3_3"
  top: "conv3_3"
}
layer {
  name: "pool3"
  type: "Pooling"
  bottom: "conv3_3"
  top: "pool3"
  pooling_param {
    pool: MAX
    kernel_size: 2
    stride: 2
  }
}
layer {
  name: "conv4_1"
  type: "Convolution"
  bottom: "pool3"
  top: "conv4_1"
  param {
    lr_mult: 1
    decay_mult: 1
  }
  param {
    lr_mult: 2
    decay_mult: 0
  }
  convolution_param {
    num_output: 512
    pad: 1
    kernel_size: 3
  }
}
layer {
  name: "relu4_1"
  type: "ReLU"
  bottom: "conv4_1"
  top: "conv4_1"
}
layer {
  name: "conv4_2"
  type: "Convolution"
  bottom: "conv4_1"
  top: "conv4_2"
  param {
    lr_mult: 1
    decay_mult: 1
  }
  param {
    lr_mult: 2
    decay_mult: 0
  }
  convolution_param {
    num_output: 512
    pad: 1
    kernel_size: 3
  }
}
layer {
  name: "relu4_2"
  type: "ReLU"
  bottom: "conv4_2"
  top: "conv4_2"
}
layer {
  name: "conv4_3"
  type: "Convolution"
  bottom: "conv4_2"
  top: "conv4_3"
  param {
    lr_mult: 1
    decay_mult: 1
  }
  param {
    lr_mult: 2
    decay_mult: 0
  }
  convolution_param {
    num_output: 512
    pad: 1
    kernel_size: 3
  }
}
layer {
  name: "relu4_3"
  type: "ReLU"
  bottom: "conv4_3"
  top: "conv4_3"
}
layer {
  name: "pool4"
  type: "Pooling"
  bottom: "conv4_3"
  top: "pool4"
  pooling_param {
    pool: MAX
    kernel_size: 2
    stride: 2
  }
}
layer {
  name: "conv5_1"
  type: "Convolution"
  bottom: "pool4"
  top: "conv5_1"
  param {
    lr_mult: 1
    decay_mult: 1
  }
  param {
    lr_mult: 2
    decay_mult: 0
  }
  convolution_param {
    num_output: 512
    pad: 1
    kernel_size: 3
  }
}
layer {
  name: "relu5_1"
  type: "ReLU"
  bottom: "conv5_1"
  top: "conv5_1"
}
layer {
  name: "conv5_2"
  type: "Convolution"
  bottom: "conv5_1"
  top: "conv5_2"
  param {
    lr_mult: 1
    decay_mult: 1
  }
  param {
    lr_mult: 2
    decay_mult: 0
  }
  convolution_param {
    num_output: 512
    pad: 1
    kernel_size: 3
  }
}
layer {
  name: "relu5_2"
  type: "ReLU"
  bottom: "conv5_2"
  top: "conv5_2"
}
layer {
  name: "conv5_3"
  type: "Convolution"
  bottom: "conv5_2"
  top: "conv5_3"
  param {
    lr_mult: 1
    decay_mult: 1
  }
  param {
    lr_mult: 2
    decay_mult: 0
  }
  convolution_param {
    num_output: 512
    pad: 1
    kernel_size: 3
  }
}
layer {
  name: "relu5_3"
  type: "ReLU"
  bottom: "conv5_3"
  top: "conv5_3"
}
layer {
  name: "pool5"
  type: "Pooling"
  bottom: "conv5_3"
  top: "pool5"
  pooling_param {
    pool: MAX
    kernel_size: 2
    stride: 2
  }
}
layer {
  name: "fc6"
  type: "InnerProduct"
  bottom: "pool5"
  top: "fc6"
  param {
    lr_mult: 1
    decay_mult: 1
  }
  param {
    lr_mult: 2
    decay_mult: 0
  }
  inner_product_param {
    num_output: 4096
  }
}
layer {
  name: "relu6"
  type: "ReLU"
  bottom: "fc6"
  top: "fc6"
}
layer {
  name: "drop6"
  type: "Dropout"
  bottom: "fc6"
  top: "fc6"
  dropout_param {
    dropout_ratio: 0.9
  }
}
layer {
  name: "fc7"
  type: "InnerProduct"
  bottom: "fc6"
  top: "fc7"
  param {
    lr_mult: 1
    decay_mult: 1
  }
  param {
    lr_mult: 2
    decay_mult: 0
  }
  inner_product_param {
    num_output: 4096
  }
}
layer {
  name: "relu7"
  type: "ReLU"
  bottom: "fc7"
  top: "fc7"
}
layer {
  name: "drop7"
  type: "Dropout"
  bottom: "fc7"
  top: "fc7"
  dropout_param {
    dropout_ratio: 0.9
  }
}
layer {
  name: "fc8-1"
  type: "InnerProduct"
  bottom: "fc7"
  top: "fc8-1"
  param {
    lr_mult: 1
    decay_mult: 1
  }
  param {
    lr_mult: 2
    decay_mult: 0
  }
  inner_product_param {
    num_output: 101
    weight_filler {
      type: "gaussian"
      std: 0.001
    }
    bias_filler {
      type: "constant"
      value: 0
    }
  }
}
layer {
  name: "loss"
  type: "SoftmaxWithLoss"
  bottom: "fc8-1"
  bottom: "label_local"
  include {
    phase: TRAIN
  }
}
I0811 23:32:48.383744  9014 layer_factory.hpp:75] Creating layer data
I0811 23:32:48.383781  9014 net.cpp:99] Creating Layer data
I0811 23:32:48.383790  9014 net.cpp:409] data -> data
I0811 23:32:48.383824  9014 net.cpp:409] data -> label_local
I0811 23:32:48.383836  9014 net.cpp:131] Setting up data
I0811 23:32:48.383846  9014 video_data_layer.cpp:34] Opening file: /home/jiri/Lake/HAR/datasets/UCF-101/train-2-rnd.txt
I0811 23:32:48.388347  9014 video_data_layer.cpp:50] A total of 9537 videos.
I0811 23:32:48.403555  9014 video_data_layer.cpp:85] output data size: 64,3,224,224
I0811 23:32:48.488564  9014 net.cpp:140] Top shape: 64 3 224 224 (9633792)
I0811 23:32:48.488605  9014 net.cpp:140] Top shape: 64 1 1 1 (64)
I0811 23:32:48.488621  9014 layer_factory.hpp:75] Creating layer conv1_1
I0811 23:32:48.488644  9014 net.cpp:99] Creating Layer conv1_1
I0811 23:32:48.488656  9014 net.cpp:453] conv1_1 <- data
I0811 23:32:48.488675  9014 net.cpp:409] conv1_1 -> conv1_1
I0811 23:32:48.488693  9014 net.cpp:131] Setting up conv1_1
I0811 23:32:48.544188  9014 net.cpp:140] Top shape: 64 64 224 224 (205520896)
I0811 23:32:48.544235  9014 layer_factory.hpp:75] Creating layer relu1_1
I0811 23:32:48.544253  9014 net.cpp:99] Creating Layer relu1_1
I0811 23:32:48.544262  9014 net.cpp:453] relu1_1 <- conv1_1
I0811 23:32:48.544275  9014 net.cpp:396] relu1_1 -> conv1_1 (in-place)
I0811 23:32:48.544288  9014 net.cpp:131] Setting up relu1_1
I0811 23:32:48.544366  9014 net.cpp:140] Top shape: 64 64 224 224 (205520896)
I0811 23:32:48.544378  9014 layer_factory.hpp:75] Creating layer conv1_2
I0811 23:32:48.544391  9014 net.cpp:99] Creating Layer conv1_2
I0811 23:32:48.544399  9014 net.cpp:453] conv1_2 <- conv1_1
I0811 23:32:48.544409  9014 net.cpp:409] conv1_2 -> conv1_2
I0811 23:32:48.544420  9014 net.cpp:131] Setting up conv1_2
I0811 23:32:48.544852  9014 net.cpp:140] Top shape: 64 64 224 224 (205520896)
I0811 23:32:48.544875  9014 layer_factory.hpp:75] Creating layer relu1_2
I0811 23:32:48.544888  9014 net.cpp:99] Creating Layer relu1_2
I0811 23:32:48.544896  9014 net.cpp:453] relu1_2 <- conv1_2
I0811 23:32:48.544905  9014 net.cpp:396] relu1_2 -> conv1_2 (in-place)
I0811 23:32:48.544915  9014 net.cpp:131] Setting up relu1_2
I0811 23:32:48.545121  9014 net.cpp:140] Top shape: 64 64 224 224 (205520896)
I0811 23:32:48.545140  9014 layer_factory.hpp:75] Creating layer pool1
I0811 23:32:48.545153  9014 net.cpp:99] Creating Layer pool1
I0811 23:32:48.545161  9014 net.cpp:453] pool1 <- conv1_2
I0811 23:32:48.545171  9014 net.cpp:409] pool1 -> pool1
I0811 23:32:48.545182  9014 net.cpp:131] Setting up pool1
I0811 23:32:48.545274  9014 net.cpp:140] Top shape: 64 64 112 112 (51380224)
I0811 23:32:48.545287  9014 layer_factory.hpp:75] Creating layer conv2_1
I0811 23:32:48.545299  9014 net.cpp:99] Creating Layer conv2_1
I0811 23:32:48.545306  9014 net.cpp:453] conv2_1 <- pool1
I0811 23:32:48.545315  9014 net.cpp:409] conv2_1 -> conv2_1
I0811 23:32:48.545326  9014 net.cpp:131] Setting up conv2_1
I0811 23:32:48.546782  9014 net.cpp:140] Top shape: 64 128 112 112 (102760448)
I0811 23:32:48.546808  9014 layer_factory.hpp:75] Creating layer relu2_1
I0811 23:32:48.546828  9014 net.cpp:99] Creating Layer relu2_1
I0811 23:32:48.546838  9014 net.cpp:453] relu2_1 <- conv2_1
I0811 23:32:48.546849  9014 net.cpp:396] relu2_1 -> conv2_1 (in-place)
I0811 23:32:48.546859  9014 net.cpp:131] Setting up relu2_1
I0811 23:32:48.546938  9014 net.cpp:140] Top shape: 64 128 112 112 (102760448)
I0811 23:32:48.546952  9014 layer_factory.hpp:75] Creating layer conv2_2
I0811 23:32:48.546963  9014 net.cpp:99] Creating Layer conv2_2
I0811 23:32:48.546972  9014 net.cpp:453] conv2_2 <- conv2_1
I0811 23:32:48.546982  9014 net.cpp:409] conv2_2 -> conv2_2
I0811 23:32:48.546993  9014 net.cpp:131] Setting up conv2_2
I0811 23:32:48.547461  9014 net.cpp:140] Top shape: 64 128 112 112 (102760448)
I0811 23:32:48.547482  9014 layer_factory.hpp:75] Creating layer relu2_2
I0811 23:32:48.547495  9014 net.cpp:99] Creating Layer relu2_2
I0811 23:32:48.547503  9014 net.cpp:453] relu2_2 <- conv2_2
I0811 23:32:48.547513  9014 net.cpp:396] relu2_2 -> conv2_2 (in-place)
I0811 23:32:48.547521  9014 net.cpp:131] Setting up relu2_2
I0811 23:32:48.547592  9014 net.cpp:140] Top shape: 64 128 112 112 (102760448)
I0811 23:32:48.547631  9014 layer_factory.hpp:75] Creating layer pool2
I0811 23:32:48.547644  9014 net.cpp:99] Creating Layer pool2
I0811 23:32:48.547653  9014 net.cpp:453] pool2 <- conv2_2
I0811 23:32:48.547662  9014 net.cpp:409] pool2 -> pool2
I0811 23:32:48.547672  9014 net.cpp:131] Setting up pool2
I0811 23:32:48.547885  9014 net.cpp:140] Top shape: 64 128 56 56 (25690112)
I0811 23:32:48.547904  9014 layer_factory.hpp:75] Creating layer conv3_1
I0811 23:32:48.547915  9014 net.cpp:99] Creating Layer conv3_1
I0811 23:32:48.547922  9014 net.cpp:453] conv3_1 <- pool2
I0811 23:32:48.547935  9014 net.cpp:409] conv3_1 -> conv3_1
I0811 23:32:48.547946  9014 net.cpp:131] Setting up conv3_1
I0811 23:32:48.549026  9014 net.cpp:140] Top shape: 64 256 56 56 (51380224)
I0811 23:32:48.549051  9014 layer_factory.hpp:75] Creating layer relu3_1
I0811 23:32:48.549063  9014 net.cpp:99] Creating Layer relu3_1
I0811 23:32:48.549072  9014 net.cpp:453] relu3_1 <- conv3_1
I0811 23:32:48.549080  9014 net.cpp:396] relu3_1 -> conv3_1 (in-place)
I0811 23:32:48.549089  9014 net.cpp:131] Setting up relu3_1
I0811 23:32:48.549162  9014 net.cpp:140] Top shape: 64 256 56 56 (51380224)
I0811 23:32:48.549172  9014 layer_factory.hpp:75] Creating layer conv3_2
I0811 23:32:48.549183  9014 net.cpp:99] Creating Layer conv3_2
I0811 23:32:48.549190  9014 net.cpp:453] conv3_2 <- conv3_1
I0811 23:32:48.549201  9014 net.cpp:409] conv3_2 -> conv3_2
I0811 23:32:48.549211  9014 net.cpp:131] Setting up conv3_2
I0811 23:32:48.550803  9014 net.cpp:140] Top shape: 64 256 56 56 (51380224)
I0811 23:32:48.550833  9014 layer_factory.hpp:75] Creating layer relu3_2
I0811 23:32:48.550844  9014 net.cpp:99] Creating Layer relu3_2
I0811 23:32:48.550853  9014 net.cpp:453] relu3_2 <- conv3_2
I0811 23:32:48.550863  9014 net.cpp:396] relu3_2 -> conv3_2 (in-place)
I0811 23:32:48.550873  9014 net.cpp:131] Setting up relu3_2
I0811 23:32:48.550954  9014 net.cpp:140] Top shape: 64 256 56 56 (51380224)
I0811 23:32:48.550966  9014 layer_factory.hpp:75] Creating layer conv3_3
I0811 23:32:48.550976  9014 net.cpp:99] Creating Layer conv3_3
I0811 23:32:48.550982  9014 net.cpp:453] conv3_3 <- conv3_2
I0811 23:32:48.550992  9014 net.cpp:409] conv3_3 -> conv3_3
I0811 23:32:48.551002  9014 net.cpp:131] Setting up conv3_3
I0811 23:32:48.552713  9014 net.cpp:140] Top shape: 64 256 56 56 (51380224)
I0811 23:32:48.552737  9014 layer_factory.hpp:75] Creating layer relu3_3
I0811 23:32:48.552752  9014 net.cpp:99] Creating Layer relu3_3
I0811 23:32:48.552760  9014 net.cpp:453] relu3_3 <- conv3_3
I0811 23:32:48.552769  9014 net.cpp:396] relu3_3 -> conv3_3 (in-place)
I0811 23:32:48.552779  9014 net.cpp:131] Setting up relu3_3
I0811 23:32:48.552996  9014 net.cpp:140] Top shape: 64 256 56 56 (51380224)
I0811 23:32:48.553011  9014 layer_factory.hpp:75] Creating layer pool3
I0811 23:32:48.553022  9014 net.cpp:99] Creating Layer pool3
I0811 23:32:48.553030  9014 net.cpp:453] pool3 <- conv3_3
I0811 23:32:48.553038  9014 net.cpp:409] pool3 -> pool3
I0811 23:32:48.553048  9014 net.cpp:131] Setting up pool3
I0811 23:32:48.553123  9014 net.cpp:140] Top shape: 64 256 28 28 (12845056)
I0811 23:32:48.553134  9014 layer_factory.hpp:75] Creating layer conv4_1
I0811 23:32:48.553145  9014 net.cpp:99] Creating Layer conv4_1
I0811 23:32:48.553153  9014 net.cpp:453] conv4_1 <- pool3
I0811 23:32:48.553161  9014 net.cpp:409] conv4_1 -> conv4_1
I0811 23:32:48.553171  9014 net.cpp:131] Setting up conv4_1
I0811 23:32:48.556371  9014 net.cpp:140] Top shape: 64 512 28 28 (25690112)
I0811 23:32:48.556406  9014 layer_factory.hpp:75] Creating layer relu4_1
I0811 23:32:48.556417  9014 net.cpp:99] Creating Layer relu4_1
I0811 23:32:48.556426  9014 net.cpp:453] relu4_1 <- conv4_1
I0811 23:32:48.556437  9014 net.cpp:396] relu4_1 -> conv4_1 (in-place)
I0811 23:32:48.556447  9014 net.cpp:131] Setting up relu4_1
I0811 23:32:48.556529  9014 net.cpp:140] Top shape: 64 512 28 28 (25690112)
I0811 23:32:48.556540  9014 layer_factory.hpp:75] Creating layer conv4_2
I0811 23:32:48.556555  9014 net.cpp:99] Creating Layer conv4_2
I0811 23:32:48.556586  9014 net.cpp:453] conv4_2 <- conv4_1
I0811 23:32:48.556598  9014 net.cpp:409] conv4_2 -> conv4_2
I0811 23:32:48.556610  9014 net.cpp:131] Setting up conv4_2
I0811 23:32:48.562151  9014 net.cpp:140] Top shape: 64 512 28 28 (25690112)
I0811 23:32:48.562196  9014 layer_factory.hpp:75] Creating layer relu4_2
I0811 23:32:48.562211  9014 net.cpp:99] Creating Layer relu4_2
I0811 23:32:48.562222  9014 net.cpp:453] relu4_2 <- conv4_2
I0811 23:32:48.562232  9014 net.cpp:396] relu4_2 -> conv4_2 (in-place)
I0811 23:32:48.562242  9014 net.cpp:131] Setting up relu4_2
I0811 23:32:48.562314  9014 net.cpp:140] Top shape: 64 512 28 28 (25690112)
I0811 23:32:48.562325  9014 layer_factory.hpp:75] Creating layer conv4_3
I0811 23:32:48.562337  9014 net.cpp:99] Creating Layer conv4_3
I0811 23:32:48.562345  9014 net.cpp:453] conv4_3 <- conv4_2
I0811 23:32:48.562355  9014 net.cpp:409] conv4_3 -> conv4_3
I0811 23:32:48.562364  9014 net.cpp:131] Setting up conv4_3
I0811 23:32:48.567766  9014 net.cpp:140] Top shape: 64 512 28 28 (25690112)
I0811 23:32:48.567802  9014 layer_factory.hpp:75] Creating layer relu4_3
I0811 23:32:48.567816  9014 net.cpp:99] Creating Layer relu4_3
I0811 23:32:48.567823  9014 net.cpp:453] relu4_3 <- conv4_3
I0811 23:32:48.567833  9014 net.cpp:396] relu4_3 -> conv4_3 (in-place)
I0811 23:32:48.567844  9014 net.cpp:131] Setting up relu4_3
I0811 23:32:48.568061  9014 net.cpp:140] Top shape: 64 512 28 28 (25690112)
I0811 23:32:48.568076  9014 layer_factory.hpp:75] Creating layer pool4
I0811 23:32:48.568087  9014 net.cpp:99] Creating Layer pool4
I0811 23:32:48.568094  9014 net.cpp:453] pool4 <- conv4_3
I0811 23:32:48.568104  9014 net.cpp:409] pool4 -> pool4
I0811 23:32:48.568114  9014 net.cpp:131] Setting up pool4
I0811 23:32:48.568187  9014 net.cpp:140] Top shape: 64 512 14 14 (6422528)
I0811 23:32:48.568197  9014 layer_factory.hpp:75] Creating layer conv5_1
I0811 23:32:48.568209  9014 net.cpp:99] Creating Layer conv5_1
I0811 23:32:48.568217  9014 net.cpp:453] conv5_1 <- pool4
I0811 23:32:48.568225  9014 net.cpp:409] conv5_1 -> conv5_1
I0811 23:32:48.568239  9014 net.cpp:131] Setting up conv5_1
I0811 23:32:48.573722  9014 net.cpp:140] Top shape: 64 512 14 14 (6422528)
I0811 23:32:48.573761  9014 layer_factory.hpp:75] Creating layer relu5_1
I0811 23:32:48.573776  9014 net.cpp:99] Creating Layer relu5_1
I0811 23:32:48.573786  9014 net.cpp:453] relu5_1 <- conv5_1
I0811 23:32:48.573796  9014 net.cpp:396] relu5_1 -> conv5_1 (in-place)
I0811 23:32:48.573807  9014 net.cpp:131] Setting up relu5_1
I0811 23:32:48.573879  9014 net.cpp:140] Top shape: 64 512 14 14 (6422528)
I0811 23:32:48.573889  9014 layer_factory.hpp:75] Creating layer conv5_2
I0811 23:32:48.573900  9014 net.cpp:99] Creating Layer conv5_2
I0811 23:32:48.573906  9014 net.cpp:453] conv5_2 <- conv5_1
I0811 23:32:48.573916  9014 net.cpp:409] conv5_2 -> conv5_2
I0811 23:32:48.573927  9014 net.cpp:131] Setting up conv5_2
I0811 23:32:48.579421  9014 net.cpp:140] Top shape: 64 512 14 14 (6422528)
I0811 23:32:48.579457  9014 layer_factory.hpp:75] Creating layer relu5_2
I0811 23:32:48.579469  9014 net.cpp:99] Creating Layer relu5_2
I0811 23:32:48.579478  9014 net.cpp:453] relu5_2 <- conv5_2
I0811 23:32:48.579489  9014 net.cpp:396] relu5_2 -> conv5_2 (in-place)
I0811 23:32:48.579500  9014 net.cpp:131] Setting up relu5_2
I0811 23:32:48.579576  9014 net.cpp:140] Top shape: 64 512 14 14 (6422528)
I0811 23:32:48.579586  9014 layer_factory.hpp:75] Creating layer conv5_3
I0811 23:32:48.579597  9014 net.cpp:99] Creating Layer conv5_3
I0811 23:32:48.579603  9014 net.cpp:453] conv5_3 <- conv5_2
I0811 23:32:48.579614  9014 net.cpp:409] conv5_3 -> conv5_3
I0811 23:32:48.579624  9014 net.cpp:131] Setting up conv5_3
I0811 23:32:48.585475  9014 net.cpp:140] Top shape: 64 512 14 14 (6422528)
I0811 23:32:48.585515  9014 layer_factory.hpp:75] Creating layer relu5_3
I0811 23:32:48.585530  9014 net.cpp:99] Creating Layer relu5_3
I0811 23:32:48.585537  9014 net.cpp:453] relu5_3 <- conv5_3
I0811 23:32:48.585548  9014 net.cpp:396] relu5_3 -> conv5_3 (in-place)
I0811 23:32:48.585595  9014 net.cpp:131] Setting up relu5_3
I0811 23:32:48.585814  9014 net.cpp:140] Top shape: 64 512 14 14 (6422528)
I0811 23:32:48.585830  9014 layer_factory.hpp:75] Creating layer pool5
I0811 23:32:48.585842  9014 net.cpp:99] Creating Layer pool5
I0811 23:32:48.585849  9014 net.cpp:453] pool5 <- conv5_3
I0811 23:32:48.585857  9014 net.cpp:409] pool5 -> pool5
I0811 23:32:48.585867  9014 net.cpp:131] Setting up pool5
I0811 23:32:48.585942  9014 net.cpp:140] Top shape: 64 512 7 7 (1605632)
I0811 23:32:48.585953  9014 layer_factory.hpp:75] Creating layer fc6
I0811 23:32:48.585968  9014 net.cpp:99] Creating Layer fc6
I0811 23:32:48.585973  9014 net.cpp:453] fc6 <- pool5
I0811 23:32:48.585984  9014 net.cpp:409] fc6 -> fc6
I0811 23:32:48.585996  9014 net.cpp:131] Setting up fc6
I0811 23:32:48.793076  9014 net.cpp:140] Top shape: 64 4096 (262144)
I0811 23:32:48.793114  9014 layer_factory.hpp:75] Creating layer relu6
I0811 23:32:48.793128  9014 net.cpp:99] Creating Layer relu6
I0811 23:32:48.793134  9014 net.cpp:453] relu6 <- fc6
I0811 23:32:48.793144  9014 net.cpp:396] relu6 -> fc6 (in-place)
I0811 23:32:48.793154  9014 net.cpp:131] Setting up relu6
I0811 23:32:48.793237  9014 net.cpp:140] Top shape: 64 4096 (262144)
I0811 23:32:48.793247  9014 layer_factory.hpp:75] Creating layer drop6
I0811 23:32:48.793256  9014 net.cpp:99] Creating Layer drop6
I0811 23:32:48.793263  9014 net.cpp:453] drop6 <- fc6
I0811 23:32:48.793272  9014 net.cpp:396] drop6 -> fc6 (in-place)
I0811 23:32:48.793280  9014 net.cpp:131] Setting up drop6
I0811 23:32:48.793289  9014 net.cpp:140] Top shape: 64 4096 (262144)
I0811 23:32:48.793294  9014 layer_factory.hpp:75] Creating layer fc7
I0811 23:32:48.793303  9014 net.cpp:99] Creating Layer fc7
I0811 23:32:48.793308  9014 net.cpp:453] fc7 <- fc6
I0811 23:32:48.793315  9014 net.cpp:409] fc7 -> fc7
I0811 23:32:48.793324  9014 net.cpp:131] Setting up fc7
I0811 23:32:48.825644  9014 net.cpp:140] Top shape: 64 4096 (262144)
I0811 23:32:48.825683  9014 layer_factory.hpp:75] Creating layer relu7
I0811 23:32:48.825697  9014 net.cpp:99] Creating Layer relu7
I0811 23:32:48.825705  9014 net.cpp:453] relu7 <- fc7
I0811 23:32:48.825711  9014 net.cpp:396] relu7 -> fc7 (in-place)
I0811 23:32:48.825719  9014 net.cpp:131] Setting up relu7
I0811 23:32:48.825805  9014 net.cpp:140] Top shape: 64 4096 (262144)
I0811 23:32:48.825814  9014 layer_factory.hpp:75] Creating layer drop7
I0811 23:32:48.825822  9014 net.cpp:99] Creating Layer drop7
I0811 23:32:48.825827  9014 net.cpp:453] drop7 <- fc7
I0811 23:32:48.825834  9014 net.cpp:396] drop7 -> fc7 (in-place)
I0811 23:32:48.825841  9014 net.cpp:131] Setting up drop7
I0811 23:32:48.825850  9014 net.cpp:140] Top shape: 64 4096 (262144)
I0811 23:32:48.825855  9014 layer_factory.hpp:75] Creating layer fc8-1
I0811 23:32:48.825863  9014 net.cpp:99] Creating Layer fc8-1
I0811 23:32:48.825867  9014 net.cpp:453] fc8-1 <- fc7
I0811 23:32:48.825875  9014 net.cpp:409] fc8-1 -> fc8-1
I0811 23:32:48.825883  9014 net.cpp:131] Setting up fc8-1
I0811 23:32:48.835598  9014 net.cpp:140] Top shape: 64 101 (6464)
I0811 23:32:48.835618  9014 layer_factory.hpp:75] Creating layer loss
I0811 23:32:48.835628  9014 net.cpp:99] Creating Layer loss
I0811 23:32:48.835634  9014 net.cpp:453] loss <- fc8-1
I0811 23:32:48.835640  9014 net.cpp:453] loss <- label_local
I0811 23:32:48.835649  9014 net.cpp:409] loss -> (automatic)
I0811 23:32:48.835657  9014 net.cpp:131] Setting up loss
I0811 23:32:48.835664  9014 layer_factory.hpp:75] Creating layer loss
…
I0811 23:32:48.837255  9014 net.cpp:47] Initializing net from parameters: 
name: "CUHK_Action_SpatialNet"
state {
  phase: TEST
}
layer {
  name: "data"
  type: "VideoData"
  top: "data"
  top: "label_local"
  include {
    phase: TEST
  }
  transform_param {
    mirror: false
    crop_size: 224
    mean_value: 104
    mean_value: 117
    mean_value: 123
  }
  video_data_param {
    source: "/home/jiri/Lake/HAR/datasets/UCF-101/val-2-rnd.txt"
    batch_size: 10
    new_height: 256
    new_width: 340
    new_length: 1
    num_segments: 1
    modality: RGB
  }
}
layer {
  name: "conv1_1"
  type: "Convolution"
  bottom: "data"
  top: "conv1_1"
  param {
    lr_mult: 1
    decay_mult: 1
  }
  param {
    lr_mult: 2
    decay_mult: 0
  }
  convolution_param {
    num_output: 64
    pad: 1
    kernel_size: 3
  }
}
layer {
  name: "relu1_1"
  type: "ReLU"
  bottom: "conv1_1"
  top: "conv1_1"
}
layer {
  name: "conv1_2"
  type: "Convolution"
  bottom: "conv1_1"
  top: "conv1_2"
  param {
    lr_mult: 1
    decay_mult: 1
  }
  param {
    lr_mult: 2
    decay_mult: 0
  }
  convolution_param {
    num_output: 64
    pad: 1
    kernel_size: 3
  }
}
layer {
  name: "relu1_2"
  type: "ReLU"
  bottom: "conv1_2"
  top: "conv1_2"
}
layer {
  name: "pool1"
  type: "Pooling"
  bottom: "conv1_2"
  top: "pool1"
  pooling_param {
    pool: MAX
    kernel_size: 2
    stride: 2
  }
}
layer {
  name: "conv2_1"
  type: "Convolution"
  bottom: "pool1"
  top: "conv2_1"
  param {
    lr_mult: 1
    decay_mult: 1
  }
  param {
    lr_mult: 2
    decay_mult: 0
  }
  convolution_param {
    num_output: 128
    pad: 1
    kernel_size: 3
  }
}
layer {
  name: "relu2_1"
  type: "ReLU"
  bottom: "conv2_1"
  top: "conv2_1"
}
layer {
  name: "conv2_2"
  type: "Convolution"
  bottom: "conv2_1"
  top: "conv2_2"
  param {
    lr_mult: 1
    decay_mult: 1
  }
  param {
    lr_mult: 2
    decay_mult: 0
  }
  convolution_param {
    num_output: 128
    pad: 1
    kernel_size: 3
  }
}
layer {
  name: "relu2_2"
  type: "ReLU"
  bottom: "conv2_2"
  top: "conv2_2"
}
layer {
  name: "pool2"
  type: "Pooling"
  bottom: "conv2_2"
  top: "pool2"
  pooling_param {
    pool: MAX
    kernel_size: 2
    stride: 2
  }
}
layer {
  name: "conv3_1"
  type: "Convolution"
  bottom: "pool2"
  top: "conv3_1"
  param {
    lr_mult: 1
    decay_mult: 1
  }
  param {
    lr_mult: 2
    decay_mult: 0
  }
  convolution_param {
    num_output: 256
    pad: 1
    kernel_size: 3
  }
}
layer {
  name: "relu3_1"
  type: "ReLU"
  bottom: "conv3_1"
  top: "conv3_1"
}
layer {
  name: "conv3_2"
  type: "Convolution"
  bottom: "conv3_1"
  top: "conv3_2"
  param {
    lr_mult: 1
    decay_mult: 1
  }
  param {
    lr_mult: 2
    decay_mult: 0
  }
  convolution_param {
    num_output: 256
    pad: 1
    kernel_size: 3
  }
}
layer {
  name: "relu3_2"
  type: "ReLU"
  bottom: "conv3_2"
  top: "conv3_2"
}
layer {
  name: "conv3_3"
  type: "Convolution"
  bottom: "conv3_2"
  top: "conv3_3"
  param {
    lr_mult: 1
    decay_mult: 1
  }
  param {
    lr_mult: 2
    decay_mult: 0
  }
  convolution_param {
    num_output: 256
    pad: 1
    kernel_size: 3
  }
}
layer {
  name: "relu3_3"
  type: "ReLU"
  bottom: "conv3_3"
  top: "conv3_3"
}
layer {
  name: "pool3"
  type: "Pooling"
  bottom: "conv3_3"
  top: "pool3"
  pooling_param {
    pool: MAX
    kernel_size: 2
    stride: 2
  }
}
layer {
  name: "conv4_1"
  type: "Convolution"
  bottom: "pool3"
  top: "conv4_1"
  param {
    lr_mult: 1
    decay_mult: 1
  }
  param {
    lr_mult: 2
    decay_mult: 0
  }
  convolution_param {
    num_output: 512
    pad: 1
    kernel_size: 3
  }
}
layer {
  name: "relu4_1"
  type: "ReLU"
  bottom: "conv4_1"
  top: "conv4_1"
}
layer {
  name: "conv4_2"
  type: "Convolution"
  bottom: "conv4_1"
  top: "conv4_2"
  param {
    lr_mult: 1
    decay_mult: 1
  }
  param {
    lr_mult: 2
    decay_mult: 0
  }
  convolution_param {
    num_output: 512
    pad: 1
    kernel_size: 3
  }
}
layer {
  name: "relu4_2"
  type: "ReLU"
  bottom: "conv4_2"
  top: "conv4_2"
}
layer {
  name: "conv4_3"
  type: "Convolution"
  bottom: "conv4_2"
  top: "conv4_3"
  param {
    lr_mult: 1
    decay_mult: 1
  }
  param {
    lr_mult: 2
    decay_mult: 0
  }
  convolution_param {
    num_output: 512
    pad: 1
    kernel_size: 3
  }
}
layer {
  name: "relu4_3"
  type: "ReLU"
  bottom: "conv4_3"
  top: "conv4_3"
}
layer {
  name: "pool4"
  type: "Pooling"
  bottom: "conv4_3"
  top: "pool4"
  pooling_param {
    pool: MAX
    kernel_size: 2
    stride: 2
  }
}
layer {
  name: "conv5_1"
  type: "Convolution"
  bottom: "pool4"
  top: "conv5_1"
  param {
    lr_mult: 1
    decay_mult: 1
  }
  param {
    lr_mult: 2
    decay_mult: 0
  }
  convolution_param {
    num_output: 512
    pad: 1
    kernel_size: 3
  }
}
layer {
  name: "relu5_1"
  type: "ReLU"
  bottom: "conv5_1"
  top: "conv5_1"
}
layer {
  name: "conv5_2"
  type: "Convolution"
  bottom: "conv5_1"
  top: "conv5_2"
  param {
    lr_mult: 1
    decay_mult: 1
  }
  param {
    lr_mult: 2
    decay_mult: 0
  }
  convolution_param {
    num_output: 512
    pad: 1
    kernel_size: 3
  }
}
layer {
  name: "relu5_2"
  type: "ReLU"
  bottom: "conv5_2"
  top: "conv5_2"
}
layer {
  name: "conv5_3"
  type: "Convolution"
  bottom: "conv5_2"
  top: "conv5_3"
  param {
    lr_mult: 1
    decay_mult: 1
  }
  param {
    lr_mult: 2
    decay_mult: 0
  }
  convolution_param {
    num_output: 512
    pad: 1
    kernel_size: 3
  }
}
layer {
  name: "relu5_3"
  type: "ReLU"
  bottom: "conv5_3"
  top: "conv5_3"
}
layer {
  name: "pool5"
  type: "Pooling"
  bottom: "conv5_3"
  top: "pool5"
  pooling_param {
    pool: MAX
    kernel_size: 2
    stride: 2
  }
}
layer {
  name: "fc6"
  type: "InnerProduct"
  bottom: "pool5"
  top: "fc6"
  param {
    lr_mult: 1
    decay_mult: 1
  }
  param {
    lr_mult: 2
    decay_mult: 0
  }
  inner_product_param {
    num_output: 4096
  }
}
layer {
  name: "relu6"
  type: "ReLU"
  bottom: "fc6"
  top: "fc6"
}
layer {
  name: "drop6"
  type: "Dropout"
  bottom: "fc6"
  top: "fc6"
  dropout_param {
    dropout_ratio: 0.9
  }
}
layer {
  name: "fc7"
  type: "InnerProduct"
  bottom: "fc6"
  top: "fc7"
  param {
    lr_mult: 1
    decay_mult: 1
  }
  param {
    lr_mult: 2
    decay_mult: 0
  }
  inner_product_param {
    num_output: 4096
  }
}
layer {
  name: "relu7"
  type: "ReLU"
  bottom: "fc7"
  top: "fc7"
}
layer {
  name: "drop7"
  type: "Dropout"
  bottom: "fc7"
  top: "fc7"
  dropout_param {
    dropout_ratio: 0.9
  }
}
layer {
  name: "fc8-1"
  type: "InnerProduct"
  bottom: "fc7"
  top: "fc8-1"
  param {
    lr_mult: 1
    decay_mult: 1
  }
  param {
    lr_mult: 2
    decay_mult: 0
  }
  inner_product_param {
    num_output: 101
    weight_filler {
      type: "gaussian"
      std: 0.001
    }
    bias_filler {
      type: "constant"
      value: 0
    }
  }
}
layer {
  name: "loss"
  type: "SoftmaxWithLoss"
  bottom: "fc8-1"
  bottom: "label_local"
  top: "loss"
  include {
    phase: TEST
  }
}
layer {
  name: "accuracy"
  type: "Accuracy"
  bottom: "fc8-1"
  bottom: "label_local"
  top: "accuracy"
  include {
    phase: TEST
  }
}
I0811 23:32:48.838311  9014 layer_factory.hpp:75] Creating layer data
I0811 23:32:48.838330  9014 net.cpp:99] Creating Layer data
I0811 23:32:48.838336  9014 net.cpp:409] data -> data
I0811 23:32:48.838346  9014 net.cpp:409] data -> label_local
I0811 23:32:48.838353  9014 net.cpp:131] Setting up data
I0811 23:32:48.838358  9014 video_data_layer.cpp:34] Opening file: /home/jiri/Lake/HAR/datasets/UCF-101/val-2-rnd.txt
I0811 23:32:48.840157  9014 video_data_layer.cpp:50] A total of 3783 videos.
I0811 23:32:48.842420  9014 video_data_layer.cpp:85] output data size: 10,3,224,224
I0811 23:32:48.850771  9014 net.cpp:140] Top shape: 10 3 224 224 (1505280)
I0811 23:32:48.850800  9014 net.cpp:140] Top shape: 10 1 1 1 (10)
I0811 23:32:48.850810  9014 layer_factory.hpp:75] Creating layer label_local_data_1_split
I0811 23:32:48.850832  9014 net.cpp:99] Creating Layer label_local_data_1_split
I0811 23:32:48.850839  9014 net.cpp:453] label_local_data_1_split <- label_local
I0811 23:32:48.850847  9014 net.cpp:409] label_local_data_1_split -> label_local_data_1_split_0
I0811 23:32:48.850858  9014 net.cpp:409] label_local_data_1_split -> label_local_data_1_split_1
I0811 23:32:48.850865  9014 net.cpp:131] Setting up label_local_data_1_split
I0811 23:32:48.850874  9014 net.cpp:140] Top shape: 10 1 1 1 (10)
I0811 23:32:48.850879  9014 net.cpp:140] Top shape: 10 1 1 1 (10)
I0811 23:32:48.850883  9014 layer_factory.hpp:75] Creating layer conv1_1
I0811 23:32:48.850893  9014 net.cpp:99] Creating Layer conv1_1
I0811 23:32:48.850898  9014 net.cpp:453] conv1_1 <- data
I0811 23:32:48.850904  9014 net.cpp:409] conv1_1 -> conv1_1
I0811 23:32:48.850913  9014 net.cpp:131] Setting up conv1_1
I0811 23:32:48.851362  9014 net.cpp:140] Top shape: 10 64 224 224 (32112640)
I0811 23:32:48.851382  9014 layer_factory.hpp:75] Creating layer relu1_1
I0811 23:32:48.851390  9014 net.cpp:99] Creating Layer relu1_1
I0811 23:32:48.851418  9014 net.cpp:453] relu1_1 <- conv1_1
I0811 23:32:48.851426  9014 net.cpp:396] relu1_1 -> conv1_1 (in-place)
I0811 23:32:48.851434  9014 net.cpp:131] Setting up relu1_1
I0811 23:32:48.851490  9014 net.cpp:140] Top shape: 10 64 224 224 (32112640)
I0811 23:32:48.851497  9014 layer_factory.hpp:75] Creating layer conv1_2
I0811 23:32:48.851506  9014 net.cpp:99] Creating Layer conv1_2
I0811 23:32:48.851511  9014 net.cpp:453] conv1_2 <- conv1_1
I0811 23:32:48.851517  9014 net.cpp:409] conv1_2 -> conv1_2
I0811 23:32:48.851524  9014 net.cpp:131] Setting up conv1_2
I0811 23:32:48.852288  9014 net.cpp:140] Top shape: 10 64 224 224 (32112640)
I0811 23:32:48.852305  9014 layer_factory.hpp:75] Creating layer relu1_2
I0811 23:32:48.852313  9014 net.cpp:99] Creating Layer relu1_2
I0811 23:32:48.852319  9014 net.cpp:453] relu1_2 <- conv1_2
I0811 23:32:48.852325  9014 net.cpp:396] relu1_2 -> conv1_2 (in-place)
I0811 23:32:48.852332  9014 net.cpp:131] Setting up relu1_2
I0811 23:32:48.853032  9014 net.cpp:140] Top shape: 10 64 224 224 (32112640)
I0811 23:32:48.853063  9014 layer_factory.hpp:75] Creating layer pool1
I0811 23:32:48.853082  9014 net.cpp:99] Creating Layer pool1
I0811 23:32:48.853091  9014 net.cpp:453] pool1 <- conv1_2
I0811 23:32:48.853103  9014 net.cpp:409] pool1 -> pool1
I0811 23:32:48.853118  9014 net.cpp:131] Setting up pool1
I0811 23:32:48.853509  9014 net.cpp:140] Top shape: 10 64 112 112 (8028160)
I0811 23:32:48.853528  9014 layer_factory.hpp:75] Creating layer conv2_1
I0811 23:32:48.853541  9014 net.cpp:99] Creating Layer conv2_1
I0811 23:32:48.853549  9014 net.cpp:453] conv2_1 <- pool1
I0811 23:32:48.853562  9014 net.cpp:409] conv2_1 -> conv2_1
I0811 23:32:48.853577  9014 net.cpp:131] Setting up conv2_1
I0811 23:32:48.855245  9014 net.cpp:140] Top shape: 10 128 112 112 (16056320)
I0811 23:32:48.855278  9014 layer_factory.hpp:75] Creating layer relu2_1
I0811 23:32:48.855295  9014 net.cpp:99] Creating Layer relu2_1
I0811 23:32:48.855304  9014 net.cpp:453] relu2_1 <- conv2_1
I0811 23:32:48.855316  9014 net.cpp:396] relu2_1 -> conv2_1 (in-place)
I0811 23:32:48.855329  9014 net.cpp:131] Setting up relu2_1
I0811 23:32:48.855464  9014 net.cpp:140] Top shape: 10 128 112 112 (16056320)
I0811 23:32:48.855481  9014 layer_factory.hpp:75] Creating layer conv2_2
I0811 23:32:48.855502  9014 net.cpp:99] Creating Layer conv2_2
I0811 23:32:48.855515  9014 net.cpp:453] conv2_2 <- conv2_1
I0811 23:32:48.855528  9014 net.cpp:409] conv2_2 -> conv2_2
I0811 23:32:48.855545  9014 net.cpp:131] Setting up conv2_2
I0811 23:32:48.856402  9014 net.cpp:140] Top shape: 10 128 112 112 (16056320)
I0811 23:32:48.856427  9014 layer_factory.hpp:75] Creating layer relu2_2
I0811 23:32:48.856441  9014 net.cpp:99] Creating Layer relu2_2
I0811 23:32:48.856449  9014 net.cpp:453] relu2_2 <- conv2_2
I0811 23:32:48.856462  9014 net.cpp:396] relu2_2 -> conv2_2 (in-place)
I0811 23:32:48.856474  9014 net.cpp:131] Setting up relu2_2
I0811 23:32:48.856600  9014 net.cpp:140] Top shape: 10 128 112 112 (16056320)
I0811 23:32:48.856609  9014 layer_factory.hpp:75] Creating layer pool2
I0811 23:32:48.856622  9014 net.cpp:99] Creating Layer pool2
I0811 23:32:48.856629  9014 net.cpp:453] pool2 <- conv2_2
I0811 23:32:48.856640  9014 net.cpp:409] pool2 -> pool2
I0811 23:32:48.856652  9014 net.cpp:131] Setting up pool2
I0811 23:32:48.856777  9014 net.cpp:140] Top shape: 10 128 56 56 (4014080)
I0811 23:32:48.856787  9014 layer_factory.hpp:75] Creating layer conv3_1
I0811 23:32:48.856799  9014 net.cpp:99] Creating Layer conv3_1
I0811 23:32:48.856807  9014 net.cpp:453] conv3_1 <- pool2
I0811 23:32:48.856818  9014 net.cpp:409] conv3_1 -> conv3_1
I0811 23:32:48.856832  9014 net.cpp:131] Setting up conv3_1
I0811 23:32:48.858695  9014 net.cpp:140] Top shape: 10 256 56 56 (8028160)
I0811 23:32:48.858727  9014 layer_factory.hpp:75] Creating layer relu3_1
I0811 23:32:48.858742  9014 net.cpp:99] Creating Layer relu3_1
I0811 23:32:48.858750  9014 net.cpp:453] relu3_1 <- conv3_1
I0811 23:32:48.858763  9014 net.cpp:396] relu3_1 -> conv3_1 (in-place)
I0811 23:32:48.858775  9014 net.cpp:131] Setting up relu3_1
I0811 23:32:48.859179  9014 net.cpp:140] Top shape: 10 256 56 56 (8028160)
I0811 23:32:48.859210  9014 layer_factory.hpp:75] Creating layer conv3_2
I0811 23:32:48.859231  9014 net.cpp:99] Creating Layer conv3_2
I0811 23:32:48.859246  9014 net.cpp:453] conv3_2 <- conv3_1
I0811 23:32:48.859263  9014 net.cpp:409] conv3_2 -> conv3_2
I0811 23:32:48.859284  9014 net.cpp:131] Setting up conv3_2
I0811 23:32:48.862107  9014 net.cpp:140] Top shape: 10 256 56 56 (8028160)
I0811 23:32:48.862151  9014 layer_factory.hpp:75] Creating layer relu3_2
I0811 23:32:48.862171  9014 net.cpp:99] Creating Layer relu3_2
I0811 23:32:48.862186  9014 net.cpp:453] relu3_2 <- conv3_2
I0811 23:32:48.862205  9014 net.cpp:396] relu3_2 -> conv3_2 (in-place)
I0811 23:32:48.862223  9014 net.cpp:131] Setting up relu3_2
I0811 23:32:48.862361  9014 net.cpp:140] Top shape: 10 256 56 56 (8028160)
I0811 23:32:48.862380  9014 layer_factory.hpp:75] Creating layer conv3_3
I0811 23:32:48.862403  9014 net.cpp:99] Creating Layer conv3_3
I0811 23:32:48.862416  9014 net.cpp:453] conv3_3 <- conv3_2
I0811 23:32:48.862435  9014 net.cpp:409] conv3_3 -> conv3_3
I0811 23:32:48.862455  9014 net.cpp:131] Setting up conv3_3
I0811 23:32:48.865258  9014 net.cpp:140] Top shape: 10 256 56 56 (8028160)
I0811 23:32:48.865303  9014 layer_factory.hpp:75] Creating layer relu3_3
I0811 23:32:48.865324  9014 net.cpp:99] Creating Layer relu3_3
I0811 23:32:48.865339  9014 net.cpp:453] relu3_3 <- conv3_3
I0811 23:32:48.865356  9014 net.cpp:396] relu3_3 -> conv3_3 (in-place)
I0811 23:32:48.865375  9014 net.cpp:131] Setting up relu3_3
I0811 23:32:48.865512  9014 net.cpp:140] Top shape: 10 256 56 56 (8028160)
I0811 23:32:48.865530  9014 layer_factory.hpp:75] Creating layer pool3
I0811 23:32:48.865550  9014 net.cpp:99] Creating Layer pool3
I0811 23:32:48.865562  9014 net.cpp:453] pool3 <- conv3_3
I0811 23:32:48.865579  9014 net.cpp:409] pool3 -> pool3
I0811 23:32:48.865598  9014 net.cpp:131] Setting up pool3
I0811 23:32:48.865757  9014 net.cpp:140] Top shape: 10 256 28 28 (2007040)
I0811 23:32:48.865780  9014 layer_factory.hpp:75] Creating layer conv4_1
I0811 23:32:48.865800  9014 net.cpp:99] Creating Layer conv4_1
I0811 23:32:48.865813  9014 net.cpp:453] conv4_1 <- pool3
I0811 23:32:48.865831  9014 net.cpp:409] conv4_1 -> conv4_1
I0811 23:32:48.865852  9014 net.cpp:131] Setting up conv4_1
I0811 23:32:48.870414  9014 net.cpp:140] Top shape: 10 512 28 28 (4014080)
I0811 23:32:48.870462  9014 layer_factory.hpp:75] Creating layer relu4_1
I0811 23:32:48.870483  9014 net.cpp:99] Creating Layer relu4_1
I0811 23:32:48.870498  9014 net.cpp:453] relu4_1 <- conv4_1
I0811 23:32:48.870517  9014 net.cpp:396] relu4_1 -> conv4_1 (in-place)
I0811 23:32:48.870539  9014 net.cpp:131] Setting up relu4_1
I0811 23:32:48.870918  9014 net.cpp:140] Top shape: 10 512 28 28 (4014080)
I0811 23:32:48.870949  9014 layer_factory.hpp:75] Creating layer conv4_2
I0811 23:32:48.870970  9014 net.cpp:99] Creating Layer conv4_2
I0811 23:32:48.870982  9014 net.cpp:453] conv4_2 <- conv4_1
I0811 23:32:48.871001  9014 net.cpp:409] conv4_2 -> conv4_2
I0811 23:32:48.871021  9014 net.cpp:131] Setting up conv4_2
I0811 23:32:48.879508  9014 net.cpp:140] Top shape: 10 512 28 28 (4014080)
I0811 23:32:48.879565  9014 layer_factory.hpp:75] Creating layer relu4_2
I0811 23:32:48.879586  9014 net.cpp:99] Creating Layer relu4_2
I0811 23:32:48.879601  9014 net.cpp:453] relu4_2 <- conv4_2
I0811 23:32:48.879619  9014 net.cpp:396] relu4_2 -> conv4_2 (in-place)
I0811 23:32:48.879637  9014 net.cpp:131] Setting up relu4_2
I0811 23:32:48.879770  9014 net.cpp:140] Top shape: 10 512 28 28 (4014080)
I0811 23:32:48.879786  9014 layer_factory.hpp:75] Creating layer conv4_3
I0811 23:32:48.879806  9014 net.cpp:99] Creating Layer conv4_3
I0811 23:32:48.879822  9014 net.cpp:453] conv4_3 <- conv4_2
I0811 23:32:48.879848  9014 net.cpp:409] conv4_3 -> conv4_3
I0811 23:32:48.879886  9014 net.cpp:131] Setting up conv4_3
I0811 23:32:48.888720  9014 net.cpp:140] Top shape: 10 512 28 28 (4014080)
I0811 23:32:48.888772  9014 layer_factory.hpp:75] Creating layer relu4_3
I0811 23:32:48.888825  9014 net.cpp:99] Creating Layer relu4_3
I0811 23:32:48.888841  9014 net.cpp:453] relu4_3 <- conv4_3
I0811 23:32:48.888859  9014 net.cpp:396] relu4_3 -> conv4_3 (in-place)
I0811 23:32:48.888880  9014 net.cpp:131] Setting up relu4_3
I0811 23:32:48.889003  9014 net.cpp:140] Top shape: 10 512 28 28 (4014080)
I0811 23:32:48.889020  9014 layer_factory.hpp:75] Creating layer pool4
I0811 23:32:48.889039  9014 net.cpp:99] Creating Layer pool4
I0811 23:32:48.889050  9014 net.cpp:453] pool4 <- conv4_3
I0811 23:32:48.889065  9014 net.cpp:409] pool4 -> pool4
I0811 23:32:48.889082  9014 net.cpp:131] Setting up pool4
I0811 23:32:48.889394  9014 net.cpp:140] Top shape: 10 512 14 14 (1003520)
I0811 23:32:48.889420  9014 layer_factory.hpp:75] Creating layer conv5_1
I0811 23:32:48.889437  9014 net.cpp:99] Creating Layer conv5_1
I0811 23:32:48.889451  9014 net.cpp:453] conv5_1 <- pool4
I0811 23:32:48.889467  9014 net.cpp:409] conv5_1 -> conv5_1
I0811 23:32:48.889485  9014 net.cpp:131] Setting up conv5_1
I0811 23:32:48.897390  9014 net.cpp:140] Top shape: 10 512 14 14 (1003520)
I0811 23:32:48.897441  9014 layer_factory.hpp:75] Creating layer relu5_1
I0811 23:32:48.897461  9014 net.cpp:99] Creating Layer relu5_1
I0811 23:32:48.897475  9014 net.cpp:453] relu5_1 <- conv5_1
I0811 23:32:48.897492  9014 net.cpp:396] relu5_1 -> conv5_1 (in-place)
I0811 23:32:48.897510  9014 net.cpp:131] Setting up relu5_1
I0811 23:32:48.897624  9014 net.cpp:140] Top shape: 10 512 14 14 (1003520)
I0811 23:32:48.897639  9014 layer_factory.hpp:75] Creating layer conv5_2
I0811 23:32:48.897656  9014 net.cpp:99] Creating Layer conv5_2
I0811 23:32:48.897666  9014 net.cpp:453] conv5_2 <- conv5_1
I0811 23:32:48.897681  9014 net.cpp:409] conv5_2 -> conv5_2
I0811 23:32:48.897698  9014 net.cpp:131] Setting up conv5_2
I0811 23:32:48.905372  9014 net.cpp:140] Top shape: 10 512 14 14 (1003520)
I0811 23:32:48.905422  9014 layer_factory.hpp:75] Creating layer relu5_2
I0811 23:32:48.905442  9014 net.cpp:99] Creating Layer relu5_2
I0811 23:32:48.905457  9014 net.cpp:453] relu5_2 <- conv5_2
I0811 23:32:48.905472  9014 net.cpp:396] relu5_2 -> conv5_2 (in-place)
I0811 23:32:48.905489  9014 net.cpp:131] Setting up relu5_2
I0811 23:32:48.905602  9014 net.cpp:140] Top shape: 10 512 14 14 (1003520)
I0811 23:32:48.905617  9014 layer_factory.hpp:75] Creating layer conv5_3
I0811 23:32:48.905634  9014 net.cpp:99] Creating Layer conv5_3
I0811 23:32:48.905645  9014 net.cpp:453] conv5_3 <- conv5_2
I0811 23:32:48.905660  9014 net.cpp:409] conv5_3 -> conv5_3
I0811 23:32:48.905676  9014 net.cpp:131] Setting up conv5_3
I0811 23:32:48.914093  9014 net.cpp:140] Top shape: 10 512 14 14 (1003520)
I0811 23:32:48.914142  9014 layer_factory.hpp:75] Creating layer relu5_3
I0811 23:32:48.914161  9014 net.cpp:99] Creating Layer relu5_3
I0811 23:32:48.914175  9014 net.cpp:453] relu5_3 <- conv5_3
I0811 23:32:48.914191  9014 net.cpp:396] relu5_3 -> conv5_3 (in-place)
I0811 23:32:48.914206  9014 net.cpp:131] Setting up relu5_3
I0811 23:32:48.914324  9014 net.cpp:140] Top shape: 10 512 14 14 (1003520)
I0811 23:32:48.914340  9014 layer_factory.hpp:75] Creating layer pool5
I0811 23:32:48.914362  9014 net.cpp:99] Creating Layer pool5
I0811 23:32:48.914372  9014 net.cpp:453] pool5 <- conv5_3
I0811 23:32:48.914387  9014 net.cpp:409] pool5 -> pool5
I0811 23:32:48.914402  9014 net.cpp:131] Setting up pool5
I0811 23:32:48.914716  9014 net.cpp:140] Top shape: 10 512 7 7 (250880)
I0811 23:32:48.914739  9014 layer_factory.hpp:75] Creating layer fc6
I0811 23:32:48.914758  9014 net.cpp:99] Creating Layer fc6
I0811 23:32:48.914770  9014 net.cpp:453] fc6 <- pool5
I0811 23:32:48.914784  9014 net.cpp:409] fc6 -> fc6
I0811 23:32:48.914803  9014 net.cpp:131] Setting up fc6
I0811 23:32:49.162434  9014 net.cpp:140] Top shape: 10 4096 (40960)
I0811 23:32:49.162474  9014 layer_factory.hpp:75] Creating layer relu6
I0811 23:32:49.162489  9014 net.cpp:99] Creating Layer relu6
I0811 23:32:49.162497  9014 net.cpp:453] relu6 <- fc6
I0811 23:32:49.162504  9014 net.cpp:396] relu6 -> fc6 (in-place)
I0811 23:32:49.162549  9014 net.cpp:131] Setting up relu6
I0811 23:32:49.162637  9014 net.cpp:140] Top shape: 10 4096 (40960)
I0811 23:32:49.162652  9014 layer_factory.hpp:75] Creating layer drop6
I0811 23:32:49.162667  9014 net.cpp:99] Creating Layer drop6
I0811 23:32:49.162677  9014 net.cpp:453] drop6 <- fc6
I0811 23:32:49.162685  9014 net.cpp:396] drop6 -> fc6 (in-place)
I0811 23:32:49.162696  9014 net.cpp:131] Setting up drop6
I0811 23:32:49.162709  9014 net.cpp:140] Top shape: 10 4096 (40960)
I0811 23:32:49.162716  9014 layer_factory.hpp:75] Creating layer fc7
I0811 23:32:49.162726  9014 net.cpp:99] Creating Layer fc7
I0811 23:32:49.162732  9014 net.cpp:453] fc7 <- fc6
I0811 23:32:49.162739  9014 net.cpp:409] fc7 -> fc7
I0811 23:32:49.162747  9014 net.cpp:131] Setting up fc7
I0811 23:32:49.199303  9014 net.cpp:140] Top shape: 10 4096 (40960)
I0811 23:32:49.199352  9014 layer_factory.hpp:75] Creating layer relu7
I0811 23:32:49.199368  9014 net.cpp:99] Creating Layer relu7
I0811 23:32:49.199378  9014 net.cpp:453] relu7 <- fc7
I0811 23:32:49.199388  9014 net.cpp:396] relu7 -> fc7 (in-place)
I0811 23:32:49.199399  9014 net.cpp:131] Setting up relu7
I0811 23:32:49.199509  9014 net.cpp:140] Top shape: 10 4096 (40960)
I0811 23:32:49.199523  9014 layer_factory.hpp:75] Creating layer drop7
I0811 23:32:49.199537  9014 net.cpp:99] Creating Layer drop7
I0811 23:32:49.199544  9014 net.cpp:453] drop7 <- fc7
I0811 23:32:49.199553  9014 net.cpp:396] drop7 -> fc7 (in-place)
I0811 23:32:49.199564  9014 net.cpp:131] Setting up drop7
I0811 23:32:49.199574  9014 net.cpp:140] Top shape: 10 4096 (40960)
I0811 23:32:49.199581  9014 layer_factory.hpp:75] Creating layer fc8-1
I0811 23:32:49.199594  9014 net.cpp:99] Creating Layer fc8-1
I0811 23:32:49.199600  9014 net.cpp:453] fc8-1 <- fc7
I0811 23:32:49.199609  9014 net.cpp:409] fc8-1 -> fc8-1
I0811 23:32:49.199625  9014 net.cpp:131] Setting up fc8-1
I0811 23:32:49.212918  9014 net.cpp:140] Top shape: 10 101 (1010)
I0811 23:32:49.212941  9014 layer_factory.hpp:75] Creating layer fc8-1_fc8-1_0_split
I0811 23:32:49.212955  9014 net.cpp:99] Creating Layer fc8-1_fc8-1_0_split
I0811 23:32:49.212966  9014 net.cpp:453] fc8-1_fc8-1_0_split <- fc8-1
I0811 23:32:49.212975  9014 net.cpp:409] fc8-1_fc8-1_0_split -> fc8-1_fc8-1_0_split_0
I0811 23:32:49.212990  9014 net.cpp:409] fc8-1_fc8-1_0_split -> fc8-1_fc8-1_0_split_1
I0811 23:32:49.213001  9014 net.cpp:131] Setting up fc8-1_fc8-1_0_split
I0811 23:32:49.213011  9014 net.cpp:140] Top shape: 10 101 (1010)
I0811 23:32:49.213018  9014 net.cpp:140] Top shape: 10 101 (1010)
I0811 23:32:49.213026  9014 layer_factory.hpp:75] Creating layer loss
I0811 23:32:49.213035  9014 net.cpp:99] Creating Layer loss
I0811 23:32:49.213042  9014 net.cpp:453] loss <- fc8-1_fc8-1_0_split_0
I0811 23:32:49.213053  9014 net.cpp:453] loss <- label_local_data_1_split_0
I0811 23:32:49.213063  9014 net.cpp:409] loss -> loss
I0811 23:32:49.213074  9014 net.cpp:131] Setting up loss
…
