…
    mean_value: 128
    mean_value: 128
    mean_value: 128
    mean_value: 128
    mean_value: 128
    mean_value: 128
    mean_value: 128
    mean_value: 128
    mean_value: 128
    mean_value: 128
    mean_value: 128
    mean_value: 128
    fix_crop: true
    multi_scale: true
    scale_ratios: 1
    scale_ratios: 0.875
    scale_ratios: 0.75
    max_distort: 1
    is_flow: true
  }
  video_data_param {
    source: "/home/jiri/Lake/HAR/datasets/UCF-101/train-2-rnd.txt"
    batch_size: 64
    new_length: 10
    num_segments: 1
    modality: FLOW
  }
}
layer {
  name: "conv1_1"
  type: "Convolution"
  bottom: "data"
  top: "conv1_1"
  param {
    lr_mult: 1
    decay_mult: 1
  }
  param {
    lr_mult: 2
    decay_mult: 0
  }
  convolution_param {
    num_output: 64
    pad: 1
    kernel_size: 3
  }
}
layer {
  name: "relu1_1"
  type: "ReLU"
  bottom: "conv1_1"
  top: "conv1_1"
}
layer {
  name: "conv1_2"
  type: "Convolution"
  bottom: "conv1_1"
  top: "conv1_2"
  param {
    lr_mult: 1
    decay_mult: 1
  }
  param {
    lr_mult: 2
    decay_mult: 0
  }
  convolution_param {
    num_output: 64
    pad: 1
    kernel_size: 3
  }
}
layer {
  name: "relu1_2"
  type: "ReLU"
  bottom: "conv1_2"
  top: "conv1_2"
}
layer {
  name: "pool1"
  type: "Pooling"
  bottom: "conv1_2"
  top: "pool1"
  pooling_param {
    pool: MAX
    kernel_size: 2
    stride: 2
  }
}
layer {
  name: "conv2_1"
  type: "Convolution"
  bottom: "pool1"
  top: "conv2_1"
  param {
    lr_mult: 1
    decay_mult: 1
  }
  param {
    lr_mult: 2
    decay_mult: 0
  }
  convolution_param {
    num_output: 128
    pad: 1
    kernel_size: 3
  }
}
layer {
  name: "relu2_1"
  type: "ReLU"
  bottom: "conv2_1"
  top: "conv2_1"
}
layer {
  name: "conv2_2"
  type: "Convolution"
  bottom: "conv2_1"
  top: "conv2_2"
  param {
    lr_mult: 1
    decay_mult: 1
  }
  param {
    lr_mult: 2
    decay_mult: 0
  }
  convolution_param {
    num_output: 128
    pad: 1
    kernel_size: 3
  }
}
layer {
  name: "relu2_2"
  type: "ReLU"
  bottom: "conv2_2"
  top: "conv2_2"
}
layer {
  name: "pool2"
  type: "Pooling"
  bottom: "conv2_2"
  top: "pool2"
  pooling_param {
    pool: MAX
    kernel_size: 2
    stride: 2
  }
}
layer {
  name: "conv3_1"
  type: "Convolution"
  bottom: "pool2"
  top: "conv3_1"
  param {
    lr_mult: 1
    decay_mult: 1
  }
  param {
    lr_mult: 2
    decay_mult: 0
  }
  convolution_param {
    num_output: 256
    pad: 1
    kernel_size: 3
  }
}
layer {
  name: "relu3_1"
  type: "ReLU"
  bottom: "conv3_1"
  top: "conv3_1"
}
layer {
  name: "conv3_2"
  type: "Convolution"
  bottom: "conv3_1"
  top: "conv3_2"
  param {
    lr_mult: 1
    decay_mult: 1
  }
  param {
    lr_mult: 2
    decay_mult: 0
  }
  convolution_param {
    num_output: 256
    pad: 1
    kernel_size: 3
  }
}
layer {
  name: "relu3_2"
  type: "ReLU"
  bottom: "conv3_2"
  top: "conv3_2"
}
layer {
  name: "conv3_3"
  type: "Convolution"
  bottom: "conv3_2"
  top: "conv3_3"
  param {
    lr_mult: 1
    decay_mult: 1
  }
  param {
    lr_mult: 2
    decay_mult: 0
  }
  convolution_param {
    num_output: 256
    pad: 1
    kernel_size: 3
  }
}
layer {
  name: "relu3_3"
  type: "ReLU"
  bottom: "conv3_3"
  top: "conv3_3"
}
layer {
  name: "pool3"
  type: "Pooling"
  bottom: "conv3_3"
  top: "pool3"
  pooling_param {
    pool: MAX
    kernel_size: 2
    stride: 2
  }
}
layer {
  name: "conv4_1"
  type: "Convolution"
  bottom: "pool3"
  top: "conv4_1"
  param {
    lr_mult: 1
    decay_mult: 1
  }
  param {
    lr_mult: 2
    decay_mult: 0
  }
  convolution_param {
    num_output: 512
    pad: 1
    kernel_size: 3
  }
}
layer {
  name: "relu4_1"
  type: "ReLU"
  bottom: "conv4_1"
  top: "conv4_1"
}
layer {
  name: "conv4_2"
  type: "Convolution"
  bottom: "conv4_1"
  top: "conv4_2"
  param {
    lr_mult: 1
    decay_mult: 1
  }
  param {
    lr_mult: 2
    decay_mult: 0
  }
  convolution_param {
    num_output: 512
    pad: 1
    kernel_size: 3
  }
}
layer {
  name: "relu4_2"
  type: "ReLU"
  bottom: "conv4_2"
  top: "conv4_2"
}
layer {
  name: "conv4_3"
  type: "Convolution"
  bottom: "conv4_2"
  top: "conv4_3"
  param {
    lr_mult: 1
    decay_mult: 1
  }
  param {
    lr_mult: 2
    decay_mult: 0
  }
  convolution_param {
    num_output: 512
    pad: 1
    kernel_size: 3
  }
}
layer {
  name: "relu4_3"
  type: "ReLU"
  bottom: "conv4_3"
  top: "conv4_3"
}
layer {
  name: "pool4"
  type: "Pooling"
  bottom: "conv4_3"
  top: "pool4"
  pooling_param {
    pool: MAX
    kernel_size: 2
    stride: 2
  }
}
layer {
  name: "conv5_1"
  type: "Convolution"
  bottom: "pool4"
  top: "conv5_1"
  param {
    lr_mult: 1
    decay_mult: 1
  }
  param {
    lr_mult: 2
    decay_mult: 0
  }
  convolution_param {
    num_output: 512
    pad: 1
    kernel_size: 3
  }
}
layer {
  name: "relu5_1"
  type: "ReLU"
  bottom: "conv5_1"
  top: "conv5_1"
}
layer {
  name: "conv5_2"
  type: "Convolution"
  bottom: "conv5_1"
  top: "conv5_2"
  param {
    lr_mult: 1
    decay_mult: 1
  }
  param {
    lr_mult: 2
    decay_mult: 0
  }
  convolution_param {
    num_output: 512
    pad: 1
    kernel_size: 3
  }
}
layer {
  name: "relu5_2"
  type: "ReLU"
  bottom: "conv5_2"
  top: "conv5_2"
}
layer {
  name: "conv5_3"
  type: "Convolution"
  bottom: "conv5_2"
  top: "conv5_3"
  param {
    lr_mult: 1
    decay_mult: 1
  }
  param {
    lr_mult: 2
    decay_mult: 0
  }
  convolution_param {
    num_output: 512
    pad: 1
    kernel_size: 3
  }
}
layer {
  name: "relu5_3"
  type: "ReLU"
  bottom: "conv5_3"
  top: "conv5_3"
}
layer {
  name: "pool5"
  type: "Pooling"
  bottom: "conv5_3"
  top: "pool5_local"
  pooling_param {
    pool: MAX
    kernel_size: 2
    stride: 2
  }
}
layer {
  name: "gather"
  type: "Gather"
  bottom: "pool5_local"
  bottom: "label_local"
  top: "pool5"
  top: "label"
}
layer {
  name: "fc6"
  type: "InnerProduct"
  bottom: "pool5"
  top: "fc6"
  param {
    lr_mult: 1
    decay_mult: 1
  }
  param {
    lr_mult: 2
    decay_mult: 0
  }
  inner_product_param {
    num_output: 4096
  }
}
layer {
  name: "relu6"
  type: "ReLU"
  bottom: "fc6"
  top: "fc6"
}
layer {
  name: "drop6"
  type: "Dropout"
  bottom: "fc6"
  top: "fc6"
  dropout_param {
    dropout_ratio: 0.9
  }
}
layer {
  name: "fc7"
  type: "InnerProduct"
  bottom: "fc6"
  top: "fc7"
  param {
    lr_mult: 1
    decay_mult: 1
  }
  param {
    lr_mult: 2
    decay_mult: 0
  }
  inner_product_param {
    num_output: 4096
  }
}
layer {
  name: "relu7"
  type: "ReLU"
  bottom: "fc7"
  top: "fc7"
}
layer {
  name: "drop7"
  type: "Dropout"
  bottom: "fc7"
  top: "fc7"
  dropout_param {
    dropout_ratio: 0.8
  }
}
layer {
  name: "fc8-1"
  type: "InnerProduct"
  bottom: "fc7"
  top: "fc8-1"
  param {
    lr_mult: 1
    decay_mult: 1
  }
  param {
    lr_mult: 2
    decay_mult: 0
  }
  inner_product_param {
    num_output: 101
    weight_filler {
      type: "gaussian"
      std: 0.001
    }
    bias_filler {
      type: "constant"
      value: 0
    }
  }
}
layer {
  name: "loss"
  type: "SoftmaxWithLoss"
  bottom: "fc8-1"
  bottom: "label"
  include {
    phase: TRAIN
  }
}
I0807 20:40:47.815912  6165 layer_factory.hpp:74] Creating layer data
I0807 20:40:47.815933  6165 net.cpp:91] Creating Layer data
I0807 20:40:47.815937  6165 net.cpp:408] data -> data
I0807 20:40:47.815958  6165 net.cpp:408] data -> label_local
I0807 20:40:47.815965  6165 net.cpp:151] Setting up data
I0807 20:40:47.816331  6165 video_data_layer.cpp:34] Opening file: /home/jiri/Lake/HAR/datasets/UCF-101/train-2-rnd.txt
I0807 20:40:47.820847  6165 video_data_layer.cpp:50] A total of 9537 videos.
I0807 20:40:47.840625  6165 video_data_layer.cpp:76] output data size: 64,20,224,224
I0807 20:40:47.883905  6165 net.cpp:158] Top shape: 64 20 224 224 (64225280)
I0807 20:40:47.883994  6165 net.cpp:158] Top shape: 64 1 1 1 (64)
I0807 20:40:47.884029  6165 layer_factory.hpp:74] Creating layer conv1_1
I0807 20:40:47.884063  6165 net.cpp:91] Creating Layer conv1_1
I0807 20:40:47.884070  6165 net.cpp:452] conv1_1 <- data
I0807 20:40:47.884083  6165 net.cpp:119] This layer is inheriting previous layer's sync mode: 1
I0807 20:40:47.884090  6165 net.cpp:408] conv1_1 -> conv1_1
I0807 20:40:47.884104  6165 net.cpp:151] Setting up conv1_1
I0807 20:40:47.968547  6165 net.cpp:158] Top shape: 64 64 224 224 (205520896)
I0807 20:40:47.968587  6165 layer_factory.hpp:74] Creating layer relu1_1
I0807 20:40:47.968602  6165 net.cpp:91] Creating Layer relu1_1
I0807 20:40:47.968608  6165 net.cpp:452] relu1_1 <- conv1_1
I0807 20:40:47.968616  6165 net.cpp:119] This layer is inheriting previous layer's sync mode: 1
I0807 20:40:47.968621  6165 net.cpp:397] relu1_1 -> conv1_1 (in-place)
I0807 20:40:47.968628  6165 net.cpp:151] Setting up relu1_1
I0807 20:40:47.968711  6165 net.cpp:158] Top shape: 64 64 224 224 (205520896)
I0807 20:40:47.968757  6165 layer_factory.hpp:74] Creating layer conv1_2
I0807 20:40:47.968787  6165 net.cpp:91] Creating Layer conv1_2
I0807 20:40:47.968811  6165 net.cpp:452] conv1_2 <- conv1_1
I0807 20:40:47.968834  6165 net.cpp:119] This layer is inheriting previous layer's sync mode: 1
I0807 20:40:47.968859  6165 net.cpp:408] conv1_2 -> conv1_2
I0807 20:40:47.968885  6165 net.cpp:151] Setting up conv1_2
I0807 20:40:47.969298  6165 net.cpp:158] Top shape: 64 64 224 224 (205520896)
I0807 20:40:47.969344  6165 layer_factory.hpp:74] Creating layer relu1_2
I0807 20:40:47.969373  6165 net.cpp:91] Creating Layer relu1_2
I0807 20:40:47.969398  6165 net.cpp:452] relu1_2 <- conv1_2
I0807 20:40:47.969421  6165 net.cpp:119] This layer is inheriting previous layer's sync mode: 1
I0807 20:40:47.969446  6165 net.cpp:397] relu1_2 -> conv1_2 (in-place)
I0807 20:40:47.969470  6165 net.cpp:151] Setting up relu1_2
I0807 20:40:47.969683  6165 net.cpp:158] Top shape: 64 64 224 224 (205520896)
I0807 20:40:47.969693  6165 layer_factory.hpp:74] Creating layer pool1
I0807 20:40:47.969705  6165 net.cpp:91] Creating Layer pool1
I0807 20:40:47.969709  6165 net.cpp:452] pool1 <- conv1_2
I0807 20:40:47.969715  6165 net.cpp:119] This layer is inheriting previous layer's sync mode: 1
I0807 20:40:47.969720  6165 net.cpp:408] pool1 -> pool1
I0807 20:40:47.969728  6165 net.cpp:151] Setting up pool1
I0807 20:40:47.969806  6165 net.cpp:158] Top shape: 64 64 112 112 (51380224)
I0807 20:40:47.969815  6165 layer_factory.hpp:74] Creating layer conv2_1
I0807 20:40:47.969822  6165 net.cpp:91] Creating Layer conv2_1
I0807 20:40:47.969825  6165 net.cpp:452] conv2_1 <- pool1
I0807 20:40:47.969830  6165 net.cpp:119] This layer is inheriting previous layer's sync mode: 1
I0807 20:40:47.969836  6165 net.cpp:408] conv2_1 -> conv2_1
I0807 20:40:47.969842  6165 net.cpp:151] Setting up conv2_1
I0807 20:40:47.970322  6165 net.cpp:158] Top shape: 64 128 112 112 (102760448)
I0807 20:40:47.970338  6165 layer_factory.hpp:74] Creating layer relu2_1
I0807 20:40:47.970371  6165 net.cpp:91] Creating Layer relu2_1
I0807 20:40:47.970376  6165 net.cpp:452] relu2_1 <- conv2_1
I0807 20:40:47.970381  6165 net.cpp:119] This layer is inheriting previous layer's sync mode: 1
I0807 20:40:47.970386  6165 net.cpp:397] relu2_1 -> conv2_1 (in-place)
I0807 20:40:47.970392  6165 net.cpp:151] Setting up relu2_1
I0807 20:40:47.970458  6165 net.cpp:158] Top shape: 64 128 112 112 (102760448)
I0807 20:40:47.970465  6165 layer_factory.hpp:74] Creating layer conv2_2
I0807 20:40:47.970474  6165 net.cpp:91] Creating Layer conv2_2
I0807 20:40:47.970479  6165 net.cpp:452] conv2_2 <- conv2_1
I0807 20:40:47.970484  6165 net.cpp:119] This layer is inheriting previous layer's sync mode: 1
I0807 20:40:47.970489  6165 net.cpp:408] conv2_2 -> conv2_2
I0807 20:40:47.970495  6165 net.cpp:151] Setting up conv2_2
I0807 20:40:47.971112  6165 net.cpp:158] Top shape: 64 128 112 112 (102760448)
I0807 20:40:47.971127  6165 layer_factory.hpp:74] Creating layer relu2_2
I0807 20:40:47.971133  6165 net.cpp:91] Creating Layer relu2_2
I0807 20:40:47.971138  6165 net.cpp:452] relu2_2 <- conv2_2
I0807 20:40:47.971144  6165 net.cpp:119] This layer is inheriting previous layer's sync mode: 1
I0807 20:40:47.971155  6165 net.cpp:397] relu2_2 -> conv2_2 (in-place)
I0807 20:40:47.971163  6165 net.cpp:151] Setting up relu2_2
I0807 20:40:47.971246  6165 net.cpp:158] Top shape: 64 128 112 112 (102760448)
I0807 20:40:47.971287  6165 layer_factory.hpp:74] Creating layer pool2
I0807 20:40:47.971314  6165 net.cpp:91] Creating Layer pool2
I0807 20:40:47.971338  6165 net.cpp:452] pool2 <- conv2_2
I0807 20:40:47.971360  6165 net.cpp:119] This layer is inheriting previous layer's sync mode: 1
I0807 20:40:47.971369  6165 net.cpp:408] pool2 -> pool2
I0807 20:40:47.971376  6165 net.cpp:151] Setting up pool2
I0807 20:40:47.971582  6165 net.cpp:158] Top shape: 64 128 56 56 (25690112)
I0807 20:40:47.971592  6165 layer_factory.hpp:74] Creating layer conv3_1
I0807 20:40:47.971602  6165 net.cpp:91] Creating Layer conv3_1
I0807 20:40:47.971607  6165 net.cpp:452] conv3_1 <- pool2
I0807 20:40:47.971612  6165 net.cpp:119] This layer is inheriting previous layer's sync mode: 1
I0807 20:40:47.971617  6165 net.cpp:408] conv3_1 -> conv3_1
I0807 20:40:47.971626  6165 net.cpp:151] Setting up conv3_1
I0807 20:40:47.972568  6165 net.cpp:158] Top shape: 64 256 56 56 (51380224)
I0807 20:40:47.972584  6165 layer_factory.hpp:74] Creating layer relu3_1
I0807 20:40:47.972592  6165 net.cpp:91] Creating Layer relu3_1
I0807 20:40:47.972596  6165 net.cpp:452] relu3_1 <- conv3_1
I0807 20:40:47.972601  6165 net.cpp:119] This layer is inheriting previous layer's sync mode: 1
I0807 20:40:47.972606  6165 net.cpp:397] relu3_1 -> conv3_1 (in-place)
I0807 20:40:47.972611  6165 net.cpp:151] Setting up relu3_1
I0807 20:40:47.972678  6165 net.cpp:158] Top shape: 64 256 56 56 (51380224)
I0807 20:40:47.972687  6165 layer_factory.hpp:74] Creating layer conv3_2
I0807 20:40:47.972693  6165 net.cpp:91] Creating Layer conv3_2
I0807 20:40:47.972697  6165 net.cpp:452] conv3_2 <- conv3_1
I0807 20:40:47.972702  6165 net.cpp:119] This layer is inheriting previous layer's sync mode: 1
I0807 20:40:47.972707  6165 net.cpp:408] conv3_2 -> conv3_2
I0807 20:40:47.972713  6165 net.cpp:151] Setting up conv3_2
I0807 20:40:47.973600  6165 net.cpp:158] Top shape: 64 256 56 56 (51380224)
I0807 20:40:47.973615  6165 layer_factory.hpp:74] Creating layer relu3_2
I0807 20:40:47.973623  6165 net.cpp:91] Creating Layer relu3_2
I0807 20:40:47.973628  6165 net.cpp:452] relu3_2 <- conv3_2
I0807 20:40:47.973633  6165 net.cpp:119] This layer is inheriting previous layer's sync mode: 1
I0807 20:40:47.973639  6165 net.cpp:397] relu3_2 -> conv3_2 (in-place)
I0807 20:40:47.973646  6165 net.cpp:151] Setting up relu3_2
I0807 20:40:47.973716  6165 net.cpp:158] Top shape: 64 256 56 56 (51380224)
I0807 20:40:47.973722  6165 layer_factory.hpp:74] Creating layer conv3_3
I0807 20:40:47.973731  6165 net.cpp:91] Creating Layer conv3_3
I0807 20:40:47.973736  6165 net.cpp:452] conv3_3 <- conv3_2
I0807 20:40:47.973740  6165 net.cpp:119] This layer is inheriting previous layer's sync mode: 1
I0807 20:40:47.973773  6165 net.cpp:408] conv3_3 -> conv3_3
I0807 20:40:47.973783  6165 net.cpp:151] Setting up conv3_3
I0807 20:40:47.975154  6165 net.cpp:158] Top shape: 64 256 56 56 (51380224)
I0807 20:40:47.975174  6165 layer_factory.hpp:74] Creating layer relu3_3
I0807 20:40:47.975185  6165 net.cpp:91] Creating Layer relu3_3
I0807 20:40:47.975190  6165 net.cpp:452] relu3_3 <- conv3_3
I0807 20:40:47.975195  6165 net.cpp:119] This layer is inheriting previous layer's sync mode: 1
I0807 20:40:47.975203  6165 net.cpp:397] relu3_3 -> conv3_3 (in-place)
I0807 20:40:47.975224  6165 net.cpp:151] Setting up relu3_3
I0807 20:40:47.975306  6165 net.cpp:158] Top shape: 64 256 56 56 (51380224)
I0807 20:40:47.975314  6165 layer_factory.hpp:74] Creating layer pool3
I0807 20:40:47.975324  6165 net.cpp:91] Creating Layer pool3
I0807 20:40:47.975328  6165 net.cpp:452] pool3 <- conv3_3
I0807 20:40:47.975333  6165 net.cpp:119] This layer is inheriting previous layer's sync mode: 1
I0807 20:40:47.975340  6165 net.cpp:408] pool3 -> pool3
I0807 20:40:47.975347  6165 net.cpp:151] Setting up pool3
I0807 20:40:47.975554  6165 net.cpp:158] Top shape: 64 256 28 28 (12845056)
I0807 20:40:47.975564  6165 layer_factory.hpp:74] Creating layer conv4_1
I0807 20:40:47.975571  6165 net.cpp:91] Creating Layer conv4_1
I0807 20:40:47.975575  6165 net.cpp:452] conv4_1 <- pool3
I0807 20:40:47.975580  6165 net.cpp:119] This layer is inheriting previous layer's sync mode: 1
I0807 20:40:47.975586  6165 net.cpp:408] conv4_1 -> conv4_1
I0807 20:40:47.975594  6165 net.cpp:151] Setting up conv4_1
I0807 20:40:47.977506  6165 net.cpp:158] Top shape: 64 512 28 28 (25690112)
I0807 20:40:47.977530  6165 layer_factory.hpp:74] Creating layer relu4_1
I0807 20:40:47.977541  6165 net.cpp:91] Creating Layer relu4_1
I0807 20:40:47.977546  6165 net.cpp:452] relu4_1 <- conv4_1
I0807 20:40:47.977552  6165 net.cpp:119] This layer is inheriting previous layer's sync mode: 1
I0807 20:40:47.977557  6165 net.cpp:397] relu4_1 -> conv4_1 (in-place)
I0807 20:40:47.977565  6165 net.cpp:151] Setting up relu4_1
I0807 20:40:47.977638  6165 net.cpp:158] Top shape: 64 512 28 28 (25690112)
I0807 20:40:47.977644  6165 layer_factory.hpp:74] Creating layer conv4_2
I0807 20:40:47.977653  6165 net.cpp:91] Creating Layer conv4_2
I0807 20:40:47.977658  6165 net.cpp:452] conv4_2 <- conv4_1
I0807 20:40:47.977663  6165 net.cpp:119] This layer is inheriting previous layer's sync mode: 1
I0807 20:40:47.977669  6165 net.cpp:408] conv4_2 -> conv4_2
I0807 20:40:47.977676  6165 net.cpp:151] Setting up conv4_2
I0807 20:40:47.980576  6165 net.cpp:158] Top shape: 64 512 28 28 (25690112)
I0807 20:40:47.980609  6165 layer_factory.hpp:74] Creating layer relu4_2
I0807 20:40:47.980623  6165 net.cpp:91] Creating Layer relu4_2
I0807 20:40:47.980629  6165 net.cpp:452] relu4_2 <- conv4_2
I0807 20:40:47.980638  6165 net.cpp:119] This layer is inheriting previous layer's sync mode: 1
I0807 20:40:47.980643  6165 net.cpp:397] relu4_2 -> conv4_2 (in-place)
I0807 20:40:47.980651  6165 net.cpp:151] Setting up relu4_2
I0807 20:40:47.980726  6165 net.cpp:158] Top shape: 64 512 28 28 (25690112)
I0807 20:40:47.980734  6165 layer_factory.hpp:74] Creating layer conv4_3
I0807 20:40:47.980746  6165 net.cpp:91] Creating Layer conv4_3
I0807 20:40:47.980749  6165 net.cpp:452] conv4_3 <- conv4_2
I0807 20:40:47.980754  6165 net.cpp:119] This layer is inheriting previous layer's sync mode: 1
I0807 20:40:47.980762  6165 net.cpp:408] conv4_3 -> conv4_3
I0807 20:40:47.980769  6165 net.cpp:151] Setting up conv4_3
I0807 20:40:47.983772  6165 net.cpp:158] Top shape: 64 512 28 28 (25690112)
I0807 20:40:47.983798  6165 layer_factory.hpp:74] Creating layer relu4_3
I0807 20:40:47.983813  6165 net.cpp:91] Creating Layer relu4_3
I0807 20:40:47.983819  6165 net.cpp:452] relu4_3 <- conv4_3
I0807 20:40:47.983826  6165 net.cpp:119] This layer is inheriting previous layer's sync mode: 1
I0807 20:40:47.983832  6165 net.cpp:397] relu4_3 -> conv4_3 (in-place)
I0807 20:40:47.983840  6165 net.cpp:151] Setting up relu4_3
I0807 20:40:47.984074  6165 net.cpp:158] Top shape: 64 512 28 28 (25690112)
I0807 20:40:47.984086  6165 layer_factory.hpp:74] Creating layer pool4
I0807 20:40:47.984094  6165 net.cpp:91] Creating Layer pool4
I0807 20:40:47.984099  6165 net.cpp:452] pool4 <- conv4_3
I0807 20:40:47.984104  6165 net.cpp:119] This layer is inheriting previous layer's sync mode: 1
I0807 20:40:47.984112  6165 net.cpp:408] pool4 -> pool4
I0807 20:40:47.984119  6165 net.cpp:151] Setting up pool4
I0807 20:40:47.984192  6165 net.cpp:158] Top shape: 64 512 14 14 (6422528)
I0807 20:40:47.984200  6165 layer_factory.hpp:74] Creating layer conv5_1
I0807 20:40:47.984207  6165 net.cpp:91] Creating Layer conv5_1
I0807 20:40:47.984211  6165 net.cpp:452] conv5_1 <- pool4
I0807 20:40:47.984217  6165 net.cpp:119] This layer is inheriting previous layer's sync mode: 1
I0807 20:40:47.984222  6165 net.cpp:408] conv5_1 -> conv5_1
I0807 20:40:47.984235  6165 net.cpp:151] Setting up conv5_1
I0807 20:40:47.987174  6165 net.cpp:158] Top shape: 64 512 14 14 (6422528)
I0807 20:40:47.987201  6165 layer_factory.hpp:74] Creating layer relu5_1
I0807 20:40:47.987227  6165 net.cpp:91] Creating Layer relu5_1
I0807 20:40:47.987236  6165 net.cpp:452] relu5_1 <- conv5_1
I0807 20:40:47.987243  6165 net.cpp:119] This layer is inheriting previous layer's sync mode: 1
I0807 20:40:47.987248  6165 net.cpp:397] relu5_1 -> conv5_1 (in-place)
I0807 20:40:47.987257  6165 net.cpp:151] Setting up relu5_1
I0807 20:40:47.987328  6165 net.cpp:158] Top shape: 64 512 14 14 (6422528)
I0807 20:40:47.987335  6165 layer_factory.hpp:74] Creating layer conv5_2
I0807 20:40:47.987344  6165 net.cpp:91] Creating Layer conv5_2
I0807 20:40:47.987347  6165 net.cpp:452] conv5_2 <- conv5_1
I0807 20:40:47.987352  6165 net.cpp:119] This layer is inheriting previous layer's sync mode: 1
I0807 20:40:47.987360  6165 net.cpp:408] conv5_2 -> conv5_2
I0807 20:40:47.987366  6165 net.cpp:151] Setting up conv5_2
I0807 20:40:47.990799  6165 net.cpp:158] Top shape: 64 512 14 14 (6422528)
I0807 20:40:47.990828  6165 layer_factory.hpp:74] Creating layer relu5_2
I0807 20:40:47.990839  6165 net.cpp:91] Creating Layer relu5_2
I0807 20:40:47.990846  6165 net.cpp:452] relu5_2 <- conv5_2
I0807 20:40:47.990854  6165 net.cpp:119] This layer is inheriting previous layer's sync mode: 1
I0807 20:40:47.990860  6165 net.cpp:397] relu5_2 -> conv5_2 (in-place)
I0807 20:40:47.990869  6165 net.cpp:151] Setting up relu5_2
I0807 20:40:47.990952  6165 net.cpp:158] Top shape: 64 512 14 14 (6422528)
I0807 20:40:47.990959  6165 layer_factory.hpp:74] Creating layer conv5_3
I0807 20:40:47.990967  6165 net.cpp:91] Creating Layer conv5_3
I0807 20:40:47.990970  6165 net.cpp:452] conv5_3 <- conv5_2
I0807 20:40:47.990973  6165 net.cpp:119] This layer is inheriting previous layer's sync mode: 1
I0807 20:40:47.990978  6165 net.cpp:408] conv5_3 -> conv5_3
I0807 20:40:47.990983  6165 net.cpp:151] Setting up conv5_3
I0807 20:40:47.993859  6165 net.cpp:158] Top shape: 64 512 14 14 (6422528)
I0807 20:40:47.993888  6165 layer_factory.hpp:74] Creating layer relu5_3
I0807 20:40:47.993901  6165 net.cpp:91] Creating Layer relu5_3
I0807 20:40:47.993906  6165 net.cpp:452] relu5_3 <- conv5_3
I0807 20:40:47.993914  6165 net.cpp:119] This layer is inheriting previous layer's sync mode: 1
I0807 20:40:47.993919  6165 net.cpp:397] relu5_3 -> conv5_3 (in-place)
I0807 20:40:47.993927  6165 net.cpp:151] Setting up relu5_3
I0807 20:40:47.994132  6165 net.cpp:158] Top shape: 64 512 14 14 (6422528)
I0807 20:40:47.994143  6165 layer_factory.hpp:74] Creating layer pool5
I0807 20:40:47.994155  6165 net.cpp:91] Creating Layer pool5
I0807 20:40:47.994159  6165 net.cpp:452] pool5 <- conv5_3
I0807 20:40:47.994165  6165 net.cpp:119] This layer is inheriting previous layer's sync mode: 1
I0807 20:40:47.994170  6165 net.cpp:408] pool5 -> pool5_local
I0807 20:40:47.994180  6165 net.cpp:151] Setting up pool5
I0807 20:40:47.994254  6165 net.cpp:158] Top shape: 64 512 7 7 (1605632)
I0807 20:40:47.994262  6165 layer_factory.hpp:74] Creating layer gather
I0807 20:40:47.994285  6165 net.cpp:91] Creating Layer gather
I0807 20:40:47.994313  6165 net.cpp:452] gather <- pool5_local
I0807 20:40:47.994319  6165 net.cpp:452] gather <- label_local
I0807 20:40:47.994329  6165 net.cpp:408] gather -> pool5
I0807 20:40:47.994338  6165 net.cpp:408] gather -> label
I0807 20:40:47.994344  6165 net.cpp:151] Setting up gather
I0807 20:40:47.994354  6165 net.cpp:158] Top shape: 128 512 7 7 (3211264)
I0807 20:40:47.994359  6165 net.cpp:158] Top shape: 128 1 1 1 (128)
I0807 20:40:47.994364  6165 layer_factory.hpp:74] Creating layer fc6
I0807 20:40:47.994371  6165 net.cpp:91] Creating Layer fc6
I0807 20:40:47.994375  6165 net.cpp:452] fc6 <- pool5
I0807 20:40:47.994380  6165 net.cpp:119] This layer is inheriting previous layer's sync mode: 0
I0807 20:40:47.994391  6165 net.cpp:408] fc6 -> fc6
I0807 20:40:47.994400  6165 net.cpp:151] Setting up fc6
I0807 20:40:48.085078  6165 net.cpp:158] Top shape: 128 4096 (524288)
I0807 20:40:48.085113  6165 layer_factory.hpp:74] Creating layer relu6
I0807 20:40:48.085125  6165 net.cpp:91] Creating Layer relu6
I0807 20:40:48.085131  6165 net.cpp:452] relu6 <- fc6
I0807 20:40:48.085139  6165 net.cpp:119] This layer is inheriting previous layer's sync mode: 0
I0807 20:40:48.085144  6165 net.cpp:397] relu6 -> fc6 (in-place)
I0807 20:40:48.085153  6165 net.cpp:151] Setting up relu6
I0807 20:40:48.085275  6165 net.cpp:158] Top shape: 128 4096 (524288)
I0807 20:40:48.085285  6165 layer_factory.hpp:74] Creating layer drop6
I0807 20:40:48.085294  6165 net.cpp:91] Creating Layer drop6
I0807 20:40:48.085299  6165 net.cpp:452] drop6 <- fc6
I0807 20:40:48.085304  6165 net.cpp:119] This layer is inheriting previous layer's sync mode: 0
I0807 20:40:48.085310  6165 net.cpp:397] drop6 -> fc6 (in-place)
I0807 20:40:48.085320  6165 net.cpp:151] Setting up drop6
I0807 20:40:48.085330  6165 net.cpp:158] Top shape: 128 4096 (524288)
I0807 20:40:48.085335  6165 layer_factory.hpp:74] Creating layer fc7
I0807 20:40:48.085345  6165 net.cpp:91] Creating Layer fc7
I0807 20:40:48.085348  6165 net.cpp:452] fc7 <- fc6
I0807 20:40:48.085353  6165 net.cpp:119] This layer is inheriting previous layer's sync mode: 0
I0807 20:40:48.085360  6165 net.cpp:408] fc7 -> fc7
I0807 20:40:48.085366  6165 net.cpp:151] Setting up fc7
I0807 20:40:48.102476  6165 net.cpp:158] Top shape: 128 4096 (524288)
I0807 20:40:48.102509  6165 layer_factory.hpp:74] Creating layer relu7
I0807 20:40:48.102520  6165 net.cpp:91] Creating Layer relu7
I0807 20:40:48.102526  6165 net.cpp:452] relu7 <- fc7
I0807 20:40:48.102533  6165 net.cpp:119] This layer is inheriting previous layer's sync mode: 0
I0807 20:40:48.102540  6165 net.cpp:397] relu7 -> fc7 (in-place)
I0807 20:40:48.102547  6165 net.cpp:151] Setting up relu7
I0807 20:40:48.102655  6165 net.cpp:158] Top shape: 128 4096 (524288)
I0807 20:40:48.102664  6165 layer_factory.hpp:74] Creating layer drop7
I0807 20:40:48.102673  6165 net.cpp:91] Creating Layer drop7
I0807 20:40:48.102675  6165 net.cpp:452] drop7 <- fc7
I0807 20:40:48.102680  6165 net.cpp:119] This layer is inheriting previous layer's sync mode: 0
I0807 20:40:48.102685  6165 net.cpp:397] drop7 -> fc7 (in-place)
I0807 20:40:48.102691  6165 net.cpp:151] Setting up drop7
I0807 20:40:48.102699  6165 net.cpp:158] Top shape: 128 4096 (524288)
I0807 20:40:48.102702  6165 layer_factory.hpp:74] Creating layer fc8-1
I0807 20:40:48.102712  6165 net.cpp:91] Creating Layer fc8-1
I0807 20:40:48.102716  6165 net.cpp:452] fc8-1 <- fc7
I0807 20:40:48.102720  6165 net.cpp:119] This layer is inheriting previous layer's sync mode: 0
I0807 20:40:48.102730  6165 net.cpp:408] fc8-1 -> fc8-1
I0807 20:40:48.102740  6165 net.cpp:151] Setting up fc8-1
I0807 20:40:48.117507  6165 net.cpp:158] Top shape: 128 101 (12928)
I0807 20:40:48.117534  6165 layer_factory.hpp:74] Creating layer loss
I0807 20:40:48.117548  6165 net.cpp:91] Creating Layer loss
I0807 20:40:48.117555  6165 net.cpp:452] loss <- fc8-1
I0807 20:40:48.117563  6165 net.cpp:452] loss <- label
I0807 20:40:48.117569  6165 net.cpp:119] This layer is inheriting previous layer's sync mode: 0
I0807 20:40:48.117604  6165 net.cpp:408] loss -> (automatic)
…
    mean_value: 128
    mean_value: 128
    mean_value: 128
    mean_value: 128
    mean_value: 128
    mean_value: 128
    mean_value: 128
    mean_value: 128
    mean_value: 128
    mean_value: 128
    mean_value: 128
    mean_value: 128
    mean_value: 128
    mean_value: 128
    mean_value: 128
    mean_value: 128
    mean_value: 128
    mean_value: 128
    fix_crop: true
    is_flow: true
  }
  video_data_param {
    source: "/home/jiri/Lake/HAR/datasets/UCF-101/val-2-rnd.txt"
    batch_size: 5
    new_length: 10
    num_segments: 1
    modality: FLOW
  }
}
layer {
  name: "conv1_1"
  type: "Convolution"
  bottom: "data"
  top: "conv1_1"
  param {
    lr_mult: 1
    decay_mult: 1
  }
  param {
    lr_mult: 2
    decay_mult: 0
  }
  convolution_param {
    num_output: 64
    pad: 1
    kernel_size: 3
  }
}
layer {
  name: "relu1_1"
  type: "ReLU"
  bottom: "conv1_1"
  top: "conv1_1"
}
layer {
  name: "conv1_2"
  type: "Convolution"
  bottom: "conv1_1"
  top: "conv1_2"
  param {
    lr_mult: 1
    decay_mult: 1
  }
  param {
    lr_mult: 2
    decay_mult: 0
  }
  convolution_param {
    num_output: 64
    pad: 1
    kernel_size: 3
  }
}
layer {
  name: "relu1_2"
  type: "ReLU"
  bottom: "conv1_2"
  top: "conv1_2"
}
layer {
  name: "pool1"
  type: "Pooling"
  bottom: "conv1_2"
  top: "pool1"
  pooling_param {
    pool: MAX
    kernel_size: 2
    stride: 2
  }
}
layer {
  name: "conv2_1"
  type: "Convolution"
  bottom: "pool1"
  top: "conv2_1"
  param {
    lr_mult: 1
    decay_mult: 1
  }
  param {
    lr_mult: 2
    decay_mult: 0
  }
  convolution_param {
    num_output: 128
    pad: 1
    kernel_size: 3
  }
}
layer {
  name: "relu2_1"
  type: "ReLU"
  bottom: "conv2_1"
  top: "conv2_1"
}
layer {
  name: "conv2_2"
  type: "Convolution"
  bottom: "conv2_1"
  top: "conv2_2"
  param {
    lr_mult: 1
    decay_mult: 1
  }
  param {
    lr_mult: 2
    decay_mult: 0
  }
  convolution_param {
    num_output: 128
    pad: 1
    kernel_size: 3
  }
}
layer {
  name: "relu2_2"
  type: "ReLU"
  bottom: "conv2_2"
  top: "conv2_2"
}
layer {
  name: "pool2"
  type: "Pooling"
  bottom: "conv2_2"
  top: "pool2"
  pooling_param {
    pool: MAX
    kernel_size: 2
    stride: 2
  }
}
layer {
  name: "conv3_1"
  type: "Convolution"
  bottom: "pool2"
  top: "conv3_1"
  param {
    lr_mult: 1
    decay_mult: 1
  }
  param {
    lr_mult: 2
    decay_mult: 0
  }
  convolution_param {
    num_output: 256
    pad: 1
    kernel_size: 3
  }
}
layer {
  name: "relu3_1"
  type: "ReLU"
  bottom: "conv3_1"
  top: "conv3_1"
}
layer {
  name: "conv3_2"
  type: "Convolution"
  bottom: "conv3_1"
  top: "conv3_2"
  param {
    lr_mult: 1
    decay_mult: 1
  }
  param {
    lr_mult: 2
    decay_mult: 0
  }
  convolution_param {
    num_output: 256
    pad: 1
    kernel_size: 3
  }
}
layer {
  name: "relu3_2"
  type: "ReLU"
  bottom: "conv3_2"
  top: "conv3_2"
}
layer {
  name: "conv3_3"
  type: "Convolution"
  bottom: "conv3_2"
  top: "conv3_3"
  param {
    lr_mult: 1
    decay_mult: 1
  }
  param {
    lr_mult: 2
    decay_mult: 0
  }
  convolution_param {
    num_output: 256
    pad: 1
    kernel_size: 3
  }
}
layer {
  name: "relu3_3"
  type: "ReLU"
  bottom: "conv3_3"
  top: "conv3_3"
}
layer {
  name: "pool3"
  type: "Pooling"
  bottom: "conv3_3"
  top: "pool3"
  pooling_param {
    pool: MAX
    kernel_size: 2
    stride: 2
  }
}
layer {
  name: "conv4_1"
  type: "Convolution"
  bottom: "pool3"
  top: "conv4_1"
  param {
    lr_mult: 1
    decay_mult: 1
  }
  param {
    lr_mult: 2
    decay_mult: 0
  }
  convolution_param {
    num_output: 512
    pad: 1
    kernel_size: 3
  }
}
layer {
  name: "relu4_1"
  type: "ReLU"
  bottom: "conv4_1"
  top: "conv4_1"
}
layer {
  name: "conv4_2"
  type: "Convolution"
  bottom: "conv4_1"
  top: "conv4_2"
  param {
    lr_mult: 1
    decay_mult: 1
  }
  param {
    lr_mult: 2
    decay_mult: 0
  }
  convolution_param {
    num_output: 512
    pad: 1
    kernel_size: 3
  }
}
layer {
  name: "relu4_2"
  type: "ReLU"
  bottom: "conv4_2"
  top: "conv4_2"
}
layer {
  name: "conv4_3"
  type: "Convolution"
  bottom: "conv4_2"
  top: "conv4_3"
  param {
    lr_mult: 1
    decay_mult: 1
  }
  param {
    lr_mult: 2
    decay_mult: 0
  }
  convolution_param {
    num_output: 512
    pad: 1
    kernel_size: 3
  }
}
layer {
  name: "relu4_3"
  type: "ReLU"
  bottom: "conv4_3"
  top: "conv4_3"
}
layer {
  name: "pool4"
  type: "Pooling"
  bottom: "conv4_3"
  top: "pool4"
  pooling_param {
    pool: MAX
    kernel_size: 2
    stride: 2
  }
}
layer {
  name: "conv5_1"
  type: "Convolution"
  bottom: "pool4"
  top: "conv5_1"
  param {
    lr_mult: 1
    decay_mult: 1
  }
  param {
    lr_mult: 2
    decay_mult: 0
  }
  convolution_param {
    num_output: 512
    pad: 1
    kernel_size: 3
  }
}
layer {
  name: "relu5_1"
  type: "ReLU"
  bottom: "conv5_1"
  top: "conv5_1"
}
layer {
  name: "conv5_2"
  type: "Convolution"
  bottom: "conv5_1"
  top: "conv5_2"
  param {
    lr_mult: 1
    decay_mult: 1
  }
  param {
    lr_mult: 2
    decay_mult: 0
  }
  convolution_param {
    num_output: 512
    pad: 1
    kernel_size: 3
  }
}
layer {
  name: "relu5_2"
  type: "ReLU"
  bottom: "conv5_2"
  top: "conv5_2"
}
layer {
  name: "conv5_3"
  type: "Convolution"
  bottom: "conv5_2"
  top: "conv5_3"
  param {
    lr_mult: 1
    decay_mult: 1
  }
  param {
    lr_mult: 2
    decay_mult: 0
  }
  convolution_param {
    num_output: 512
    pad: 1
    kernel_size: 3
  }
}
layer {
  name: "relu5_3"
  type: "ReLU"
  bottom: "conv5_3"
  top: "conv5_3"
}
layer {
  name: "pool5"
  type: "Pooling"
  bottom: "conv5_3"
  top: "pool5_local"
  pooling_param {
    pool: MAX
    kernel_size: 2
    stride: 2
  }
}
layer {
  name: "gather"
  type: "Gather"
  bottom: "pool5_local"
  bottom: "label_local"
  top: "pool5"
  top: "label"
}
layer {
  name: "fc6"
  type: "InnerProduct"
  bottom: "pool5"
  top: "fc6"
  param {
    lr_mult: 1
    decay_mult: 1
  }
  param {
    lr_mult: 2
    decay_mult: 0
  }
  inner_product_param {
    num_output: 4096
  }
}
layer {
  name: "relu6"
  type: "ReLU"
  bottom: "fc6"
  top: "fc6"
}
layer {
  name: "drop6"
  type: "Dropout"
  bottom: "fc6"
  top: "fc6"
  dropout_param {
    dropout_ratio: 0.9
  }
}
layer {
  name: "fc7"
  type: "InnerProduct"
  bottom: "fc6"
  top: "fc7"
  param {
    lr_mult: 1
    decay_mult: 1
  }
  param {
    lr_mult: 2
    decay_mult: 0
  }
  inner_product_param {
    num_output: 4096
  }
}
layer {
  name: "relu7"
  type: "ReLU"
  bottom: "fc7"
  top: "fc7"
}
layer {
  name: "drop7"
  type: "Dropout"
  bottom: "fc7"
  top: "fc7"
  dropout_param {
    dropout_ratio: 0.8
  }
}
layer {
  name: "fc8-1"
  type: "InnerProduct"
  bottom: "fc7"
  top: "fc8-1"
  param {
    lr_mult: 1
    decay_mult: 1
  }
  param {
    lr_mult: 2
    decay_mult: 0
  }
  inner_product_param {
    num_output: 101
    weight_filler {
      type: "gaussian"
      std: 0.001
    }
    bias_filler {
      type: "constant"
      value: 0
    }
  }
}
layer {
  name: "loss"
  type: "SoftmaxWithLoss"
  bottom: "fc8-1"
  bottom: "label"
  top: "loss"
  include {
    phase: TEST
  }
}
layer {
  name: "accuracy"
  type: "Accuracy"
  bottom: "fc8-1"
  bottom: "label"
  top: "accuracy"
  include {
    phase: TEST
  }
}
I0807 20:40:48.120350  6165 layer_factory.hpp:74] Creating layer data
I0807 20:40:48.120364  6165 net.cpp:91] Creating Layer data
I0807 20:40:48.120370  6165 net.cpp:408] data -> data
I0807 20:40:48.120383  6165 net.cpp:408] data -> label_local
I0807 20:40:48.120393  6165 net.cpp:151] Setting up data
I0807 20:40:48.120399  6165 video_data_layer.cpp:34] Opening file: /home/jiri/Lake/HAR/datasets/UCF-101/val-2-rnd.txt
I0807 20:40:48.123388  6165 video_data_layer.cpp:50] A total of 3783 videos.
I0807 20:40:48.140687  6165 video_data_layer.cpp:76] output data size: 5,20,224,224
I0807 20:40:48.144280  6165 net.cpp:158] Top shape: 5 20 224 224 (5017600)
I0807 20:40:48.144323  6165 net.cpp:158] Top shape: 5 1 1 1 (5)
I0807 20:40:48.144332  6165 layer_factory.hpp:74] Creating layer conv1_1
I0807 20:40:48.144348  6165 net.cpp:91] Creating Layer conv1_1
I0807 20:40:48.144354  6165 net.cpp:452] conv1_1 <- data
I0807 20:40:48.144361  6165 net.cpp:119] This layer is inheriting previous layer's sync mode: 1
I0807 20:40:48.144367  6165 net.cpp:408] conv1_1 -> conv1_1
I0807 20:40:48.144379  6165 net.cpp:151] Setting up conv1_1
I0807 20:40:48.144857  6165 net.cpp:158] Top shape: 5 64 224 224 (16056320)
I0807 20:40:48.144876  6165 layer_factory.hpp:74] Creating layer relu1_1
I0807 20:40:48.144886  6165 net.cpp:91] Creating Layer relu1_1
I0807 20:40:48.144891  6165 net.cpp:452] relu1_1 <- conv1_1
I0807 20:40:48.144896  6165 net.cpp:119] This layer is inheriting previous layer's sync mode: 1
I0807 20:40:48.144901  6165 net.cpp:397] relu1_1 -> conv1_1 (in-place)
I0807 20:40:48.144907  6165 net.cpp:151] Setting up relu1_1
I0807 20:40:48.144971  6165 net.cpp:158] Top shape: 5 64 224 224 (16056320)
I0807 20:40:48.144979  6165 layer_factory.hpp:74] Creating layer conv1_2
I0807 20:40:48.144986  6165 net.cpp:91] Creating Layer conv1_2
I0807 20:40:48.144989  6165 net.cpp:452] conv1_2 <- conv1_1
I0807 20:40:48.144994  6165 net.cpp:119] This layer is inheriting previous layer's sync mode: 1
I0807 20:40:48.144999  6165 net.cpp:408] conv1_2 -> conv1_2
I0807 20:40:48.145006  6165 net.cpp:151] Setting up conv1_2
I0807 20:40:48.145405  6165 net.cpp:158] Top shape: 5 64 224 224 (16056320)
I0807 20:40:48.145421  6165 layer_factory.hpp:74] Creating layer relu1_2
I0807 20:40:48.145427  6165 net.cpp:91] Creating Layer relu1_2
I0807 20:40:48.145431  6165 net.cpp:452] relu1_2 <- conv1_2
I0807 20:40:48.145433  6165 net.cpp:119] This layer is inheriting previous layer's sync mode: 1
I0807 20:40:48.145437  6165 net.cpp:397] relu1_2 -> conv1_2 (in-place)
I0807 20:40:48.145440  6165 net.cpp:151] Setting up relu1_2
I0807 20:40:48.145490  6165 net.cpp:158] Top shape: 5 64 224 224 (16056320)
I0807 20:40:48.145495  6165 layer_factory.hpp:74] Creating layer pool1
I0807 20:40:48.145501  6165 net.cpp:91] Creating Layer pool1
I0807 20:40:48.145503  6165 net.cpp:452] pool1 <- conv1_2
I0807 20:40:48.145506  6165 net.cpp:119] This layer is inheriting previous layer's sync mode: 1
I0807 20:40:48.145509  6165 net.cpp:408] pool1 -> pool1
I0807 20:40:48.145514  6165 net.cpp:151] Setting up pool1
I0807 20:40:48.145576  6165 net.cpp:158] Top shape: 5 64 112 112 (4014080)
I0807 20:40:48.145586  6165 layer_factory.hpp:74] Creating layer conv2_1
I0807 20:40:48.145594  6165 net.cpp:91] Creating Layer conv2_1
I0807 20:40:48.145598  6165 net.cpp:452] conv2_1 <- pool1
I0807 20:40:48.145603  6165 net.cpp:119] This layer is inheriting previous layer's sync mode: 1
I0807 20:40:48.145609  6165 net.cpp:408] conv2_1 -> conv2_1
I0807 20:40:48.145617  6165 net.cpp:151] Setting up conv2_1
I0807 20:40:48.145994  6165 net.cpp:158] Top shape: 5 128 112 112 (8028160)
I0807 20:40:48.146013  6165 layer_factory.hpp:74] Creating layer relu2_1
I0807 20:40:48.146020  6165 net.cpp:91] Creating Layer relu2_1
I0807 20:40:48.146024  6165 net.cpp:452] relu2_1 <- conv2_1
I0807 20:40:48.146030  6165 net.cpp:119] This layer is inheriting previous layer's sync mode: 1
I0807 20:40:48.146035  6165 net.cpp:397] relu2_1 -> conv2_1 (in-place)
I0807 20:40:48.146042  6165 net.cpp:151] Setting up relu2_1
I0807 20:40:48.146245  6165 net.cpp:158] Top shape: 5 128 112 112 (8028160)
I0807 20:40:48.146255  6165 layer_factory.hpp:74] Creating layer conv2_2
I0807 20:40:48.146265  6165 net.cpp:91] Creating Layer conv2_2
I0807 20:40:48.146268  6165 net.cpp:452] conv2_2 <- conv2_1
I0807 20:40:48.146273  6165 net.cpp:119] This layer is inheriting previous layer's sync mode: 1
I0807 20:40:48.146278  6165 net.cpp:408] conv2_2 -> conv2_2
I0807 20:40:48.146286  6165 net.cpp:151] Setting up conv2_2
I0807 20:40:48.146713  6165 net.cpp:158] Top shape: 5 128 112 112 (8028160)
I0807 20:40:48.146726  6165 layer_factory.hpp:74] Creating layer relu2_2
I0807 20:40:48.146733  6165 net.cpp:91] Creating Layer relu2_2
I0807 20:40:48.146752  6165 net.cpp:452] relu2_2 <- conv2_2
I0807 20:40:48.146757  6165 net.cpp:119] This layer is inheriting previous layer's sync mode: 1
I0807 20:40:48.146762  6165 net.cpp:397] relu2_2 -> conv2_2 (in-place)
I0807 20:40:48.146769  6165 net.cpp:151] Setting up relu2_2
I0807 20:40:48.146833  6165 net.cpp:158] Top shape: 5 128 112 112 (8028160)
I0807 20:40:48.146841  6165 layer_factory.hpp:74] Creating layer pool2
I0807 20:40:48.146847  6165 net.cpp:91] Creating Layer pool2
I0807 20:40:48.146849  6165 net.cpp:452] pool2 <- conv2_2
I0807 20:40:48.146852  6165 net.cpp:119] This layer is inheriting previous layer's sync mode: 1
I0807 20:40:48.146855  6165 net.cpp:408] pool2 -> pool2
I0807 20:40:48.146860  6165 net.cpp:151] Setting up pool2
I0807 20:40:48.146908  6165 net.cpp:158] Top shape: 5 128 56 56 (2007040)
I0807 20:40:48.146914  6165 layer_factory.hpp:74] Creating layer conv3_1
I0807 20:40:48.146919  6165 net.cpp:91] Creating Layer conv3_1
I0807 20:40:48.146920  6165 net.cpp:452] conv3_1 <- pool2
I0807 20:40:48.146924  6165 net.cpp:119] This layer is inheriting previous layer's sync mode: 1
I0807 20:40:48.146926  6165 net.cpp:408] conv3_1 -> conv3_1
I0807 20:40:48.146934  6165 net.cpp:151] Setting up conv3_1
I0807 20:40:48.147478  6165 net.cpp:158] Top shape: 5 256 56 56 (4014080)
I0807 20:40:48.147497  6165 layer_factory.hpp:74] Creating layer relu3_1
I0807 20:40:48.147505  6165 net.cpp:91] Creating Layer relu3_1
I0807 20:40:48.147511  6165 net.cpp:452] relu3_1 <- conv3_1
I0807 20:40:48.147516  6165 net.cpp:119] This layer is inheriting previous layer's sync mode: 1
I0807 20:40:48.147521  6165 net.cpp:397] relu3_1 -> conv3_1 (in-place)
I0807 20:40:48.147527  6165 net.cpp:151] Setting up relu3_1
I0807 20:40:48.147737  6165 net.cpp:158] Top shape: 5 256 56 56 (4014080)
I0807 20:40:48.147744  6165 layer_factory.hpp:74] Creating layer conv3_2
I0807 20:40:48.147753  6165 net.cpp:91] Creating Layer conv3_2
I0807 20:40:48.147757  6165 net.cpp:452] conv3_2 <- conv3_1
I0807 20:40:48.147761  6165 net.cpp:119] This layer is inheriting previous layer's sync mode: 1
I0807 20:40:48.147766  6165 net.cpp:408] conv3_2 -> conv3_2
I0807 20:40:48.147773  6165 net.cpp:151] Setting up conv3_2
I0807 20:40:48.149452  6165 net.cpp:158] Top shape: 5 256 56 56 (4014080)
I0807 20:40:48.149473  6165 layer_factory.hpp:74] Creating layer relu3_2
I0807 20:40:48.149484  6165 net.cpp:91] Creating Layer relu3_2
I0807 20:40:48.149489  6165 net.cpp:452] relu3_2 <- conv3_2
I0807 20:40:48.149497  6165 net.cpp:119] This layer is inheriting previous layer's sync mode: 1
I0807 20:40:48.149502  6165 net.cpp:397] relu3_2 -> conv3_2 (in-place)
I0807 20:40:48.149509  6165 net.cpp:151] Setting up relu3_2
I0807 20:40:48.149580  6165 net.cpp:158] Top shape: 5 256 56 56 (4014080)
I0807 20:40:48.149587  6165 layer_factory.hpp:74] Creating layer conv3_3
I0807 20:40:48.149596  6165 net.cpp:91] Creating Layer conv3_3
I0807 20:40:48.149601  6165 net.cpp:452] conv3_3 <- conv3_2
I0807 20:40:48.149605  6165 net.cpp:119] This layer is inheriting previous layer's sync mode: 1
I0807 20:40:48.149611  6165 net.cpp:408] conv3_3 -> conv3_3
I0807 20:40:48.149617  6165 net.cpp:151] Setting up conv3_3
I0807 20:40:48.154542  6165 net.cpp:158] Top shape: 5 256 56 56 (4014080)
I0807 20:40:48.154564  6165 layer_factory.hpp:74] Creating layer relu3_3
I0807 20:40:48.154897  6165 net.cpp:91] Creating Layer relu3_3
I0807 20:40:48.154907  6165 net.cpp:452] relu3_3 <- conv3_3
I0807 20:40:48.154914  6165 net.cpp:119] This layer is inheriting previous layer's sync mode: 1
I0807 20:40:48.154920  6165 net.cpp:397] relu3_3 -> conv3_3 (in-place)
I0807 20:40:48.154927  6165 net.cpp:151] Setting up relu3_3
I0807 20:40:48.156025  6165 net.cpp:158] Top shape: 5 256 56 56 (4014080)
I0807 20:40:48.156038  6165 layer_factory.hpp:74] Creating layer pool3
I0807 20:40:48.156333  6165 net.cpp:91] Creating Layer pool3
I0807 20:40:48.156342  6165 net.cpp:452] pool3 <- conv3_3
I0807 20:40:48.156347  6165 net.cpp:119] This layer is inheriting previous layer's sync mode: 1
I0807 20:40:48.156376  6165 net.cpp:408] pool3 -> pool3
I0807 20:40:48.156383  6165 net.cpp:151] Setting up pool3
I0807 20:40:48.156514  6165 net.cpp:158] Top shape: 5 256 28 28 (1003520)
I0807 20:40:48.156525  6165 layer_factory.hpp:74] Creating layer conv4_1
I0807 20:40:48.156533  6165 net.cpp:91] Creating Layer conv4_1
I0807 20:40:48.156538  6165 net.cpp:452] conv4_1 <- pool3
I0807 20:40:48.156543  6165 net.cpp:119] This layer is inheriting previous layer's sync mode: 1
I0807 20:40:48.156857  6165 net.cpp:408] conv4_1 -> conv4_1
I0807 20:40:48.156867  6165 net.cpp:151] Setting up conv4_1
I0807 20:40:48.159771  6165 net.cpp:158] Top shape: 5 512 28 28 (2007040)
I0807 20:40:48.159797  6165 layer_factory.hpp:74] Creating layer relu4_1
I0807 20:40:48.159806  6165 net.cpp:91] Creating Layer relu4_1
I0807 20:40:48.159811  6165 net.cpp:452] relu4_1 <- conv4_1
I0807 20:40:48.159816  6165 net.cpp:119] This layer is inheriting previous layer's sync mode: 1
I0807 20:40:48.159823  6165 net.cpp:397] relu4_1 -> conv4_1 (in-place)
I0807 20:40:48.159829  6165 net.cpp:151] Setting up relu4_1
I0807 20:40:48.160037  6165 net.cpp:158] Top shape: 5 512 28 28 (2007040)
I0807 20:40:48.160048  6165 layer_factory.hpp:74] Creating layer conv4_2
I0807 20:40:48.160058  6165 net.cpp:91] Creating Layer conv4_2
I0807 20:40:48.160063  6165 net.cpp:452] conv4_2 <- conv4_1
I0807 20:40:48.160068  6165 net.cpp:119] This layer is inheriting previous layer's sync mode: 1
I0807 20:40:48.160076  6165 net.cpp:408] conv4_2 -> conv4_2
I0807 20:40:48.160084  6165 net.cpp:151] Setting up conv4_2
I0807 20:40:48.163131  6165 net.cpp:158] Top shape: 5 512 28 28 (2007040)
I0807 20:40:48.163161  6165 layer_factory.hpp:74] Creating layer relu4_2
I0807 20:40:48.163171  6165 net.cpp:91] Creating Layer relu4_2
I0807 20:40:48.163175  6165 net.cpp:452] relu4_2 <- conv4_2
I0807 20:40:48.163182  6165 net.cpp:119] This layer is inheriting previous layer's sync mode: 1
I0807 20:40:48.163185  6165 net.cpp:397] relu4_2 -> conv4_2 (in-place)
I0807 20:40:48.163192  6165 net.cpp:151] Setting up relu4_2
I0807 20:40:48.163278  6165 net.cpp:158] Top shape: 5 512 28 28 (2007040)
I0807 20:40:48.163287  6165 layer_factory.hpp:74] Creating layer conv4_3
I0807 20:40:48.163296  6165 net.cpp:91] Creating Layer conv4_3
I0807 20:40:48.163300  6165 net.cpp:452] conv4_3 <- conv4_2
I0807 20:40:48.163305  6165 net.cpp:119] This layer is inheriting previous layer's sync mode: 1
I0807 20:40:48.163311  6165 net.cpp:408] conv4_3 -> conv4_3
I0807 20:40:48.163318  6165 net.cpp:151] Setting up conv4_3
I0807 20:40:48.167945  6165 net.cpp:158] Top shape: 5 512 28 28 (2007040)
I0807 20:40:48.167974  6165 layer_factory.hpp:74] Creating layer relu4_3
I0807 20:40:48.167987  6165 net.cpp:91] Creating Layer relu4_3
I0807 20:40:48.167994  6165 net.cpp:452] relu4_3 <- conv4_3
I0807 20:40:48.168001  6165 net.cpp:119] This layer is inheriting previous layer's sync mode: 1
I0807 20:40:48.168006  6165 net.cpp:397] relu4_3 -> conv4_3 (in-place)
I0807 20:40:48.168015  6165 net.cpp:151] Setting up relu4_3
I0807 20:40:48.168088  6165 net.cpp:158] Top shape: 5 512 28 28 (2007040)
I0807 20:40:48.168097  6165 layer_factory.hpp:74] Creating layer pool4
I0807 20:40:48.168104  6165 net.cpp:91] Creating Layer pool4
I0807 20:40:48.168108  6165 net.cpp:452] pool4 <- conv4_3
I0807 20:40:48.168113  6165 net.cpp:119] This layer is inheriting previous layer's sync mode: 1
I0807 20:40:48.168119  6165 net.cpp:408] pool4 -> pool4
I0807 20:40:48.168125  6165 net.cpp:151] Setting up pool4
I0807 20:40:48.168206  6165 net.cpp:158] Top shape: 5 512 14 14 (501760)
I0807 20:40:48.168215  6165 layer_factory.hpp:74] Creating layer conv5_1
I0807 20:40:48.168223  6165 net.cpp:91] Creating Layer conv5_1
I0807 20:40:48.168227  6165 net.cpp:452] conv5_1 <- pool4
I0807 20:40:48.168232  6165 net.cpp:119] This layer is inheriting previous layer's sync mode: 1
I0807 20:40:48.168239  6165 net.cpp:408] conv5_1 -> conv5_1
I0807 20:40:48.168251  6165 net.cpp:151] Setting up conv5_1
I0807 20:40:48.172786  6165 net.cpp:158] Top shape: 5 512 14 14 (501760)
I0807 20:40:48.172845  6165 layer_factory.hpp:74] Creating layer relu5_1
I0807 20:40:48.172858  6165 net.cpp:91] Creating Layer relu5_1
I0807 20:40:48.172864  6165 net.cpp:452] relu5_1 <- conv5_1
I0807 20:40:48.172871  6165 net.cpp:119] This layer is inheriting previous layer's sync mode: 1
I0807 20:40:48.172878  6165 net.cpp:397] relu5_1 -> conv5_1 (in-place)
I0807 20:40:48.172885  6165 net.cpp:151] Setting up relu5_1
I0807 20:40:48.173188  6165 net.cpp:158] Top shape: 5 512 14 14 (501760)
I0807 20:40:48.173198  6165 layer_factory.hpp:74] Creating layer conv5_2
I0807 20:40:48.173208  6165 net.cpp:91] Creating Layer conv5_2
I0807 20:40:48.173213  6165 net.cpp:452] conv5_2 <- conv5_1
I0807 20:40:48.173218  6165 net.cpp:119] This layer is inheriting previous layer's sync mode: 1
I0807 20:40:48.173224  6165 net.cpp:408] conv5_2 -> conv5_2
I0807 20:40:48.173231  6165 net.cpp:151] Setting up conv5_2
I0807 20:40:48.190557  6165 net.cpp:158] Top shape: 5 512 14 14 (501760)
I0807 20:40:48.190589  6165 layer_factory.hpp:74] Creating layer relu5_2
I0807 20:40:48.190603  6165 net.cpp:91] Creating Layer relu5_2
I0807 20:40:48.190610  6165 net.cpp:452] relu5_2 <- conv5_2
I0807 20:40:48.190618  6165 net.cpp:119] This layer is inheriting previous layer's sync mode: 1
I0807 20:40:48.190624  6165 net.cpp:397] relu5_2 -> conv5_2 (in-place)
I0807 20:40:48.190634  6165 net.cpp:151] Setting up relu5_2
I0807 20:40:48.190708  6165 net.cpp:158] Top shape: 5 512 14 14 (501760)
I0807 20:40:48.190716  6165 layer_factory.hpp:74] Creating layer conv5_3
I0807 20:40:48.190731  6165 net.cpp:91] Creating Layer conv5_3
I0807 20:40:48.190735  6165 net.cpp:452] conv5_3 <- conv5_2
I0807 20:40:48.190740  6165 net.cpp:119] This layer is inheriting previous layer's sync mode: 1
I0807 20:40:48.190747  6165 net.cpp:408] conv5_3 -> conv5_3
I0807 20:40:48.190754  6165 net.cpp:151] Setting up conv5_3
I0807 20:40:48.205430  6165 net.cpp:158] Top shape: 5 512 14 14 (501760)
I0807 20:40:48.205466  6165 layer_factory.hpp:74] Creating layer relu5_3
I0807 20:40:48.205482  6165 net.cpp:91] Creating Layer relu5_3
I0807 20:40:48.205488  6165 net.cpp:452] relu5_3 <- conv5_3
I0807 20:40:48.205495  6165 net.cpp:119] This layer is inheriting previous layer's sync mode: 1
I0807 20:40:48.205503  6165 net.cpp:397] relu5_3 -> conv5_3 (in-place)
I0807 20:40:48.205513  6165 net.cpp:151] Setting up relu5_3
I0807 20:40:48.205590  6165 net.cpp:158] Top shape: 5 512 14 14 (501760)
I0807 20:40:48.205597  6165 layer_factory.hpp:74] Creating layer pool5
I0807 20:40:48.205607  6165 net.cpp:91] Creating Layer pool5
I0807 20:40:48.205611  6165 net.cpp:452] pool5 <- conv5_3
I0807 20:40:48.205616  6165 net.cpp:119] This layer is inheriting previous layer's sync mode: 1
I0807 20:40:48.205621  6165 net.cpp:408] pool5 -> pool5_local
I0807 20:40:48.205628  6165 net.cpp:151] Setting up pool5
I0807 20:40:48.205698  6165 net.cpp:158] Top shape: 5 512 7 7 (125440)
I0807 20:40:48.205704  6165 layer_factory.hpp:74] Creating layer gather
I0807 20:40:48.205716  6165 net.cpp:91] Creating Layer gather
I0807 20:40:48.205720  6165 net.cpp:452] gather <- pool5_local
I0807 20:40:48.205725  6165 net.cpp:452] gather <- label_local
I0807 20:40:48.205732  6165 net.cpp:408] gather -> pool5
I0807 20:40:48.205739  6165 net.cpp:408] gather -> label
I0807 20:40:48.205745  6165 net.cpp:151] Setting up gather
I0807 20:40:48.205754  6165 net.cpp:158] Top shape: 10 512 7 7 (250880)
I0807 20:40:48.205759  6165 net.cpp:158] Top shape: 10 1 1 1 (10)
I0807 20:40:48.205762  6165 layer_factory.hpp:74] Creating layer label_gather_1_split
I0807 20:40:48.205777  6165 net.cpp:91] Creating Layer label_gather_1_split
I0807 20:40:48.205785  6165 net.cpp:452] label_gather_1_split <- label
I0807 20:40:48.205791  6165 net.cpp:119] This layer is inheriting previous layer's sync mode: 0
I0807 20:40:48.205796  6165 net.cpp:408] label_gather_1_split -> label_gather_1_split_0
I0807 20:40:48.205803  6165 net.cpp:408] label_gather_1_split -> label_gather_1_split_1
I0807 20:40:48.205809  6165 net.cpp:151] Setting up label_gather_1_split
I0807 20:40:48.205840  6165 net.cpp:158] Top shape: 10 1 1 1 (10)
I0807 20:40:48.205847  6165 net.cpp:158] Top shape: 10 1 1 1 (10)
I0807 20:40:48.205850  6165 layer_factory.hpp:74] Creating layer fc6
I0807 20:40:48.205859  6165 net.cpp:91] Creating Layer fc6
I0807 20:40:48.205863  6165 net.cpp:452] fc6 <- pool5
I0807 20:40:48.205868  6165 net.cpp:119] This layer is inheriting previous layer's sync mode: 0
I0807 20:40:48.205873  6165 net.cpp:408] fc6 -> fc6
I0807 20:40:48.205879  6165 net.cpp:151] Setting up fc6
I0807 20:40:48.634704  6165 net.cpp:158] Top shape: 10 4096 (40960)
I0807 20:40:48.634732  6165 layer_factory.hpp:74] Creating layer relu6
I0807 20:40:48.634743  6165 net.cpp:91] Creating Layer relu6
I0807 20:40:48.634748  6165 net.cpp:452] relu6 <- fc6
I0807 20:40:48.634753  6165 net.cpp:119] This layer is inheriting previous layer's sync mode: 0
I0807 20:40:48.634757  6165 net.cpp:397] relu6 -> fc6 (in-place)
I0807 20:40:48.634763  6165 net.cpp:151] Setting up relu6
I0807 20:40:48.635115  6165 net.cpp:158] Top shape: 10 4096 (40960)
I0807 20:40:48.635129  6165 layer_factory.hpp:74] Creating layer drop6
I0807 20:40:48.635138  6165 net.cpp:91] Creating Layer drop6
I0807 20:40:48.635143  6165 net.cpp:452] drop6 <- fc6
I0807 20:40:48.635149  6165 net.cpp:119] This layer is inheriting previous layer's sync mode: 0
I0807 20:40:48.635165  6165 net.cpp:397] drop6 -> fc6 (in-place)
I0807 20:40:48.635174  6165 net.cpp:151] Setting up drop6
I0807 20:40:48.635180  6165 net.cpp:158] Top shape: 10 4096 (40960)
I0807 20:40:48.635184  6165 layer_factory.hpp:74] Creating layer fc7
I0807 20:40:48.635190  6165 net.cpp:91] Creating Layer fc7
I0807 20:40:48.635191  6165 net.cpp:452] fc7 <- fc6
I0807 20:40:48.635195  6165 net.cpp:119] This layer is inheriting previous layer's sync mode: 0
I0807 20:40:48.635198  6165 net.cpp:408] fc7 -> fc7
I0807 20:40:48.635203  6165 net.cpp:151] Setting up fc7
I0807 20:40:48.721974  6165 net.cpp:158] Top shape: 10 4096 (40960)
I0807 20:40:48.722004  6165 layer_factory.hpp:74] Creating layer relu7
I0807 20:40:48.722015  6165 net.cpp:91] Creating Layer relu7
I0807 20:40:48.722021  6165 net.cpp:452] relu7 <- fc7
I0807 20:40:48.722028  6165 net.cpp:119] This layer is inheriting previous layer's sync mode: 0
I0807 20:40:48.722035  6165 net.cpp:397] relu7 -> fc7 (in-place)
I0807 20:40:48.722043  6165 net.cpp:151] Setting up relu7
I0807 20:40:48.722151  6165 net.cpp:158] Top shape: 10 4096 (40960)
I0807 20:40:48.722160  6165 layer_factory.hpp:74] Creating layer drop7
I0807 20:40:48.722168  6165 net.cpp:91] Creating Layer drop7
I0807 20:40:48.722183  6165 net.cpp:452] drop7 <- fc7
I0807 20:40:48.722190  6165 net.cpp:119] This layer is inheriting previous layer's sync mode: 0
I0807 20:40:48.722195  6165 net.cpp:397] drop7 -> fc7 (in-place)
I0807 20:40:48.722203  6165 net.cpp:151] Setting up drop7
I0807 20:40:48.722210  6165 net.cpp:158] Top shape: 10 4096 (40960)
I0807 20:40:48.722215  6165 layer_factory.hpp:74] Creating layer fc8-1
I0807 20:40:48.722224  6165 net.cpp:91] Creating Layer fc8-1
I0807 20:40:48.722229  6165 net.cpp:452] fc8-1 <- fc7
I0807 20:40:48.722234  6165 net.cpp:119] This layer is inheriting previous layer's sync mode: 0
I0807 20:40:48.722242  6165 net.cpp:408] fc8-1 -> fc8-1
I0807 20:40:48.722251  6165 net.cpp:151] Setting up fc8-1
I0807 20:40:48.736706  6165 net.cpp:158] Top shape: 10 101 (1010)
I0807 20:40:48.736732  6165 layer_factory.hpp:74] Creating layer fc8-1_fc8-1_0_split
I0807 20:40:48.736742  6165 net.cpp:91] Creating Layer fc8-1_fc8-1_0_split
I0807 20:40:48.736748  6165 net.cpp:452] fc8-1_fc8-1_0_split <- fc8-1
I0807 20:40:48.736755  6165 net.cpp:119] This layer is inheriting previous layer's sync mode: 0
I0807 20:40:48.736762  6165 net.cpp:408] fc8-1_fc8-1_0_split -> fc8-1_fc8-1_0_split_0
I0807 20:40:48.736771  6165 net.cpp:408] fc8-1_fc8-1_0_split -> fc8-1_fc8-1_0_split_1
I0807 20:40:48.736778  6165 net.cpp:151] Setting up fc8-1_fc8-1_0_split
I0807 20:40:48.736785  6165 net.cpp:158] Top shape: 10 101 (1010)
I0807 20:40:48.736790  6165 net.cpp:158] Top shape: 10 101 (1010)
I0807 20:40:48.736816  6165 layer_factory.hpp:74] Creating layer loss
I0807 20:40:48.736826  6165 net.cpp:91] Creating Layer loss
I0807 20:40:48.736830  6165 net.cpp:452] loss <- fc8-1_fc8-1_0_split_0
I0807 20:40:48.736836  6165 net.cpp:452] loss <- label_gather_1_split_0
I0807 20:40:48.736841  6165 net.cpp:119] This layer is inheriting previous layer's sync mode: 0
I0807 20:40:48.736846  6165 net.cpp:408] loss -> loss
…
