…
    mean_value: 128
    mean_value: 128
    mean_value: 128
    mean_value: 128
    mean_value: 128
    mean_value: 128
    mean_value: 128
    mean_value: 128
    mean_value: 128
    mean_value: 128
    mean_value: 128
    mean_value: 128
    fix_crop: true
    multi_scale: true
    scale_ratios: 1
    scale_ratios: 0.875
    scale_ratios: 0.75
    max_distort: 1
    is_flow: true
  }
  video_data_param {
    source: "/home/jiri/Lake/HAR/datasets/UCF-101/train-1-rnd.txt"
    batch_size: 64
    new_length: 10
    num_segments: 1
    modality: FLOW
  }
}
layer {
  name: "conv1_1"
  type: "Convolution"
  bottom: "data"
  top: "conv1_1"
  param {
    lr_mult: 1
    decay_mult: 1
  }
  param {
    lr_mult: 2
    decay_mult: 0
  }
  convolution_param {
    num_output: 64
    pad: 1
    kernel_size: 3
    weight_filler {
      type: "xavier"
    }
  }
}
layer {
  name: "relu1_1"
  type: "ReLU"
  bottom: "conv1_1"
  top: "conv1_1"
}
layer {
  name: "conv1_2"
  type: "Convolution"
  bottom: "conv1_1"
  top: "conv1_2"
  param {
    lr_mult: 1
    decay_mult: 1
  }
  param {
    lr_mult: 2
    decay_mult: 0
  }
  convolution_param {
    num_output: 64
    pad: 1
    kernel_size: 3
    weight_filler {
      type: "xavier"
    }
  }
}
layer {
  name: "relu1_2"
  type: "ReLU"
  bottom: "conv1_2"
  top: "conv1_2"
}
layer {
  name: "pool1"
  type: "Pooling"
  bottom: "conv1_2"
  top: "pool1"
  pooling_param {
    pool: MAX
    kernel_size: 2
    stride: 2
  }
}
layer {
  name: "conv2_1"
  type: "Convolution"
  bottom: "pool1"
  top: "conv2_1"
  param {
    lr_mult: 1
    decay_mult: 1
  }
  param {
    lr_mult: 2
    decay_mult: 0
  }
  convolution_param {
    num_output: 128
    pad: 1
    kernel_size: 3
    weight_filler {
      type: "xavier"
    }
  }
}
layer {
  name: "relu2_1"
  type: "ReLU"
  bottom: "conv2_1"
  top: "conv2_1"
}
layer {
  name: "conv2_2"
  type: "Convolution"
  bottom: "conv2_1"
  top: "conv2_2"
  param {
    lr_mult: 1
    decay_mult: 1
  }
  param {
    lr_mult: 2
    decay_mult: 0
  }
  convolution_param {
    num_output: 128
    pad: 1
    kernel_size: 3
    weight_filler {
      type: "xavier"
    }
  }
}
layer {
  name: "relu2_2"
  type: "ReLU"
  bottom: "conv2_2"
  top: "conv2_2"
}
layer {
  name: "pool2"
  type: "Pooling"
  bottom: "conv2_2"
  top: "pool2"
  pooling_param {
    pool: MAX
    kernel_size: 2
    stride: 2
  }
}
layer {
  name: "conv3_1"
  type: "Convolution"
  bottom: "pool2"
  top: "conv3_1"
  param {
    lr_mult: 1
    decay_mult: 1
  }
  param {
    lr_mult: 2
    decay_mult: 0
  }
  convolution_param {
    num_output: 256
    pad: 1
    kernel_size: 3
    weight_filler {
      type: "xavier"
    }
  }
}
layer {
  name: "relu3_1"
  type: "ReLU"
  bottom: "conv3_1"
  top: "conv3_1"
}
layer {
  name: "conv3_2"
  type: "Convolution"
  bottom: "conv3_1"
  top: "conv3_2"
  param {
    lr_mult: 1
    decay_mult: 1
  }
  param {
    lr_mult: 2
    decay_mult: 0
  }
  convolution_param {
    num_output: 256
    pad: 1
    kernel_size: 3
    weight_filler {
      type: "xavier"
    }
  }
}
layer {
  name: "relu3_2"
  type: "ReLU"
  bottom: "conv3_2"
  top: "conv3_2"
}
layer {
  name: "conv3_3"
  type: "Convolution"
  bottom: "conv3_2"
  top: "conv3_3"
  param {
    lr_mult: 1
    decay_mult: 1
  }
  param {
    lr_mult: 2
    decay_mult: 0
  }
  convolution_param {
    num_output: 256
    pad: 1
    kernel_size: 3
    weight_filler {
      type: "xavier"
    }
  }
}
layer {
  name: "relu3_3"
  type: "ReLU"
  bottom: "conv3_3"
  top: "conv3_3"
}
layer {
  name: "pool3"
  type: "Pooling"
  bottom: "conv3_3"
  top: "pool3"
  pooling_param {
    pool: MAX
    kernel_size: 2
    stride: 2
  }
}
layer {
  name: "conv4_1"
  type: "Convolution"
  bottom: "pool3"
  top: "conv4_1"
  param {
    lr_mult: 1
    decay_mult: 1
  }
  param {
    lr_mult: 2
    decay_mult: 0
  }
  convolution_param {
    num_output: 512
    pad: 1
    kernel_size: 3
    weight_filler {
      type: "xavier"
    }
  }
}
layer {
  name: "relu4_1"
  type: "ReLU"
  bottom: "conv4_1"
  top: "conv4_1"
}
layer {
  name: "conv4_2"
  type: "Convolution"
  bottom: "conv4_1"
  top: "conv4_2"
  param {
    lr_mult: 1
    decay_mult: 1
  }
  param {
    lr_mult: 2
    decay_mult: 0
  }
  convolution_param {
    num_output: 512
    pad: 1
    kernel_size: 3
    weight_filler {
      type: "xavier"
    }
  }
}
layer {
  name: "relu4_2"
  type: "ReLU"
  bottom: "conv4_2"
  top: "conv4_2"
}
layer {
  name: "conv4_3"
  type: "Convolution"
  bottom: "conv4_2"
  top: "conv4_3"
  param {
    lr_mult: 1
    decay_mult: 1
  }
  param {
    lr_mult: 2
    decay_mult: 0
  }
  convolution_param {
    num_output: 512
    pad: 1
    kernel_size: 3
    weight_filler {
      type: "xavier"
    }
  }
}
layer {
  name: "relu4_3"
  type: "ReLU"
  bottom: "conv4_3"
  top: "conv4_3"
}
layer {
  name: "pool4"
  type: "Pooling"
  bottom: "conv4_3"
  top: "pool4"
  pooling_param {
    pool: MAX
    kernel_size: 2
    stride: 2
  }
}
layer {
  name: "conv5_1"
  type: "Convolution"
  bottom: "pool4"
  top: "conv5_1"
  param {
    lr_mult: 1
    decay_mult: 1
  }
  param {
    lr_mult: 2
    decay_mult: 0
  }
  convolution_param {
    num_output: 512
    pad: 1
    kernel_size: 3
    weight_filler {
      type: "xavier"
    }
  }
}
layer {
  name: "relu5_1"
  type: "ReLU"
  bottom: "conv5_1"
  top: "conv5_1"
}
layer {
  name: "conv5_2"
  type: "Convolution"
  bottom: "conv5_1"
  top: "conv5_2"
  param {
    lr_mult: 1
    decay_mult: 1
  }
  param {
    lr_mult: 2
    decay_mult: 0
  }
  convolution_param {
    num_output: 512
    pad: 1
    kernel_size: 3
    weight_filler {
      type: "xavier"
    }
  }
}
layer {
  name: "relu5_2"
  type: "ReLU"
  bottom: "conv5_2"
  top: "conv5_2"
}
layer {
  name: "conv5_3"
  type: "Convolution"
  bottom: "conv5_2"
  top: "conv5_3"
  param {
    lr_mult: 1
    decay_mult: 1
  }
  param {
    lr_mult: 2
    decay_mult: 0
  }
  convolution_param {
    num_output: 512
    pad: 1
    kernel_size: 3
    weight_filler {
      type: "xavier"
    }
  }
}
layer {
  name: "relu5_3"
  type: "ReLU"
  bottom: "conv5_3"
  top: "conv5_3"
}
layer {
  name: "pool5"
  type: "Pooling"
  bottom: "conv5_3"
  top: "pool5"
  pooling_param {
    pool: MAX
    kernel_size: 2
    stride: 2
  }
}
layer {
  name: "fc6"
  type: "InnerProduct"
  bottom: "pool5"
  top: "fc6"
  param {
    lr_mult: 1
    decay_mult: 1
  }
  param {
    lr_mult: 2
    decay_mult: 0
  }
  inner_product_param {
    num_output: 4096
    weight_filler {
      type: "xavier"
    }
  }
}
layer {
  name: "relu6"
  type: "ReLU"
  bottom: "fc6"
  top: "fc6"
}
layer {
  name: "drop6"
  type: "Dropout"
  bottom: "fc6"
  top: "fc6"
  dropout_param {
    dropout_ratio: 0.9
  }
}
layer {
  name: "fc7"
  type: "InnerProduct"
  bottom: "fc6"
  top: "fc7"
  param {
    lr_mult: 1
    decay_mult: 1
  }
  param {
    lr_mult: 2
    decay_mult: 0
  }
  inner_product_param {
    num_output: 4096
    weight_filler {
      type: "xavier"
    }
  }
}
layer {
  name: "relu7"
  type: "ReLU"
  bottom: "fc7"
  top: "fc7"
}
layer {
  name: "drop7"
  type: "Dropout"
  bottom: "fc7"
  top: "fc7"
  dropout_param {
    dropout_ratio: 0.8
  }
}
layer {
  name: "fc8-1"
  type: "InnerProduct"
  bottom: "fc7"
  top: "fc8-1"
  param {
    lr_mult: 1
    decay_mult: 1
  }
  param {
    lr_mult: 2
    decay_mult: 0
  }
  inner_product_param {
    num_output: 101
    weight_filler {
      type: "gaussian"
      std: 0.001
    }
    bias_filler {
      type: "constant"
      value: 0
    }
  }
}
layer {
  name: "loss"
  type: "SoftmaxWithLoss"
  bottom: "fc8-1"
  bottom: "label_local"
  include {
    phase: TRAIN
  }
}
I0811 15:36:38.207187  5951 layer_factory.hpp:75] Creating layer data
I0811 15:36:38.207236  5951 net.cpp:99] Creating Layer data
I0811 15:36:38.207248  5951 net.cpp:409] data -> data
I0811 15:36:38.207278  5951 net.cpp:409] data -> label_local
I0811 15:36:38.207291  5951 net.cpp:131] Setting up data
I0811 15:36:38.207304  5951 video_data_layer.cpp:34] Opening file: /home/jiri/Lake/HAR/datasets/UCF-101/train-1-rnd.txt
I0811 15:36:38.214262  5951 video_data_layer.cpp:50] A total of 9537 videos.
I0811 15:36:38.227602  5951 video_data_layer.cpp:85] output data size: 64,20,224,224
I0811 15:36:38.562140  5951 net.cpp:140] Top shape: 64 20 224 224 (64225280)
I0811 15:36:38.562175  5951 net.cpp:140] Top shape: 64 1 1 1 (64)
I0811 15:36:38.562186  5951 layer_factory.hpp:75] Creating layer conv1_1
I0811 15:36:38.562204  5951 net.cpp:99] Creating Layer conv1_1
I0811 15:36:38.562212  5951 net.cpp:453] conv1_1 <- data
I0811 15:36:38.562225  5951 net.cpp:409] conv1_1 -> conv1_1
I0811 15:36:38.562238  5951 net.cpp:131] Setting up conv1_1
I0811 15:36:38.638002  5951 net.cpp:140] Top shape: 64 64 224 224 (205520896)
I0811 15:36:38.638042  5951 layer_factory.hpp:75] Creating layer relu1_1
I0811 15:36:38.638057  5951 net.cpp:99] Creating Layer relu1_1
I0811 15:36:38.638064  5951 net.cpp:453] relu1_1 <- conv1_1
I0811 15:36:38.638072  5951 net.cpp:396] relu1_1 -> conv1_1 (in-place)
I0811 15:36:38.638082  5951 net.cpp:131] Setting up relu1_1
I0811 15:36:38.638141  5951 net.cpp:140] Top shape: 64 64 224 224 (205520896)
I0811 15:36:38.638149  5951 layer_factory.hpp:75] Creating layer conv1_2
I0811 15:36:38.638160  5951 net.cpp:99] Creating Layer conv1_2
I0811 15:36:38.638165  5951 net.cpp:453] conv1_2 <- conv1_1
I0811 15:36:38.638173  5951 net.cpp:409] conv1_2 -> conv1_2
I0811 15:36:38.638182  5951 net.cpp:131] Setting up conv1_2
I0811 15:36:38.638695  5951 net.cpp:140] Top shape: 64 64 224 224 (205520896)
I0811 15:36:38.638713  5951 layer_factory.hpp:75] Creating layer relu1_2
I0811 15:36:38.638722  5951 net.cpp:99] Creating Layer relu1_2
I0811 15:36:38.638728  5951 net.cpp:453] relu1_2 <- conv1_2
I0811 15:36:38.638736  5951 net.cpp:396] relu1_2 -> conv1_2 (in-place)
I0811 15:36:38.638742  5951 net.cpp:131] Setting up relu1_2
I0811 15:36:38.638929  5951 net.cpp:140] Top shape: 64 64 224 224 (205520896)
I0811 15:36:38.638943  5951 layer_factory.hpp:75] Creating layer pool1
I0811 15:36:38.638955  5951 net.cpp:99] Creating Layer pool1
I0811 15:36:38.638962  5951 net.cpp:453] pool1 <- conv1_2
I0811 15:36:38.638969  5951 net.cpp:409] pool1 -> pool1
I0811 15:36:38.638978  5951 net.cpp:131] Setting up pool1
I0811 15:36:38.639049  5951 net.cpp:140] Top shape: 64 64 112 112 (51380224)
I0811 15:36:38.639060  5951 layer_factory.hpp:75] Creating layer conv2_1
I0811 15:36:38.639068  5951 net.cpp:99] Creating Layer conv2_1
I0811 15:36:38.639073  5951 net.cpp:453] conv2_1 <- pool1
I0811 15:36:38.639081  5951 net.cpp:409] conv2_1 -> conv2_1
I0811 15:36:38.639088  5951 net.cpp:131] Setting up conv2_1
I0811 15:36:38.640127  5951 net.cpp:140] Top shape: 64 128 112 112 (102760448)
I0811 15:36:38.640147  5951 layer_factory.hpp:75] Creating layer relu2_1
I0811 15:36:38.640156  5951 net.cpp:99] Creating Layer relu2_1
I0811 15:36:38.640185  5951 net.cpp:453] relu2_1 <- conv2_1
I0811 15:36:38.640194  5951 net.cpp:396] relu2_1 -> conv2_1 (in-place)
I0811 15:36:38.640202  5951 net.cpp:131] Setting up relu2_1
I0811 15:36:38.640259  5951 net.cpp:140] Top shape: 64 128 112 112 (102760448)
I0811 15:36:38.640269  5951 layer_factory.hpp:75] Creating layer conv2_2
I0811 15:36:38.640278  5951 net.cpp:99] Creating Layer conv2_2
I0811 15:36:38.640285  5951 net.cpp:453] conv2_2 <- conv2_1
I0811 15:36:38.640291  5951 net.cpp:409] conv2_2 -> conv2_2
I0811 15:36:38.640300  5951 net.cpp:131] Setting up conv2_2
I0811 15:36:38.641335  5951 net.cpp:140] Top shape: 64 128 112 112 (102760448)
I0811 15:36:38.641352  5951 layer_factory.hpp:75] Creating layer relu2_2
I0811 15:36:38.641360  5951 net.cpp:99] Creating Layer relu2_2
I0811 15:36:38.641366  5951 net.cpp:453] relu2_2 <- conv2_2
I0811 15:36:38.641373  5951 net.cpp:396] relu2_2 -> conv2_2 (in-place)
I0811 15:36:38.641381  5951 net.cpp:131] Setting up relu2_2
I0811 15:36:38.641432  5951 net.cpp:140] Top shape: 64 128 112 112 (102760448)
I0811 15:36:38.641448  5951 layer_factory.hpp:75] Creating layer pool2
I0811 15:36:38.641456  5951 net.cpp:99] Creating Layer pool2
I0811 15:36:38.641463  5951 net.cpp:453] pool2 <- conv2_2
I0811 15:36:38.641469  5951 net.cpp:409] pool2 -> pool2
I0811 15:36:38.641475  5951 net.cpp:131] Setting up pool2
I0811 15:36:38.641646  5951 net.cpp:140] Top shape: 64 128 56 56 (25690112)
I0811 15:36:38.641660  5951 layer_factory.hpp:75] Creating layer conv3_1
I0811 15:36:38.641670  5951 net.cpp:99] Creating Layer conv3_1
I0811 15:36:38.641675  5951 net.cpp:453] conv3_1 <- pool2
I0811 15:36:38.641683  5951 net.cpp:409] conv3_1 -> conv3_1
I0811 15:36:38.641692  5951 net.cpp:131] Setting up conv3_1
I0811 15:36:38.644206  5951 net.cpp:140] Top shape: 64 256 56 56 (51380224)
I0811 15:36:38.644227  5951 layer_factory.hpp:75] Creating layer relu3_1
I0811 15:36:38.644237  5951 net.cpp:99] Creating Layer relu3_1
I0811 15:36:38.644243  5951 net.cpp:453] relu3_1 <- conv3_1
I0811 15:36:38.644249  5951 net.cpp:396] relu3_1 -> conv3_1 (in-place)
I0811 15:36:38.644256  5951 net.cpp:131] Setting up relu3_1
I0811 15:36:38.644325  5951 net.cpp:140] Top shape: 64 256 56 56 (51380224)
I0811 15:36:38.644335  5951 layer_factory.hpp:75] Creating layer conv3_2
I0811 15:36:38.644342  5951 net.cpp:99] Creating Layer conv3_2
I0811 15:36:38.644347  5951 net.cpp:453] conv3_2 <- conv3_1
I0811 15:36:38.644356  5951 net.cpp:409] conv3_2 -> conv3_2
I0811 15:36:38.644362  5951 net.cpp:131] Setting up conv3_2
I0811 15:36:38.648128  5951 net.cpp:140] Top shape: 64 256 56 56 (51380224)
I0811 15:36:38.648145  5951 layer_factory.hpp:75] Creating layer relu3_2
I0811 15:36:38.648154  5951 net.cpp:99] Creating Layer relu3_2
I0811 15:36:38.648159  5951 net.cpp:453] relu3_2 <- conv3_2
I0811 15:36:38.648165  5951 net.cpp:396] relu3_2 -> conv3_2 (in-place)
I0811 15:36:38.648172  5951 net.cpp:131] Setting up relu3_2
I0811 15:36:38.648228  5951 net.cpp:140] Top shape: 64 256 56 56 (51380224)
I0811 15:36:38.648236  5951 layer_factory.hpp:75] Creating layer conv3_3
I0811 15:36:38.648244  5951 net.cpp:99] Creating Layer conv3_3
I0811 15:36:38.648249  5951 net.cpp:453] conv3_3 <- conv3_2
I0811 15:36:38.648257  5951 net.cpp:409] conv3_3 -> conv3_3
I0811 15:36:38.648263  5951 net.cpp:131] Setting up conv3_3
I0811 15:36:38.652220  5951 net.cpp:140] Top shape: 64 256 56 56 (51380224)
I0811 15:36:38.652242  5951 layer_factory.hpp:75] Creating layer relu3_3
I0811 15:36:38.652253  5951 net.cpp:99] Creating Layer relu3_3
I0811 15:36:38.652261  5951 net.cpp:453] relu3_3 <- conv3_3
I0811 15:36:38.652267  5951 net.cpp:396] relu3_3 -> conv3_3 (in-place)
I0811 15:36:38.652274  5951 net.cpp:131] Setting up relu3_3
I0811 15:36:38.652446  5951 net.cpp:140] Top shape: 64 256 56 56 (51380224)
I0811 15:36:38.652459  5951 layer_factory.hpp:75] Creating layer pool3
I0811 15:36:38.652469  5951 net.cpp:99] Creating Layer pool3
I0811 15:36:38.652475  5951 net.cpp:453] pool3 <- conv3_3
I0811 15:36:38.652482  5951 net.cpp:409] pool3 -> pool3
I0811 15:36:38.652505  5951 net.cpp:131] Setting up pool3
I0811 15:36:38.652565  5951 net.cpp:140] Top shape: 64 256 28 28 (12845056)
I0811 15:36:38.652575  5951 layer_factory.hpp:75] Creating layer conv4_1
I0811 15:36:38.652582  5951 net.cpp:99] Creating Layer conv4_1
I0811 15:36:38.652588  5951 net.cpp:453] conv4_1 <- pool3
I0811 15:36:38.652595  5951 net.cpp:409] conv4_1 -> conv4_1
I0811 15:36:38.652602  5951 net.cpp:131] Setting up conv4_1
I0811 15:36:38.660085  5951 net.cpp:140] Top shape: 64 512 28 28 (25690112)
I0811 15:36:38.660115  5951 layer_factory.hpp:75] Creating layer relu4_1
I0811 15:36:38.660125  5951 net.cpp:99] Creating Layer relu4_1
I0811 15:36:38.660131  5951 net.cpp:453] relu4_1 <- conv4_1
I0811 15:36:38.660138  5951 net.cpp:396] relu4_1 -> conv4_1 (in-place)
I0811 15:36:38.660146  5951 net.cpp:131] Setting up relu4_1
I0811 15:36:38.660199  5951 net.cpp:140] Top shape: 64 512 28 28 (25690112)
I0811 15:36:38.660208  5951 layer_factory.hpp:75] Creating layer conv4_2
I0811 15:36:38.660218  5951 net.cpp:99] Creating Layer conv4_2
I0811 15:36:38.660223  5951 net.cpp:453] conv4_2 <- conv4_1
I0811 15:36:38.660229  5951 net.cpp:409] conv4_2 -> conv4_2
I0811 15:36:38.660238  5951 net.cpp:131] Setting up conv4_2
I0811 15:36:38.674480  5951 net.cpp:140] Top shape: 64 512 28 28 (25690112)
I0811 15:36:38.674516  5951 layer_factory.hpp:75] Creating layer relu4_2
I0811 15:36:38.674530  5951 net.cpp:99] Creating Layer relu4_2
I0811 15:36:38.674535  5951 net.cpp:453] relu4_2 <- conv4_2
I0811 15:36:38.674543  5951 net.cpp:396] relu4_2 -> conv4_2 (in-place)
I0811 15:36:38.674551  5951 net.cpp:131] Setting up relu4_2
I0811 15:36:38.674605  5951 net.cpp:140] Top shape: 64 512 28 28 (25690112)
I0811 15:36:38.674614  5951 layer_factory.hpp:75] Creating layer conv4_3
I0811 15:36:38.674624  5951 net.cpp:99] Creating Layer conv4_3
I0811 15:36:38.674629  5951 net.cpp:453] conv4_3 <- conv4_2
I0811 15:36:38.674638  5951 net.cpp:409] conv4_3 -> conv4_3
I0811 15:36:38.674645  5951 net.cpp:131] Setting up conv4_3
I0811 15:36:38.688771  5951 net.cpp:140] Top shape: 64 512 28 28 (25690112)
I0811 15:36:38.688802  5951 layer_factory.hpp:75] Creating layer relu4_3
I0811 15:36:38.688813  5951 net.cpp:99] Creating Layer relu4_3
I0811 15:36:38.688822  5951 net.cpp:453] relu4_3 <- conv4_3
I0811 15:36:38.688829  5951 net.cpp:396] relu4_3 -> conv4_3 (in-place)
I0811 15:36:38.688838  5951 net.cpp:131] Setting up relu4_3
I0811 15:36:38.689019  5951 net.cpp:140] Top shape: 64 512 28 28 (25690112)
I0811 15:36:38.689033  5951 layer_factory.hpp:75] Creating layer pool4
I0811 15:36:38.689043  5951 net.cpp:99] Creating Layer pool4
I0811 15:36:38.689050  5951 net.cpp:453] pool4 <- conv4_3
I0811 15:36:38.689057  5951 net.cpp:409] pool4 -> pool4
I0811 15:36:38.689065  5951 net.cpp:131] Setting up pool4
I0811 15:36:38.689127  5951 net.cpp:140] Top shape: 64 512 14 14 (6422528)
I0811 15:36:38.689137  5951 layer_factory.hpp:75] Creating layer conv5_1
I0811 15:36:38.689147  5951 net.cpp:99] Creating Layer conv5_1
I0811 15:36:38.689152  5951 net.cpp:453] conv5_1 <- pool4
I0811 15:36:38.689159  5951 net.cpp:409] conv5_1 -> conv5_1
I0811 15:36:38.689170  5951 net.cpp:131] Setting up conv5_1
I0811 15:36:38.703317  5951 net.cpp:140] Top shape: 64 512 14 14 (6422528)
I0811 15:36:38.703348  5951 layer_factory.hpp:75] Creating layer relu5_1
I0811 15:36:38.703361  5951 net.cpp:99] Creating Layer relu5_1
I0811 15:36:38.703367  5951 net.cpp:453] relu5_1 <- conv5_1
I0811 15:36:38.703375  5951 net.cpp:396] relu5_1 -> conv5_1 (in-place)
I0811 15:36:38.703385  5951 net.cpp:131] Setting up relu5_1
I0811 15:36:38.703438  5951 net.cpp:140] Top shape: 64 512 14 14 (6422528)
I0811 15:36:38.703449  5951 layer_factory.hpp:75] Creating layer conv5_2
I0811 15:36:38.703457  5951 net.cpp:99] Creating Layer conv5_2
I0811 15:36:38.703462  5951 net.cpp:453] conv5_2 <- conv5_1
I0811 15:36:38.703469  5951 net.cpp:409] conv5_2 -> conv5_2
I0811 15:36:38.703477  5951 net.cpp:131] Setting up conv5_2
I0811 15:36:38.717707  5951 net.cpp:140] Top shape: 64 512 14 14 (6422528)
I0811 15:36:38.717741  5951 layer_factory.hpp:75] Creating layer relu5_2
I0811 15:36:38.717775  5951 net.cpp:99] Creating Layer relu5_2
I0811 15:36:38.717783  5951 net.cpp:453] relu5_2 <- conv5_2
I0811 15:36:38.717792  5951 net.cpp:396] relu5_2 -> conv5_2 (in-place)
I0811 15:36:38.717800  5951 net.cpp:131] Setting up relu5_2
I0811 15:36:38.717857  5951 net.cpp:140] Top shape: 64 512 14 14 (6422528)
I0811 15:36:38.717867  5951 layer_factory.hpp:75] Creating layer conv5_3
I0811 15:36:38.717877  5951 net.cpp:99] Creating Layer conv5_3
I0811 15:36:38.717882  5951 net.cpp:453] conv5_3 <- conv5_2
I0811 15:36:38.717890  5951 net.cpp:409] conv5_3 -> conv5_3
I0811 15:36:38.717898  5951 net.cpp:131] Setting up conv5_3
I0811 15:36:38.732182  5951 net.cpp:140] Top shape: 64 512 14 14 (6422528)
I0811 15:36:38.732211  5951 layer_factory.hpp:75] Creating layer relu5_3
I0811 15:36:38.732224  5951 net.cpp:99] Creating Layer relu5_3
I0811 15:36:38.732231  5951 net.cpp:453] relu5_3 <- conv5_3
I0811 15:36:38.732239  5951 net.cpp:396] relu5_3 -> conv5_3 (in-place)
I0811 15:36:38.732247  5951 net.cpp:131] Setting up relu5_3
I0811 15:36:38.732424  5951 net.cpp:140] Top shape: 64 512 14 14 (6422528)
I0811 15:36:38.732436  5951 layer_factory.hpp:75] Creating layer pool5
I0811 15:36:38.732445  5951 net.cpp:99] Creating Layer pool5
I0811 15:36:38.732451  5951 net.cpp:453] pool5 <- conv5_3
I0811 15:36:38.732460  5951 net.cpp:409] pool5 -> pool5
I0811 15:36:38.732467  5951 net.cpp:131] Setting up pool5
I0811 15:36:38.732524  5951 net.cpp:140] Top shape: 64 512 7 7 (1605632)
I0811 15:36:38.732532  5951 layer_factory.hpp:75] Creating layer fc6
I0811 15:36:38.732545  5951 net.cpp:99] Creating Layer fc6
I0811 15:36:38.732550  5951 net.cpp:453] fc6 <- pool5
I0811 15:36:38.732558  5951 net.cpp:409] fc6 -> fc6
I0811 15:36:38.732568  5951 net.cpp:131] Setting up fc6
I0811 15:36:39.333580  5951 net.cpp:140] Top shape: 64 4096 (262144)
I0811 15:36:39.333612  5951 layer_factory.hpp:75] Creating layer relu6
I0811 15:36:39.333624  5951 net.cpp:99] Creating Layer relu6
I0811 15:36:39.333631  5951 net.cpp:453] relu6 <- fc6
I0811 15:36:39.333638  5951 net.cpp:396] relu6 -> fc6 (in-place)
I0811 15:36:39.333647  5951 net.cpp:131] Setting up relu6
I0811 15:36:39.333722  5951 net.cpp:140] Top shape: 64 4096 (262144)
I0811 15:36:39.333731  5951 layer_factory.hpp:75] Creating layer drop6
I0811 15:36:39.333739  5951 net.cpp:99] Creating Layer drop6
I0811 15:36:39.333745  5951 net.cpp:453] drop6 <- fc6
I0811 15:36:39.333751  5951 net.cpp:396] drop6 -> fc6 (in-place)
I0811 15:36:39.333760  5951 net.cpp:131] Setting up drop6
I0811 15:36:39.333768  5951 net.cpp:140] Top shape: 64 4096 (262144)
I0811 15:36:39.333773  5951 layer_factory.hpp:75] Creating layer fc7
I0811 15:36:39.333782  5951 net.cpp:99] Creating Layer fc7
I0811 15:36:39.333787  5951 net.cpp:453] fc7 <- fc6
I0811 15:36:39.333793  5951 net.cpp:409] fc7 -> fc7
I0811 15:36:39.333801  5951 net.cpp:131] Setting up fc7
I0811 15:36:39.429711  5951 net.cpp:140] Top shape: 64 4096 (262144)
I0811 15:36:39.429743  5951 layer_factory.hpp:75] Creating layer relu7
I0811 15:36:39.429754  5951 net.cpp:99] Creating Layer relu7
I0811 15:36:39.429759  5951 net.cpp:453] relu7 <- fc7
I0811 15:36:39.429769  5951 net.cpp:396] relu7 -> fc7 (in-place)
I0811 15:36:39.429776  5951 net.cpp:131] Setting up relu7
I0811 15:36:39.429854  5951 net.cpp:140] Top shape: 64 4096 (262144)
I0811 15:36:39.429863  5951 layer_factory.hpp:75] Creating layer drop7
I0811 15:36:39.429870  5951 net.cpp:99] Creating Layer drop7
I0811 15:36:39.429875  5951 net.cpp:453] drop7 <- fc7
I0811 15:36:39.429882  5951 net.cpp:396] drop7 -> fc7 (in-place)
I0811 15:36:39.429888  5951 net.cpp:131] Setting up drop7
I0811 15:36:39.429895  5951 net.cpp:140] Top shape: 64 4096 (262144)
I0811 15:36:39.429900  5951 layer_factory.hpp:75] Creating layer fc8-1
I0811 15:36:39.429909  5951 net.cpp:99] Creating Layer fc8-1
I0811 15:36:39.429914  5951 net.cpp:453] fc8-1 <- fc7
I0811 15:36:39.429921  5951 net.cpp:409] fc8-1 -> fc8-1
I0811 15:36:39.429930  5951 net.cpp:131] Setting up fc8-1
I0811 15:36:39.439208  5951 net.cpp:140] Top shape: 64 101 (6464)
I0811 15:36:39.439246  5951 layer_factory.hpp:75] Creating layer loss
I0811 15:36:39.439256  5951 net.cpp:99] Creating Layer loss
I0811 15:36:39.439262  5951 net.cpp:453] loss <- fc8-1
I0811 15:36:39.439268  5951 net.cpp:453] loss <- label_local
I0811 15:36:39.439276  5951 net.cpp:409] loss -> (automatic)
I0811 15:36:39.439283  5951 net.cpp:131] Setting up loss
I0811 15:36:39.439291  5951 layer_factory.hpp:75] Creating layer loss
…
    mean_value: 128
    mean_value: 128
    mean_value: 128
    mean_value: 128
    mean_value: 128
    mean_value: 128
    mean_value: 128
    mean_value: 128
    mean_value: 128
    mean_value: 128
    mean_value: 128
    mean_value: 128
    mean_value: 128
    mean_value: 128
    mean_value: 128
    mean_value: 128
    mean_value: 128
    mean_value: 128
    fix_crop: true
    is_flow: true
  }
  video_data_param {
    source: "/home/jiri/Lake/HAR/datasets/UCF-101/val-1-rnd.txt"
    batch_size: 5
    new_length: 10
    num_segments: 1
    modality: FLOW
  }
}
layer {
  name: "conv1_1"
  type: "Convolution"
  bottom: "data"
  top: "conv1_1"
  param {
    lr_mult: 1
    decay_mult: 1
  }
  param {
    lr_mult: 2
    decay_mult: 0
  }
  convolution_param {
    num_output: 64
    pad: 1
    kernel_size: 3
    weight_filler {
      type: "xavier"
    }
  }
}
layer {
  name: "relu1_1"
  type: "ReLU"
  bottom: "conv1_1"
  top: "conv1_1"
}
layer {
  name: "conv1_2"
  type: "Convolution"
  bottom: "conv1_1"
  top: "conv1_2"
  param {
    lr_mult: 1
    decay_mult: 1
  }
  param {
    lr_mult: 2
    decay_mult: 0
  }
  convolution_param {
    num_output: 64
    pad: 1
    kernel_size: 3
    weight_filler {
      type: "xavier"
    }
  }
}
layer {
  name: "relu1_2"
  type: "ReLU"
  bottom: "conv1_2"
  top: "conv1_2"
}
layer {
  name: "pool1"
  type: "Pooling"
  bottom: "conv1_2"
  top: "pool1"
  pooling_param {
    pool: MAX
    kernel_size: 2
    stride: 2
  }
}
layer {
  name: "conv2_1"
  type: "Convolution"
  bottom: "pool1"
  top: "conv2_1"
  param {
    lr_mult: 1
    decay_mult: 1
  }
  param {
    lr_mult: 2
    decay_mult: 0
  }
  convolution_param {
    num_output: 128
    pad: 1
    kernel_size: 3
    weight_filler {
      type: "xavier"
    }
  }
}
layer {
  name: "relu2_1"
  type: "ReLU"
  bottom: "conv2_1"
  top: "conv2_1"
}
layer {
  name: "conv2_2"
  type: "Convolution"
  bottom: "conv2_1"
  top: "conv2_2"
  param {
    lr_mult: 1
    decay_mult: 1
  }
  param {
    lr_mult: 2
    decay_mult: 0
  }
  convolution_param {
    num_output: 128
    pad: 1
    kernel_size: 3
    weight_filler {
      type: "xavier"
    }
  }
}
layer {
  name: "relu2_2"
  type: "ReLU"
  bottom: "conv2_2"
  top: "conv2_2"
}
layer {
  name: "pool2"
  type: "Pooling"
  bottom: "conv2_2"
  top: "pool2"
  pooling_param {
    pool: MAX
    kernel_size: 2
    stride: 2
  }
}
layer {
  name: "conv3_1"
  type: "Convolution"
  bottom: "pool2"
  top: "conv3_1"
  param {
    lr_mult: 1
    decay_mult: 1
  }
  param {
    lr_mult: 2
    decay_mult: 0
  }
  convolution_param {
    num_output: 256
    pad: 1
    kernel_size: 3
    weight_filler {
      type: "xavier"
    }
  }
}
layer {
  name: "relu3_1"
  type: "ReLU"
  bottom: "conv3_1"
  top: "conv3_1"
}
layer {
  name: "conv3_2"
  type: "Convolution"
  bottom: "conv3_1"
  top: "conv3_2"
  param {
    lr_mult: 1
    decay_mult: 1
  }
  param {
    lr_mult: 2
    decay_mult: 0
  }
  convolution_param {
    num_output: 256
    pad: 1
    kernel_size: 3
    weight_filler {
      type: "xavier"
    }
  }
}
layer {
  name: "relu3_2"
  type: "ReLU"
  bottom: "conv3_2"
  top: "conv3_2"
}
layer {
  name: "conv3_3"
  type: "Convolution"
  bottom: "conv3_2"
  top: "conv3_3"
  param {
    lr_mult: 1
    decay_mult: 1
  }
  param {
    lr_mult: 2
    decay_mult: 0
  }
  convolution_param {
    num_output: 256
    pad: 1
    kernel_size: 3
    weight_filler {
      type: "xavier"
    }
  }
}
layer {
  name: "relu3_3"
  type: "ReLU"
  bottom: "conv3_3"
  top: "conv3_3"
}
layer {
  name: "pool3"
  type: "Pooling"
  bottom: "conv3_3"
  top: "pool3"
  pooling_param {
    pool: MAX
    kernel_size: 2
    stride: 2
  }
}
layer {
  name: "conv4_1"
  type: "Convolution"
  bottom: "pool3"
  top: "conv4_1"
  param {
    lr_mult: 1
    decay_mult: 1
  }
  param {
    lr_mult: 2
    decay_mult: 0
  }
  convolution_param {
    num_output: 512
    pad: 1
    kernel_size: 3
    weight_filler {
      type: "xavier"
    }
  }
}
layer {
  name: "relu4_1"
  type: "ReLU"
  bottom: "conv4_1"
  top: "conv4_1"
}
layer {
  name: "conv4_2"
  type: "Convolution"
  bottom: "conv4_1"
  top: "conv4_2"
  param {
    lr_mult: 1
    decay_mult: 1
  }
  param {
    lr_mult: 2
    decay_mult: 0
  }
  convolution_param {
    num_output: 512
    pad: 1
    kernel_size: 3
    weight_filler {
      type: "xavier"
    }
  }
}
layer {
  name: "relu4_2"
  type: "ReLU"
  bottom: "conv4_2"
  top: "conv4_2"
}
layer {
  name: "conv4_3"
  type: "Convolution"
  bottom: "conv4_2"
  top: "conv4_3"
  param {
    lr_mult: 1
    decay_mult: 1
  }
  param {
    lr_mult: 2
    decay_mult: 0
  }
  convolution_param {
    num_output: 512
    pad: 1
    kernel_size: 3
    weight_filler {
      type: "xavier"
    }
  }
}
layer {
  name: "relu4_3"
  type: "ReLU"
  bottom: "conv4_3"
  top: "conv4_3"
}
layer {
  name: "pool4"
  type: "Pooling"
  bottom: "conv4_3"
  top: "pool4"
  pooling_param {
    pool: MAX
    kernel_size: 2
    stride: 2
  }
}
layer {
  name: "conv5_1"
  type: "Convolution"
  bottom: "pool4"
  top: "conv5_1"
  param {
    lr_mult: 1
    decay_mult: 1
  }
  param {
    lr_mult: 2
    decay_mult: 0
  }
  convolution_param {
    num_output: 512
    pad: 1
    kernel_size: 3
    weight_filler {
      type: "xavier"
    }
  }
}
layer {
  name: "relu5_1"
  type: "ReLU"
  bottom: "conv5_1"
  top: "conv5_1"
}
layer {
  name: "conv5_2"
  type: "Convolution"
  bottom: "conv5_1"
  top: "conv5_2"
  param {
    lr_mult: 1
    decay_mult: 1
  }
  param {
    lr_mult: 2
    decay_mult: 0
  }
  convolution_param {
    num_output: 512
    pad: 1
    kernel_size: 3
    weight_filler {
      type: "xavier"
    }
  }
}
layer {
  name: "relu5_2"
  type: "ReLU"
  bottom: "conv5_2"
  top: "conv5_2"
}
layer {
  name: "conv5_3"
  type: "Convolution"
  bottom: "conv5_2"
  top: "conv5_3"
  param {
    lr_mult: 1
    decay_mult: 1
  }
  param {
    lr_mult: 2
    decay_mult: 0
  }
  convolution_param {
    num_output: 512
    pad: 1
    kernel_size: 3
    weight_filler {
      type: "xavier"
    }
  }
}
layer {
  name: "relu5_3"
  type: "ReLU"
  bottom: "conv5_3"
  top: "conv5_3"
}
layer {
  name: "pool5"
  type: "Pooling"
  bottom: "conv5_3"
  top: "pool5"
  pooling_param {
    pool: MAX
    kernel_size: 2
    stride: 2
  }
}
layer {
  name: "fc6"
  type: "InnerProduct"
  bottom: "pool5"
  top: "fc6"
  param {
    lr_mult: 1
    decay_mult: 1
  }
  param {
    lr_mult: 2
    decay_mult: 0
  }
  inner_product_param {
    num_output: 4096
    weight_filler {
      type: "xavier"
    }
  }
}
layer {
  name: "relu6"
  type: "ReLU"
  bottom: "fc6"
  top: "fc6"
}
layer {
  name: "drop6"
  type: "Dropout"
  bottom: "fc6"
  top: "fc6"
  dropout_param {
    dropout_ratio: 0.9
  }
}
layer {
  name: "fc7"
  type: "InnerProduct"
  bottom: "fc6"
  top: "fc7"
  param {
    lr_mult: 1
    decay_mult: 1
  }
  param {
    lr_mult: 2
    decay_mult: 0
  }
  inner_product_param {
    num_output: 4096
    weight_filler {
      type: "xavier"
    }
  }
}
layer {
  name: "relu7"
  type: "ReLU"
  bottom: "fc7"
  top: "fc7"
}
layer {
  name: "drop7"
  type: "Dropout"
  bottom: "fc7"
  top: "fc7"
  dropout_param {
    dropout_ratio: 0.8
  }
}
layer {
  name: "fc8-1"
  type: "InnerProduct"
  bottom: "fc7"
  top: "fc8-1"
  param {
    lr_mult: 1
    decay_mult: 1
  }
  param {
    lr_mult: 2
    decay_mult: 0
  }
  inner_product_param {
    num_output: 101
    weight_filler {
      type: "gaussian"
      std: 0.001
    }
    bias_filler {
      type: "constant"
      value: 0
    }
  }
}
layer {
  name: "loss"
  type: "SoftmaxWithLoss"
  bottom: "fc8-1"
  bottom: "label_local"
  top: "loss"
  include {
    phase: TEST
  }
}
layer {
  name: "accuracy"
  type: "Accuracy"
  bottom: "fc8-1"
  bottom: "label_local"
  top: "accuracy"
  include {
    phase: TEST
  }
}
I0811 15:36:39.442046  5951 layer_factory.hpp:75] Creating layer data
I0811 15:36:39.442061  5951 net.cpp:99] Creating Layer data
I0811 15:36:39.442067  5951 net.cpp:409] data -> data
I0811 15:36:39.442076  5951 net.cpp:409] data -> label_local
I0811 15:36:39.442085  5951 net.cpp:131] Setting up data
I0811 15:36:39.442090  5951 video_data_layer.cpp:34] Opening file: /home/jiri/Lake/HAR/datasets/UCF-101/val-1-rnd.txt
I0811 15:36:39.444206  5951 video_data_layer.cpp:50] A total of 3783 videos.
I0811 15:36:39.455332  5951 video_data_layer.cpp:85] output data size: 5,20,224,224
I0811 15:36:39.479209  5951 net.cpp:140] Top shape: 5 20 224 224 (5017600)
I0811 15:36:39.479236  5951 net.cpp:140] Top shape: 5 1 1 1 (5)
I0811 15:36:39.479244  5951 layer_factory.hpp:75] Creating layer label_local_data_1_split
I0811 15:36:39.479259  5951 net.cpp:99] Creating Layer label_local_data_1_split
I0811 15:36:39.479264  5951 net.cpp:453] label_local_data_1_split <- label_local
I0811 15:36:39.479274  5951 net.cpp:409] label_local_data_1_split -> label_local_data_1_split_0
I0811 15:36:39.479284  5951 net.cpp:409] label_local_data_1_split -> label_local_data_1_split_1
I0811 15:36:39.479290  5951 net.cpp:131] Setting up label_local_data_1_split
I0811 15:36:39.479298  5951 net.cpp:140] Top shape: 5 1 1 1 (5)
I0811 15:36:39.479305  5951 net.cpp:140] Top shape: 5 1 1 1 (5)
I0811 15:36:39.479310  5951 layer_factory.hpp:75] Creating layer conv1_1
I0811 15:36:39.479321  5951 net.cpp:99] Creating Layer conv1_1
I0811 15:36:39.479326  5951 net.cpp:453] conv1_1 <- data
I0811 15:36:39.479331  5951 net.cpp:409] conv1_1 -> conv1_1
I0811 15:36:39.479339  5951 net.cpp:131] Setting up conv1_1
I0811 15:36:39.479890  5951 net.cpp:140] Top shape: 5 64 224 224 (16056320)
I0811 15:36:39.479908  5951 layer_factory.hpp:75] Creating layer relu1_1
I0811 15:36:39.479917  5951 net.cpp:99] Creating Layer relu1_1
I0811 15:36:39.479923  5951 net.cpp:453] relu1_1 <- conv1_1
I0811 15:36:39.479928  5951 net.cpp:396] relu1_1 -> conv1_1 (in-place)
I0811 15:36:39.479935  5951 net.cpp:131] Setting up relu1_1
I0811 15:36:39.479989  5951 net.cpp:140] Top shape: 5 64 224 224 (16056320)
I0811 15:36:39.480003  5951 layer_factory.hpp:75] Creating layer conv1_2
I0811 15:36:39.480011  5951 net.cpp:99] Creating Layer conv1_2
I0811 15:36:39.480016  5951 net.cpp:453] conv1_2 <- conv1_1
I0811 15:36:39.480022  5951 net.cpp:409] conv1_2 -> conv1_2
I0811 15:36:39.480031  5951 net.cpp:131] Setting up conv1_2
I0811 15:36:39.480876  5951 net.cpp:140] Top shape: 5 64 224 224 (16056320)
I0811 15:36:39.480893  5951 layer_factory.hpp:75] Creating layer relu1_2
I0811 15:36:39.480901  5951 net.cpp:99] Creating Layer relu1_2
I0811 15:36:39.480906  5951 net.cpp:453] relu1_2 <- conv1_2
I0811 15:36:39.480914  5951 net.cpp:396] relu1_2 -> conv1_2 (in-place)
I0811 15:36:39.480922  5951 net.cpp:131] Setting up relu1_2
I0811 15:36:39.482549  5951 net.cpp:140] Top shape: 5 64 224 224 (16056320)
I0811 15:36:39.482560  5951 layer_factory.hpp:75] Creating layer pool1
I0811 15:36:39.482568  5951 net.cpp:99] Creating Layer pool1
I0811 15:36:39.482573  5951 net.cpp:453] pool1 <- conv1_2
I0811 15:36:39.482580  5951 net.cpp:409] pool1 -> pool1
I0811 15:36:39.482588  5951 net.cpp:131] Setting up pool1
I0811 15:36:39.482763  5951 net.cpp:140] Top shape: 5 64 112 112 (4014080)
I0811 15:36:39.482775  5951 layer_factory.hpp:75] Creating layer conv2_1
I0811 15:36:39.482784  5951 net.cpp:99] Creating Layer conv2_1
I0811 15:36:39.482789  5951 net.cpp:453] conv2_1 <- pool1
I0811 15:36:39.482795  5951 net.cpp:409] conv2_1 -> conv2_1
I0811 15:36:39.482803  5951 net.cpp:131] Setting up conv2_1
I0811 15:36:39.483793  5951 net.cpp:140] Top shape: 5 128 112 112 (8028160)
I0811 15:36:39.483811  5951 layer_factory.hpp:75] Creating layer relu2_1
I0811 15:36:39.483820  5951 net.cpp:99] Creating Layer relu2_1
I0811 15:36:39.483825  5951 net.cpp:453] relu2_1 <- conv2_1
I0811 15:36:39.483851  5951 net.cpp:396] relu2_1 -> conv2_1 (in-place)
I0811 15:36:39.483858  5951 net.cpp:131] Setting up relu2_1
I0811 15:36:39.483912  5951 net.cpp:140] Top shape: 5 128 112 112 (8028160)
I0811 15:36:39.483921  5951 layer_factory.hpp:75] Creating layer conv2_2
I0811 15:36:39.483928  5951 net.cpp:99] Creating Layer conv2_2
I0811 15:36:39.483933  5951 net.cpp:453] conv2_2 <- conv2_1
I0811 15:36:39.483939  5951 net.cpp:409] conv2_2 -> conv2_2
I0811 15:36:39.483949  5951 net.cpp:131] Setting up conv2_2
I0811 15:36:39.484935  5951 net.cpp:140] Top shape: 5 128 112 112 (8028160)
I0811 15:36:39.484949  5951 layer_factory.hpp:75] Creating layer relu2_2
I0811 15:36:39.484957  5951 net.cpp:99] Creating Layer relu2_2
I0811 15:36:39.484962  5951 net.cpp:453] relu2_2 <- conv2_2
I0811 15:36:39.484969  5951 net.cpp:396] relu2_2 -> conv2_2 (in-place)
I0811 15:36:39.484976  5951 net.cpp:131] Setting up relu2_2
I0811 15:36:39.485024  5951 net.cpp:140] Top shape: 5 128 112 112 (8028160)
I0811 15:36:39.485031  5951 layer_factory.hpp:75] Creating layer pool2
I0811 15:36:39.485038  5951 net.cpp:99] Creating Layer pool2
I0811 15:36:39.485044  5951 net.cpp:453] pool2 <- conv2_2
I0811 15:36:39.485049  5951 net.cpp:409] pool2 -> pool2
I0811 15:36:39.485055  5951 net.cpp:131] Setting up pool2
I0811 15:36:39.485107  5951 net.cpp:140] Top shape: 5 128 56 56 (2007040)
I0811 15:36:39.485115  5951 layer_factory.hpp:75] Creating layer conv3_1
I0811 15:36:39.485121  5951 net.cpp:99] Creating Layer conv3_1
I0811 15:36:39.485126  5951 net.cpp:453] conv3_1 <- pool2
I0811 15:36:39.485132  5951 net.cpp:409] conv3_1 -> conv3_1
I0811 15:36:39.485139  5951 net.cpp:131] Setting up conv3_1
I0811 15:36:39.487202  5951 net.cpp:140] Top shape: 5 256 56 56 (4014080)
I0811 15:36:39.487220  5951 layer_factory.hpp:75] Creating layer relu3_1
I0811 15:36:39.487227  5951 net.cpp:99] Creating Layer relu3_1
I0811 15:36:39.487233  5951 net.cpp:453] relu3_1 <- conv3_1
I0811 15:36:39.487239  5951 net.cpp:396] relu3_1 -> conv3_1 (in-place)
I0811 15:36:39.487246  5951 net.cpp:131] Setting up relu3_1
I0811 15:36:39.487411  5951 net.cpp:140] Top shape: 5 256 56 56 (4014080)
I0811 15:36:39.487421  5951 layer_factory.hpp:75] Creating layer conv3_2
I0811 15:36:39.487429  5951 net.cpp:99] Creating Layer conv3_2
I0811 15:36:39.487434  5951 net.cpp:453] conv3_2 <- conv3_1
I0811 15:36:39.487442  5951 net.cpp:409] conv3_2 -> conv3_2
I0811 15:36:39.487448  5951 net.cpp:131] Setting up conv3_2
I0811 15:36:39.491075  5951 net.cpp:140] Top shape: 5 256 56 56 (4014080)
I0811 15:36:39.491091  5951 layer_factory.hpp:75] Creating layer relu3_2
I0811 15:36:39.491098  5951 net.cpp:99] Creating Layer relu3_2
I0811 15:36:39.491104  5951 net.cpp:453] relu3_2 <- conv3_2
I0811 15:36:39.491111  5951 net.cpp:396] relu3_2 -> conv3_2 (in-place)
I0811 15:36:39.491119  5951 net.cpp:131] Setting up relu3_2
I0811 15:36:39.491171  5951 net.cpp:140] Top shape: 5 256 56 56 (4014080)
I0811 15:36:39.491178  5951 layer_factory.hpp:75] Creating layer conv3_3
I0811 15:36:39.491189  5951 net.cpp:99] Creating Layer conv3_3
I0811 15:36:39.491194  5951 net.cpp:453] conv3_3 <- conv3_2
I0811 15:36:39.491199  5951 net.cpp:409] conv3_3 -> conv3_3
I0811 15:36:39.491207  5951 net.cpp:131] Setting up conv3_3
I0811 15:36:39.495040  5951 net.cpp:140] Top shape: 5 256 56 56 (4014080)
I0811 15:36:39.495060  5951 layer_factory.hpp:75] Creating layer relu3_3
I0811 15:36:39.495069  5951 net.cpp:99] Creating Layer relu3_3
I0811 15:36:39.495074  5951 net.cpp:453] relu3_3 <- conv3_3
I0811 15:36:39.495081  5951 net.cpp:396] relu3_3 -> conv3_3 (in-place)
I0811 15:36:39.495090  5951 net.cpp:131] Setting up relu3_3
I0811 15:36:39.495141  5951 net.cpp:140] Top shape: 5 256 56 56 (4014080)
I0811 15:36:39.495148  5951 layer_factory.hpp:75] Creating layer pool3
I0811 15:36:39.495157  5951 net.cpp:99] Creating Layer pool3
I0811 15:36:39.495162  5951 net.cpp:453] pool3 <- conv3_3
I0811 15:36:39.495167  5951 net.cpp:409] pool3 -> pool3
I0811 15:36:39.495174  5951 net.cpp:131] Setting up pool3
I0811 15:36:39.495225  5951 net.cpp:140] Top shape: 5 256 28 28 (1003520)
I0811 15:36:39.495245  5951 layer_factory.hpp:75] Creating layer conv4_1
I0811 15:36:39.495254  5951 net.cpp:99] Creating Layer conv4_1
I0811 15:36:39.495260  5951 net.cpp:453] conv4_1 <- pool3
I0811 15:36:39.495265  5951 net.cpp:409] conv4_1 -> conv4_1
I0811 15:36:39.495272  5951 net.cpp:131] Setting up conv4_1
I0811 15:36:39.502146  5951 net.cpp:140] Top shape: 5 512 28 28 (2007040)
I0811 15:36:39.502173  5951 layer_factory.hpp:75] Creating layer relu4_1
I0811 15:36:39.502183  5951 net.cpp:99] Creating Layer relu4_1
I0811 15:36:39.502190  5951 net.cpp:453] relu4_1 <- conv4_1
I0811 15:36:39.502197  5951 net.cpp:396] relu4_1 -> conv4_1 (in-place)
I0811 15:36:39.502205  5951 net.cpp:131] Setting up relu4_1
I0811 15:36:39.502372  5951 net.cpp:140] Top shape: 5 512 28 28 (2007040)
I0811 15:36:39.502383  5951 layer_factory.hpp:75] Creating layer conv4_2
I0811 15:36:39.502393  5951 net.cpp:99] Creating Layer conv4_2
I0811 15:36:39.502398  5951 net.cpp:453] conv4_2 <- conv4_1
I0811 15:36:39.502405  5951 net.cpp:409] conv4_2 -> conv4_2
I0811 15:36:39.502413  5951 net.cpp:131] Setting up conv4_2
I0811 15:36:39.515993  5951 net.cpp:140] Top shape: 5 512 28 28 (2007040)
I0811 15:36:39.516026  5951 layer_factory.hpp:75] Creating layer relu4_2
I0811 15:36:39.516036  5951 net.cpp:99] Creating Layer relu4_2
I0811 15:36:39.516043  5951 net.cpp:453] relu4_2 <- conv4_2
I0811 15:36:39.516052  5951 net.cpp:396] relu4_2 -> conv4_2 (in-place)
I0811 15:36:39.516059  5951 net.cpp:131] Setting up relu4_2
I0811 15:36:39.516114  5951 net.cpp:140] Top shape: 5 512 28 28 (2007040)
I0811 15:36:39.516121  5951 layer_factory.hpp:75] Creating layer conv4_3
I0811 15:36:39.516130  5951 net.cpp:99] Creating Layer conv4_3
I0811 15:36:39.516135  5951 net.cpp:453] conv4_3 <- conv4_2
I0811 15:36:39.516141  5951 net.cpp:409] conv4_3 -> conv4_3
I0811 15:36:39.516151  5951 net.cpp:131] Setting up conv4_3
I0811 15:36:39.530107  5951 net.cpp:140] Top shape: 5 512 28 28 (2007040)
I0811 15:36:39.530133  5951 layer_factory.hpp:75] Creating layer relu4_3
I0811 15:36:39.530145  5951 net.cpp:99] Creating Layer relu4_3
I0811 15:36:39.530151  5951 net.cpp:453] relu4_3 <- conv4_3
I0811 15:36:39.530158  5951 net.cpp:396] relu4_3 -> conv4_3 (in-place)
I0811 15:36:39.530166  5951 net.cpp:131] Setting up relu4_3
I0811 15:36:39.530220  5951 net.cpp:140] Top shape: 5 512 28 28 (2007040)
I0811 15:36:39.530232  5951 layer_factory.hpp:75] Creating layer pool4
I0811 15:36:39.530241  5951 net.cpp:99] Creating Layer pool4
I0811 15:36:39.530246  5951 net.cpp:453] pool4 <- conv4_3
I0811 15:36:39.530252  5951 net.cpp:409] pool4 -> pool4
I0811 15:36:39.530259  5951 net.cpp:131] Setting up pool4
I0811 15:36:39.530431  5951 net.cpp:140] Top shape: 5 512 14 14 (501760)
I0811 15:36:39.530443  5951 layer_factory.hpp:75] Creating layer conv5_1
I0811 15:36:39.530452  5951 net.cpp:99] Creating Layer conv5_1
I0811 15:36:39.530458  5951 net.cpp:453] conv5_1 <- pool4
I0811 15:36:39.530464  5951 net.cpp:409] conv5_1 -> conv5_1
I0811 15:36:39.530472  5951 net.cpp:131] Setting up conv5_1
I0811 15:36:39.544117  5951 net.cpp:140] Top shape: 5 512 14 14 (501760)
I0811 15:36:39.544145  5951 layer_factory.hpp:75] Creating layer relu5_1
I0811 15:36:39.544155  5951 net.cpp:99] Creating Layer relu5_1
I0811 15:36:39.544162  5951 net.cpp:453] relu5_1 <- conv5_1
I0811 15:36:39.544169  5951 net.cpp:396] relu5_1 -> conv5_1 (in-place)
I0811 15:36:39.544178  5951 net.cpp:131] Setting up relu5_1
I0811 15:36:39.544231  5951 net.cpp:140] Top shape: 5 512 14 14 (501760)
I0811 15:36:39.544250  5951 layer_factory.hpp:75] Creating layer conv5_2
I0811 15:36:39.544260  5951 net.cpp:99] Creating Layer conv5_2
I0811 15:36:39.544265  5951 net.cpp:453] conv5_2 <- conv5_1
I0811 15:36:39.544272  5951 net.cpp:409] conv5_2 -> conv5_2
I0811 15:36:39.544281  5951 net.cpp:131] Setting up conv5_2
I0811 15:36:39.558250  5951 net.cpp:140] Top shape: 5 512 14 14 (501760)
I0811 15:36:39.558277  5951 layer_factory.hpp:75] Creating layer relu5_2
I0811 15:36:39.558289  5951 net.cpp:99] Creating Layer relu5_2
I0811 15:36:39.558312  5951 net.cpp:453] relu5_2 <- conv5_2
I0811 15:36:39.558320  5951 net.cpp:396] relu5_2 -> conv5_2 (in-place)
I0811 15:36:39.558329  5951 net.cpp:131] Setting up relu5_2
I0811 15:36:39.558384  5951 net.cpp:140] Top shape: 5 512 14 14 (501760)
I0811 15:36:39.558393  5951 layer_factory.hpp:75] Creating layer conv5_3
I0811 15:36:39.558403  5951 net.cpp:99] Creating Layer conv5_3
I0811 15:36:39.558408  5951 net.cpp:453] conv5_3 <- conv5_2
I0811 15:36:39.558414  5951 net.cpp:409] conv5_3 -> conv5_3
I0811 15:36:39.558423  5951 net.cpp:131] Setting up conv5_3
I0811 15:36:39.572108  5951 net.cpp:140] Top shape: 5 512 14 14 (501760)
I0811 15:36:39.572137  5951 layer_factory.hpp:75] Creating layer relu5_3
I0811 15:36:39.572149  5951 net.cpp:99] Creating Layer relu5_3
I0811 15:36:39.572155  5951 net.cpp:453] relu5_3 <- conv5_3
I0811 15:36:39.572162  5951 net.cpp:396] relu5_3 -> conv5_3 (in-place)
I0811 15:36:39.572170  5951 net.cpp:131] Setting up relu5_3
I0811 15:36:39.572223  5951 net.cpp:140] Top shape: 5 512 14 14 (501760)
I0811 15:36:39.572230  5951 layer_factory.hpp:75] Creating layer pool5
I0811 15:36:39.572243  5951 net.cpp:99] Creating Layer pool5
I0811 15:36:39.572248  5951 net.cpp:453] pool5 <- conv5_3
I0811 15:36:39.572257  5951 net.cpp:409] pool5 -> pool5
I0811 15:36:39.572264  5951 net.cpp:131] Setting up pool5
I0811 15:36:39.572435  5951 net.cpp:140] Top shape: 5 512 7 7 (125440)
I0811 15:36:39.572448  5951 layer_factory.hpp:75] Creating layer fc6
I0811 15:36:39.572456  5951 net.cpp:99] Creating Layer fc6
I0811 15:36:39.572463  5951 net.cpp:453] fc6 <- pool5
I0811 15:36:39.572468  5951 net.cpp:409] fc6 -> fc6
I0811 15:36:39.572476  5951 net.cpp:131] Setting up fc6
I0811 15:36:40.149158  5951 net.cpp:140] Top shape: 5 4096 (20480)
I0811 15:36:40.149186  5951 layer_factory.hpp:75] Creating layer relu6
I0811 15:36:40.149197  5951 net.cpp:99] Creating Layer relu6
I0811 15:36:40.149204  5951 net.cpp:453] relu6 <- fc6
I0811 15:36:40.149212  5951 net.cpp:396] relu6 -> fc6 (in-place)
I0811 15:36:40.149220  5951 net.cpp:131] Setting up relu6
I0811 15:36:40.149296  5951 net.cpp:140] Top shape: 5 4096 (20480)
I0811 15:36:40.149314  5951 layer_factory.hpp:75] Creating layer drop6
I0811 15:36:40.149322  5951 net.cpp:99] Creating Layer drop6
I0811 15:36:40.149327  5951 net.cpp:453] drop6 <- fc6
I0811 15:36:40.149333  5951 net.cpp:396] drop6 -> fc6 (in-place)
I0811 15:36:40.149341  5951 net.cpp:131] Setting up drop6
I0811 15:36:40.149348  5951 net.cpp:140] Top shape: 5 4096 (20480)
I0811 15:36:40.149354  5951 layer_factory.hpp:75] Creating layer fc7
I0811 15:36:40.149363  5951 net.cpp:99] Creating Layer fc7
I0811 15:36:40.149368  5951 net.cpp:453] fc7 <- fc6
I0811 15:36:40.149374  5951 net.cpp:409] fc7 -> fc7
I0811 15:36:40.149384  5951 net.cpp:131] Setting up fc7
I0811 15:36:40.243500  5951 net.cpp:140] Top shape: 5 4096 (20480)
I0811 15:36:40.243530  5951 layer_factory.hpp:75] Creating layer relu7
I0811 15:36:40.243541  5951 net.cpp:99] Creating Layer relu7
I0811 15:36:40.243547  5951 net.cpp:453] relu7 <- fc7
I0811 15:36:40.243556  5951 net.cpp:396] relu7 -> fc7 (in-place)
I0811 15:36:40.243563  5951 net.cpp:131] Setting up relu7
I0811 15:36:40.243641  5951 net.cpp:140] Top shape: 5 4096 (20480)
I0811 15:36:40.243659  5951 layer_factory.hpp:75] Creating layer drop7
I0811 15:36:40.243667  5951 net.cpp:99] Creating Layer drop7
I0811 15:36:40.243672  5951 net.cpp:453] drop7 <- fc7
I0811 15:36:40.243679  5951 net.cpp:396] drop7 -> fc7 (in-place)
I0811 15:36:40.243686  5951 net.cpp:131] Setting up drop7
I0811 15:36:40.243695  5951 net.cpp:140] Top shape: 5 4096 (20480)
I0811 15:36:40.243700  5951 layer_factory.hpp:75] Creating layer fc8-1
I0811 15:36:40.243710  5951 net.cpp:99] Creating Layer fc8-1
I0811 15:36:40.243715  5951 net.cpp:453] fc8-1 <- fc7
I0811 15:36:40.243721  5951 net.cpp:409] fc8-1 -> fc8-1
I0811 15:36:40.243729  5951 net.cpp:131] Setting up fc8-1
I0811 15:36:40.253002  5951 net.cpp:140] Top shape: 5 101 (505)
I0811 15:36:40.253021  5951 layer_factory.hpp:75] Creating layer fc8-1_fc8-1_0_split
I0811 15:36:40.253051  5951 net.cpp:99] Creating Layer fc8-1_fc8-1_0_split
I0811 15:36:40.253057  5951 net.cpp:453] fc8-1_fc8-1_0_split <- fc8-1
I0811 15:36:40.253064  5951 net.cpp:409] fc8-1_fc8-1_0_split -> fc8-1_fc8-1_0_split_0
I0811 15:36:40.253072  5951 net.cpp:409] fc8-1_fc8-1_0_split -> fc8-1_fc8-1_0_split_1
I0811 15:36:40.253080  5951 net.cpp:131] Setting up fc8-1_fc8-1_0_split
I0811 15:36:40.253087  5951 net.cpp:140] Top shape: 5 101 (505)
I0811 15:36:40.253093  5951 net.cpp:140] Top shape: 5 101 (505)
I0811 15:36:40.253098  5951 layer_factory.hpp:75] Creating layer loss
I0811 15:36:40.253105  5951 net.cpp:99] Creating Layer loss
I0811 15:36:40.253113  5951 net.cpp:453] loss <- fc8-1_fc8-1_0_split_0
I0811 15:36:40.253118  5951 net.cpp:453] loss <- label_local_data_1_split_0
I0811 15:36:40.253124  5951 net.cpp:409] loss -> loss
I0811 15:36:40.253131  5951 net.cpp:131] Setting up loss
I0811 15:36:40.253137  5951 layer_factory.hpp:75] Creating layer loss
…
