…
    mean_value: 128
    mean_value: 128
    mean_value: 128
    mean_value: 128
    mean_value: 128
    mean_value: 128
    mean_value: 128
    mean_value: 128
    mean_value: 128
    mean_value: 128
    mean_value: 128
    mean_value: 128
    fix_crop: true
    multi_scale: true
    scale_ratios: 1
    scale_ratios: 0.875
    scale_ratios: 0.75
    max_distort: 1
    is_flow: true
  }
  video_data_param {
    source: "/home/jiri/Lake/HAR/datasets/UCF-101/train-2-rnd.txt"
    batch_size: 64
    new_length: 10
    num_segments: 1
    modality: FLOW
  }
}
layer {
  name: "conv1_1"
  type: "Convolution"
  bottom: "data"
  top: "conv1_1"
  param {
    lr_mult: 1
    decay_mult: 1
  }
  param {
    lr_mult: 2
    decay_mult: 0
  }
  convolution_param {
    num_output: 64
    pad: 1
    kernel_size: 3
    weight_filler {
      type: "xavier"
    }
  }
}
layer {
  name: "relu1_1"
  type: "ReLU"
  bottom: "conv1_1"
  top: "conv1_1"
}
layer {
  name: "conv1_2"
  type: "Convolution"
  bottom: "conv1_1"
  top: "conv1_2"
  param {
    lr_mult: 1
    decay_mult: 1
  }
  param {
    lr_mult: 2
    decay_mult: 0
  }
  convolution_param {
    num_output: 64
    pad: 1
    kernel_size: 3
    weight_filler {
      type: "xavier"
    }
  }
}
layer {
  name: "relu1_2"
  type: "ReLU"
  bottom: "conv1_2"
  top: "conv1_2"
}
layer {
  name: "pool1"
  type: "Pooling"
  bottom: "conv1_2"
  top: "pool1"
  pooling_param {
    pool: MAX
    kernel_size: 2
    stride: 2
  }
}
layer {
  name: "conv2_1"
  type: "Convolution"
  bottom: "pool1"
  top: "conv2_1"
  param {
    lr_mult: 1
    decay_mult: 1
  }
  param {
    lr_mult: 2
    decay_mult: 0
  }
  convolution_param {
    num_output: 128
    pad: 1
    kernel_size: 3
    weight_filler {
      type: "xavier"
    }
  }
}
layer {
  name: "relu2_1"
  type: "ReLU"
  bottom: "conv2_1"
  top: "conv2_1"
}
layer {
  name: "conv2_2"
  type: "Convolution"
  bottom: "conv2_1"
  top: "conv2_2"
  param {
    lr_mult: 1
    decay_mult: 1
  }
  param {
    lr_mult: 2
    decay_mult: 0
  }
  convolution_param {
    num_output: 128
    pad: 1
    kernel_size: 3
    weight_filler {
      type: "xavier"
    }
  }
}
layer {
  name: "relu2_2"
  type: "ReLU"
  bottom: "conv2_2"
  top: "conv2_2"
}
layer {
  name: "pool2"
  type: "Pooling"
  bottom: "conv2_2"
  top: "pool2"
  pooling_param {
    pool: MAX
    kernel_size: 2
    stride: 2
  }
}
layer {
  name: "conv3_1"
  type: "Convolution"
  bottom: "pool2"
  top: "conv3_1"
  param {
    lr_mult: 1
    decay_mult: 1
  }
  param {
    lr_mult: 2
    decay_mult: 0
  }
  convolution_param {
    num_output: 256
    pad: 1
    kernel_size: 3
    weight_filler {
      type: "xavier"
    }
  }
}
layer {
  name: "relu3_1"
  type: "ReLU"
  bottom: "conv3_1"
  top: "conv3_1"
}
layer {
  name: "conv3_2"
  type: "Convolution"
  bottom: "conv3_1"
  top: "conv3_2"
  param {
    lr_mult: 1
    decay_mult: 1
  }
  param {
    lr_mult: 2
    decay_mult: 0
  }
  convolution_param {
    num_output: 256
    pad: 1
    kernel_size: 3
    weight_filler {
      type: "xavier"
    }
  }
}
layer {
  name: "relu3_2"
  type: "ReLU"
  bottom: "conv3_2"
  top: "conv3_2"
}
layer {
  name: "conv3_3"
  type: "Convolution"
  bottom: "conv3_2"
  top: "conv3_3"
  param {
    lr_mult: 1
    decay_mult: 1
  }
  param {
    lr_mult: 2
    decay_mult: 0
  }
  convolution_param {
    num_output: 256
    pad: 1
    kernel_size: 3
    weight_filler {
      type: "xavier"
    }
  }
}
layer {
  name: "relu3_3"
  type: "ReLU"
  bottom: "conv3_3"
  top: "conv3_3"
}
layer {
  name: "pool3"
  type: "Pooling"
  bottom: "conv3_3"
  top: "pool3"
  pooling_param {
    pool: MAX
    kernel_size: 2
    stride: 2
  }
}
layer {
  name: "conv4_1"
  type: "Convolution"
  bottom: "pool3"
  top: "conv4_1"
  param {
    lr_mult: 1
    decay_mult: 1
  }
  param {
    lr_mult: 2
    decay_mult: 0
  }
  convolution_param {
    num_output: 512
    pad: 1
    kernel_size: 3
    weight_filler {
      type: "xavier"
    }
  }
}
layer {
  name: "relu4_1"
  type: "ReLU"
  bottom: "conv4_1"
  top: "conv4_1"
}
layer {
  name: "conv4_2"
  type: "Convolution"
  bottom: "conv4_1"
  top: "conv4_2"
  param {
    lr_mult: 1
    decay_mult: 1
  }
  param {
    lr_mult: 2
    decay_mult: 0
  }
  convolution_param {
    num_output: 512
    pad: 1
    kernel_size: 3
    weight_filler {
      type: "xavier"
    }
  }
}
layer {
  name: "relu4_2"
  type: "ReLU"
  bottom: "conv4_2"
  top: "conv4_2"
}
layer {
  name: "conv4_3"
  type: "Convolution"
  bottom: "conv4_2"
  top: "conv4_3"
  param {
    lr_mult: 1
    decay_mult: 1
  }
  param {
    lr_mult: 2
    decay_mult: 0
  }
  convolution_param {
    num_output: 512
    pad: 1
    kernel_size: 3
    weight_filler {
      type: "xavier"
    }
  }
}
layer {
  name: "relu4_3"
  type: "ReLU"
  bottom: "conv4_3"
  top: "conv4_3"
}
layer {
  name: "pool4"
  type: "Pooling"
  bottom: "conv4_3"
  top: "pool4"
  pooling_param {
    pool: MAX
    kernel_size: 2
    stride: 2
  }
}
layer {
  name: "conv5_1"
  type: "Convolution"
  bottom: "pool4"
  top: "conv5_1"
  param {
    lr_mult: 1
    decay_mult: 1
  }
  param {
    lr_mult: 2
    decay_mult: 0
  }
  convolution_param {
    num_output: 512
    pad: 1
    kernel_size: 3
    weight_filler {
      type: "xavier"
    }
  }
}
layer {
  name: "relu5_1"
  type: "ReLU"
  bottom: "conv5_1"
  top: "conv5_1"
}
layer {
  name: "conv5_2"
  type: "Convolution"
  bottom: "conv5_1"
  top: "conv5_2"
  param {
    lr_mult: 1
    decay_mult: 1
  }
  param {
    lr_mult: 2
    decay_mult: 0
  }
  convolution_param {
    num_output: 512
    pad: 1
    kernel_size: 3
    weight_filler {
      type: "xavier"
    }
  }
}
layer {
  name: "relu5_2"
  type: "ReLU"
  bottom: "conv5_2"
  top: "conv5_2"
}
layer {
  name: "conv5_3"
  type: "Convolution"
  bottom: "conv5_2"
  top: "conv5_3"
  param {
    lr_mult: 1
    decay_mult: 1
  }
  param {
    lr_mult: 2
    decay_mult: 0
  }
  convolution_param {
    num_output: 512
    pad: 1
    kernel_size: 3
    weight_filler {
      type: "xavier"
    }
  }
}
layer {
  name: "relu5_3"
  type: "ReLU"
  bottom: "conv5_3"
  top: "conv5_3"
}
layer {
  name: "pool5"
  type: "Pooling"
  bottom: "conv5_3"
  top: "pool5_local"
  pooling_param {
    pool: MAX
    kernel_size: 2
    stride: 2
  }
}
layer {
  name: "gather"
  type: "Gather"
  bottom: "pool5_local"
  bottom: "label_local"
  top: "pool5"
  top: "label"
}
layer {
  name: "fc6"
  type: "InnerProduct"
  bottom: "pool5"
  top: "fc6"
  param {
    lr_mult: 1
    decay_mult: 1
  }
  param {
    lr_mult: 2
    decay_mult: 0
  }
  inner_product_param {
    num_output: 4096
    weight_filler {
      type: "xavier"
    }
  }
}
layer {
  name: "relu6"
  type: "ReLU"
  bottom: "fc6"
  top: "fc6"
}
layer {
  name: "drop6"
  type: "Dropout"
  bottom: "fc6"
  top: "fc6"
  dropout_param {
    dropout_ratio: 0.9
  }
}
layer {
  name: "fc7"
  type: "InnerProduct"
  bottom: "fc6"
  top: "fc7"
  param {
    lr_mult: 1
    decay_mult: 1
  }
  param {
    lr_mult: 2
    decay_mult: 0
  }
  inner_product_param {
    num_output: 4096
    weight_filler {
      type: "xavier"
    }
  }
}
layer {
  name: "relu7"
  type: "ReLU"
  bottom: "fc7"
  top: "fc7"
}
layer {
  name: "drop7"
  type: "Dropout"
  bottom: "fc7"
  top: "fc7"
  dropout_param {
    dropout_ratio: 0.8
  }
}
layer {
  name: "fc8-1"
  type: "InnerProduct"
  bottom: "fc7"
  top: "fc8-1"
  param {
    lr_mult: 1
    decay_mult: 1
  }
  param {
    lr_mult: 2
    decay_mult: 0
  }
  inner_product_param {
    num_output: 101
    weight_filler {
      type: "gaussian"
      std: 0.001
    }
    bias_filler {
      type: "constant"
      value: 0
    }
  }
}
layer {
  name: "loss"
  type: "SoftmaxWithLoss"
  bottom: "fc8-1"
  bottom: "label"
  include {
    phase: TRAIN
  }
}
I0808 03:06:23.337741  2843 layer_factory.hpp:74] Creating layer data
I0808 03:06:23.337765  2843 net.cpp:91] Creating Layer data
I0808 03:06:23.337770  2843 net.cpp:408] data -> data
I0808 03:06:23.337790  2843 net.cpp:408] data -> label_local
I0808 03:06:23.337797  2843 net.cpp:151] Setting up data
I0808 03:06:23.338188  2843 video_data_layer.cpp:34] Opening file: /home/jiri/Lake/HAR/datasets/UCF-101/train-2-rnd.txt
I0808 03:06:23.344897  2843 video_data_layer.cpp:50] A total of 9537 videos.
I0808 03:06:23.360802  2843 video_data_layer.cpp:76] output data size: 64,20,224,224
I0808 03:06:23.410491  2843 net.cpp:158] Top shape: 64 20 224 224 (64225280)
I0808 03:06:23.410526  2843 net.cpp:158] Top shape: 64 1 1 1 (64)
I0808 03:06:23.410537  2843 layer_factory.hpp:74] Creating layer conv1_1
I0808 03:06:23.410557  2843 net.cpp:91] Creating Layer conv1_1
I0808 03:06:23.410565  2843 net.cpp:452] conv1_1 <- data
I0808 03:06:23.410578  2843 net.cpp:119] This layer is inheriting previous layer's sync mode: 1
I0808 03:06:23.410588  2843 net.cpp:408] conv1_1 -> conv1_1
I0808 03:06:23.410606  2843 net.cpp:151] Setting up conv1_1
I0808 03:06:23.490870  2843 net.cpp:158] Top shape: 64 64 224 224 (205520896)
I0808 03:06:23.490903  2843 layer_factory.hpp:74] Creating layer relu1_1
I0808 03:06:23.490918  2843 net.cpp:91] Creating Layer relu1_1
I0808 03:06:23.490923  2843 net.cpp:452] relu1_1 <- conv1_1
I0808 03:06:23.490931  2843 net.cpp:119] This layer is inheriting previous layer's sync mode: 1
I0808 03:06:23.490936  2843 net.cpp:397] relu1_1 -> conv1_1 (in-place)
I0808 03:06:23.490944  2843 net.cpp:151] Setting up relu1_1
I0808 03:06:23.491030  2843 net.cpp:158] Top shape: 64 64 224 224 (205520896)
I0808 03:06:23.491040  2843 layer_factory.hpp:74] Creating layer conv1_2
I0808 03:06:23.491051  2843 net.cpp:91] Creating Layer conv1_2
I0808 03:06:23.491055  2843 net.cpp:452] conv1_2 <- conv1_1
I0808 03:06:23.491061  2843 net.cpp:119] This layer is inheriting previous layer's sync mode: 1
I0808 03:06:23.491067  2843 net.cpp:408] conv1_2 -> conv1_2
I0808 03:06:23.491076  2843 net.cpp:151] Setting up conv1_2
I0808 03:06:23.491719  2843 net.cpp:158] Top shape: 64 64 224 224 (205520896)
I0808 03:06:23.491737  2843 layer_factory.hpp:74] Creating layer relu1_2
I0808 03:06:23.491746  2843 net.cpp:91] Creating Layer relu1_2
I0808 03:06:23.491751  2843 net.cpp:452] relu1_2 <- conv1_2
I0808 03:06:23.491756  2843 net.cpp:119] This layer is inheriting previous layer's sync mode: 1
I0808 03:06:23.491762  2843 net.cpp:397] relu1_2 -> conv1_2 (in-place)
I0808 03:06:23.491768  2843 net.cpp:151] Setting up relu1_2
I0808 03:06:23.491967  2843 net.cpp:158] Top shape: 64 64 224 224 (205520896)
I0808 03:06:23.491977  2843 layer_factory.hpp:74] Creating layer pool1
I0808 03:06:23.491989  2843 net.cpp:91] Creating Layer pool1
I0808 03:06:23.491993  2843 net.cpp:452] pool1 <- conv1_2
I0808 03:06:23.491998  2843 net.cpp:119] This layer is inheriting previous layer's sync mode: 1
I0808 03:06:23.492003  2843 net.cpp:408] pool1 -> pool1
I0808 03:06:23.492045  2843 net.cpp:151] Setting up pool1
I0808 03:06:23.492127  2843 net.cpp:158] Top shape: 64 64 112 112 (51380224)
I0808 03:06:23.492136  2843 layer_factory.hpp:74] Creating layer conv2_1
I0808 03:06:23.492146  2843 net.cpp:91] Creating Layer conv2_1
I0808 03:06:23.492151  2843 net.cpp:452] conv2_1 <- pool1
I0808 03:06:23.492156  2843 net.cpp:119] This layer is inheriting previous layer's sync mode: 1
I0808 03:06:23.492161  2843 net.cpp:408] conv2_1 -> conv2_1
I0808 03:06:23.492169  2843 net.cpp:151] Setting up conv2_1
I0808 03:06:23.493048  2843 net.cpp:158] Top shape: 64 128 112 112 (102760448)
I0808 03:06:23.493065  2843 layer_factory.hpp:74] Creating layer relu2_1
I0808 03:06:23.493073  2843 net.cpp:91] Creating Layer relu2_1
I0808 03:06:23.493077  2843 net.cpp:452] relu2_1 <- conv2_1
I0808 03:06:23.493083  2843 net.cpp:119] This layer is inheriting previous layer's sync mode: 1
I0808 03:06:23.493087  2843 net.cpp:397] relu2_1 -> conv2_1 (in-place)
I0808 03:06:23.493093  2843 net.cpp:151] Setting up relu2_1
I0808 03:06:23.493155  2843 net.cpp:158] Top shape: 64 128 112 112 (102760448)
I0808 03:06:23.493163  2843 layer_factory.hpp:74] Creating layer conv2_2
I0808 03:06:23.493173  2843 net.cpp:91] Creating Layer conv2_2
I0808 03:06:23.493176  2843 net.cpp:452] conv2_2 <- conv2_1
I0808 03:06:23.493181  2843 net.cpp:119] This layer is inheriting previous layer's sync mode: 1
I0808 03:06:23.493186  2843 net.cpp:408] conv2_2 -> conv2_2
I0808 03:06:23.493193  2843 net.cpp:151] Setting up conv2_2
I0808 03:06:23.494536  2843 net.cpp:158] Top shape: 64 128 112 112 (102760448)
I0808 03:06:23.494552  2843 layer_factory.hpp:74] Creating layer relu2_2
I0808 03:06:23.494560  2843 net.cpp:91] Creating Layer relu2_2
I0808 03:06:23.494565  2843 net.cpp:452] relu2_2 <- conv2_2
I0808 03:06:23.494570  2843 net.cpp:119] This layer is inheriting previous layer's sync mode: 1
I0808 03:06:23.494575  2843 net.cpp:397] relu2_2 -> conv2_2 (in-place)
I0808 03:06:23.494581  2843 net.cpp:151] Setting up relu2_2
I0808 03:06:23.494643  2843 net.cpp:158] Top shape: 64 128 112 112 (102760448)
I0808 03:06:23.494652  2843 layer_factory.hpp:74] Creating layer pool2
I0808 03:06:23.494659  2843 net.cpp:91] Creating Layer pool2
I0808 03:06:23.494663  2843 net.cpp:452] pool2 <- conv2_2
I0808 03:06:23.494668  2843 net.cpp:119] This layer is inheriting previous layer's sync mode: 1
I0808 03:06:23.494674  2843 net.cpp:408] pool2 -> pool2
I0808 03:06:23.494680  2843 net.cpp:151] Setting up pool2
I0808 03:06:23.494887  2843 net.cpp:158] Top shape: 64 128 56 56 (25690112)
I0808 03:06:23.494899  2843 layer_factory.hpp:74] Creating layer conv3_1
I0808 03:06:23.494906  2843 net.cpp:91] Creating Layer conv3_1
I0808 03:06:23.494910  2843 net.cpp:452] conv3_1 <- pool2
I0808 03:06:23.494915  2843 net.cpp:119] This layer is inheriting previous layer's sync mode: 1
I0808 03:06:23.494920  2843 net.cpp:408] conv3_1 -> conv3_1
I0808 03:06:23.494930  2843 net.cpp:151] Setting up conv3_1
I0808 03:06:23.497622  2843 net.cpp:158] Top shape: 64 256 56 56 (51380224)
I0808 03:06:23.497648  2843 layer_factory.hpp:74] Creating layer relu3_1
I0808 03:06:23.497658  2843 net.cpp:91] Creating Layer relu3_1
I0808 03:06:23.497663  2843 net.cpp:452] relu3_1 <- conv3_1
I0808 03:06:23.497669  2843 net.cpp:119] This layer is inheriting previous layer's sync mode: 1
I0808 03:06:23.497674  2843 net.cpp:397] relu3_1 -> conv3_1 (in-place)
I0808 03:06:23.497683  2843 net.cpp:151] Setting up relu3_1
I0808 03:06:23.497750  2843 net.cpp:158] Top shape: 64 256 56 56 (51380224)
I0808 03:06:23.497757  2843 layer_factory.hpp:74] Creating layer conv3_2
I0808 03:06:23.497766  2843 net.cpp:91] Creating Layer conv3_2
I0808 03:06:23.497771  2843 net.cpp:452] conv3_2 <- conv3_1
I0808 03:06:23.497776  2843 net.cpp:119] This layer is inheriting previous layer's sync mode: 1
I0808 03:06:23.497782  2843 net.cpp:408] conv3_2 -> conv3_2
I0808 03:06:23.497791  2843 net.cpp:151] Setting up conv3_2
I0808 03:06:23.502873  2843 net.cpp:158] Top shape: 64 256 56 56 (51380224)
I0808 03:06:23.502903  2843 layer_factory.hpp:74] Creating layer relu3_2
I0808 03:06:23.502939  2843 net.cpp:91] Creating Layer relu3_2
I0808 03:06:23.502946  2843 net.cpp:452] relu3_2 <- conv3_2
I0808 03:06:23.502954  2843 net.cpp:119] This layer is inheriting previous layer's sync mode: 1
I0808 03:06:23.502959  2843 net.cpp:397] relu3_2 -> conv3_2 (in-place)
I0808 03:06:23.502967  2843 net.cpp:151] Setting up relu3_2
I0808 03:06:23.503031  2843 net.cpp:158] Top shape: 64 256 56 56 (51380224)
I0808 03:06:23.503041  2843 layer_factory.hpp:74] Creating layer conv3_3
I0808 03:06:23.503052  2843 net.cpp:91] Creating Layer conv3_3
I0808 03:06:23.503058  2843 net.cpp:452] conv3_3 <- conv3_2
I0808 03:06:23.503064  2843 net.cpp:119] This layer is inheriting previous layer's sync mode: 1
I0808 03:06:23.503072  2843 net.cpp:408] conv3_3 -> conv3_3
I0808 03:06:23.503080  2843 net.cpp:151] Setting up conv3_3
I0808 03:06:23.508260  2843 net.cpp:158] Top shape: 64 256 56 56 (51380224)
I0808 03:06:23.508290  2843 layer_factory.hpp:74] Creating layer relu3_3
I0808 03:06:23.508307  2843 net.cpp:91] Creating Layer relu3_3
I0808 03:06:23.508313  2843 net.cpp:452] relu3_3 <- conv3_3
I0808 03:06:23.508322  2843 net.cpp:119] This layer is inheriting previous layer's sync mode: 1
I0808 03:06:23.508327  2843 net.cpp:397] relu3_3 -> conv3_3 (in-place)
I0808 03:06:23.508335  2843 net.cpp:151] Setting up relu3_3
I0808 03:06:23.508420  2843 net.cpp:158] Top shape: 64 256 56 56 (51380224)
I0808 03:06:23.508430  2843 layer_factory.hpp:74] Creating layer pool3
I0808 03:06:23.508440  2843 net.cpp:91] Creating Layer pool3
I0808 03:06:23.508445  2843 net.cpp:452] pool3 <- conv3_3
I0808 03:06:23.508450  2843 net.cpp:119] This layer is inheriting previous layer's sync mode: 1
I0808 03:06:23.508455  2843 net.cpp:408] pool3 -> pool3
I0808 03:06:23.508462  2843 net.cpp:151] Setting up pool3
I0808 03:06:23.508692  2843 net.cpp:158] Top shape: 64 256 28 28 (12845056)
I0808 03:06:23.508705  2843 layer_factory.hpp:74] Creating layer conv4_1
I0808 03:06:23.508715  2843 net.cpp:91] Creating Layer conv4_1
I0808 03:06:23.508719  2843 net.cpp:452] conv4_1 <- pool3
I0808 03:06:23.508725  2843 net.cpp:119] This layer is inheriting previous layer's sync mode: 1
I0808 03:06:23.508733  2843 net.cpp:408] conv4_1 -> conv4_1
I0808 03:06:23.508741  2843 net.cpp:151] Setting up conv4_1
I0808 03:06:23.517688  2843 net.cpp:158] Top shape: 64 512 28 28 (25690112)
I0808 03:06:23.517720  2843 layer_factory.hpp:74] Creating layer relu4_1
I0808 03:06:23.517732  2843 net.cpp:91] Creating Layer relu4_1
I0808 03:06:23.517737  2843 net.cpp:452] relu4_1 <- conv4_1
I0808 03:06:23.517745  2843 net.cpp:119] This layer is inheriting previous layer's sync mode: 1
I0808 03:06:23.517755  2843 net.cpp:397] relu4_1 -> conv4_1 (in-place)
I0808 03:06:23.517763  2843 net.cpp:151] Setting up relu4_1
I0808 03:06:23.517834  2843 net.cpp:158] Top shape: 64 512 28 28 (25690112)
I0808 03:06:23.517840  2843 layer_factory.hpp:74] Creating layer conv4_2
I0808 03:06:23.517848  2843 net.cpp:91] Creating Layer conv4_2
I0808 03:06:23.517853  2843 net.cpp:452] conv4_2 <- conv4_1
I0808 03:06:23.517856  2843 net.cpp:119] This layer is inheriting previous layer's sync mode: 1
I0808 03:06:23.517863  2843 net.cpp:408] conv4_2 -> conv4_2
I0808 03:06:23.517870  2843 net.cpp:151] Setting up conv4_2
I0808 03:06:23.534577  2843 net.cpp:158] Top shape: 64 512 28 28 (25690112)
I0808 03:06:23.534612  2843 layer_factory.hpp:74] Creating layer relu4_2
I0808 03:06:23.534629  2843 net.cpp:91] Creating Layer relu4_2
I0808 03:06:23.534636  2843 net.cpp:452] relu4_2 <- conv4_2
I0808 03:06:23.534643  2843 net.cpp:119] This layer is inheriting previous layer's sync mode: 1
I0808 03:06:23.534649  2843 net.cpp:397] relu4_2 -> conv4_2 (in-place)
I0808 03:06:23.534657  2843 net.cpp:151] Setting up relu4_2
I0808 03:06:23.534735  2843 net.cpp:158] Top shape: 64 512 28 28 (25690112)
I0808 03:06:23.534744  2843 layer_factory.hpp:74] Creating layer conv4_3
I0808 03:06:23.534755  2843 net.cpp:91] Creating Layer conv4_3
I0808 03:06:23.534759  2843 net.cpp:452] conv4_3 <- conv4_2
I0808 03:06:23.534792  2843 net.cpp:119] This layer is inheriting previous layer's sync mode: 1
I0808 03:06:23.534802  2843 net.cpp:408] conv4_3 -> conv4_3
I0808 03:06:23.534811  2843 net.cpp:151] Setting up conv4_3
I0808 03:06:23.551936  2843 net.cpp:158] Top shape: 64 512 28 28 (25690112)
I0808 03:06:23.551966  2843 layer_factory.hpp:74] Creating layer relu4_3
I0808 03:06:23.551978  2843 net.cpp:91] Creating Layer relu4_3
I0808 03:06:23.551983  2843 net.cpp:452] relu4_3 <- conv4_3
I0808 03:06:23.551991  2843 net.cpp:119] This layer is inheriting previous layer's sync mode: 1
I0808 03:06:23.551998  2843 net.cpp:397] relu4_3 -> conv4_3 (in-place)
I0808 03:06:23.552007  2843 net.cpp:151] Setting up relu4_3
I0808 03:06:23.552207  2843 net.cpp:158] Top shape: 64 512 28 28 (25690112)
I0808 03:06:23.552217  2843 layer_factory.hpp:74] Creating layer pool4
I0808 03:06:23.552225  2843 net.cpp:91] Creating Layer pool4
I0808 03:06:23.552229  2843 net.cpp:452] pool4 <- conv4_3
I0808 03:06:23.552234  2843 net.cpp:119] This layer is inheriting previous layer's sync mode: 1
I0808 03:06:23.552239  2843 net.cpp:408] pool4 -> pool4
I0808 03:06:23.552247  2843 net.cpp:151] Setting up pool4
I0808 03:06:23.552317  2843 net.cpp:158] Top shape: 64 512 14 14 (6422528)
I0808 03:06:23.552325  2843 layer_factory.hpp:74] Creating layer conv5_1
I0808 03:06:23.552333  2843 net.cpp:91] Creating Layer conv5_1
I0808 03:06:23.552337  2843 net.cpp:452] conv5_1 <- pool4
I0808 03:06:23.552341  2843 net.cpp:119] This layer is inheriting previous layer's sync mode: 1
I0808 03:06:23.552348  2843 net.cpp:408] conv5_1 -> conv5_1
I0808 03:06:23.552359  2843 net.cpp:151] Setting up conv5_1
I0808 03:06:23.569005  2843 net.cpp:158] Top shape: 64 512 14 14 (6422528)
I0808 03:06:23.569032  2843 layer_factory.hpp:74] Creating layer relu5_1
I0808 03:06:23.569043  2843 net.cpp:91] Creating Layer relu5_1
I0808 03:06:23.569049  2843 net.cpp:452] relu5_1 <- conv5_1
I0808 03:06:23.569056  2843 net.cpp:119] This layer is inheriting previous layer's sync mode: 1
I0808 03:06:23.569061  2843 net.cpp:397] relu5_1 -> conv5_1 (in-place)
I0808 03:06:23.569069  2843 net.cpp:151] Setting up relu5_1
I0808 03:06:23.569134  2843 net.cpp:158] Top shape: 64 512 14 14 (6422528)
I0808 03:06:23.569140  2843 layer_factory.hpp:74] Creating layer conv5_2
I0808 03:06:23.569149  2843 net.cpp:91] Creating Layer conv5_2
I0808 03:06:23.569152  2843 net.cpp:452] conv5_2 <- conv5_1
I0808 03:06:23.569157  2843 net.cpp:119] This layer is inheriting previous layer's sync mode: 1
I0808 03:06:23.569164  2843 net.cpp:408] conv5_2 -> conv5_2
I0808 03:06:23.569172  2843 net.cpp:151] Setting up conv5_2
I0808 03:06:23.586297  2843 net.cpp:158] Top shape: 64 512 14 14 (6422528)
I0808 03:06:23.586323  2843 layer_factory.hpp:74] Creating layer relu5_2
I0808 03:06:23.586335  2843 net.cpp:91] Creating Layer relu5_2
I0808 03:06:23.586341  2843 net.cpp:452] relu5_2 <- conv5_2
I0808 03:06:23.586347  2843 net.cpp:119] This layer is inheriting previous layer's sync mode: 1
I0808 03:06:23.586354  2843 net.cpp:397] relu5_2 -> conv5_2 (in-place)
I0808 03:06:23.586362  2843 net.cpp:151] Setting up relu5_2
I0808 03:06:23.586434  2843 net.cpp:158] Top shape: 64 512 14 14 (6422528)
I0808 03:06:23.586441  2843 layer_factory.hpp:74] Creating layer conv5_3
I0808 03:06:23.586452  2843 net.cpp:91] Creating Layer conv5_3
I0808 03:06:23.586457  2843 net.cpp:452] conv5_3 <- conv5_2
I0808 03:06:23.586462  2843 net.cpp:119] This layer is inheriting previous layer's sync mode: 1
I0808 03:06:23.586469  2843 net.cpp:408] conv5_3 -> conv5_3
I0808 03:06:23.586477  2843 net.cpp:151] Setting up conv5_3
I0808 03:06:23.603031  2843 net.cpp:158] Top shape: 64 512 14 14 (6422528)
I0808 03:06:23.603068  2843 layer_factory.hpp:74] Creating layer relu5_3
I0808 03:06:23.603080  2843 net.cpp:91] Creating Layer relu5_3
I0808 03:06:23.603086  2843 net.cpp:452] relu5_3 <- conv5_3
I0808 03:06:23.603093  2843 net.cpp:119] This layer is inheriting previous layer's sync mode: 1
I0808 03:06:23.603098  2843 net.cpp:397] relu5_3 -> conv5_3 (in-place)
I0808 03:06:23.603138  2843 net.cpp:151] Setting up relu5_3
I0808 03:06:23.603360  2843 net.cpp:158] Top shape: 64 512 14 14 (6422528)
I0808 03:06:23.603371  2843 layer_factory.hpp:74] Creating layer pool5
I0808 03:06:23.603382  2843 net.cpp:91] Creating Layer pool5
I0808 03:06:23.603386  2843 net.cpp:452] pool5 <- conv5_3
I0808 03:06:23.603392  2843 net.cpp:119] This layer is inheriting previous layer's sync mode: 1
I0808 03:06:23.603397  2843 net.cpp:408] pool5 -> pool5_local
I0808 03:06:23.603405  2843 net.cpp:151] Setting up pool5
I0808 03:06:23.603483  2843 net.cpp:158] Top shape: 64 512 7 7 (1605632)
I0808 03:06:23.603492  2843 layer_factory.hpp:74] Creating layer gather
I0808 03:06:23.603514  2843 net.cpp:91] Creating Layer gather
I0808 03:06:23.603519  2843 net.cpp:452] gather <- pool5_local
I0808 03:06:23.603525  2843 net.cpp:452] gather <- label_local
I0808 03:06:23.603533  2843 net.cpp:408] gather -> pool5
I0808 03:06:23.603540  2843 net.cpp:408] gather -> label
I0808 03:06:23.603546  2843 net.cpp:151] Setting up gather
I0808 03:06:23.603554  2843 net.cpp:158] Top shape: 128 512 7 7 (3211264)
I0808 03:06:23.603559  2843 net.cpp:158] Top shape: 128 1 1 1 (128)
I0808 03:06:23.603561  2843 layer_factory.hpp:74] Creating layer fc6
I0808 03:06:23.603569  2843 net.cpp:91] Creating Layer fc6
I0808 03:06:23.603572  2843 net.cpp:452] fc6 <- pool5
I0808 03:06:23.603576  2843 net.cpp:119] This layer is inheriting previous layer's sync mode: 0
I0808 03:06:23.603584  2843 net.cpp:408] fc6 -> fc6
I0808 03:06:23.603591  2843 net.cpp:151] Setting up fc6
I0808 03:06:24.279625  2843 net.cpp:158] Top shape: 128 4096 (524288)
I0808 03:06:24.279713  2843 layer_factory.hpp:74] Creating layer relu6
I0808 03:06:24.279728  2843 net.cpp:91] Creating Layer relu6
I0808 03:06:24.279736  2843 net.cpp:452] relu6 <- fc6
I0808 03:06:24.279742  2843 net.cpp:119] This layer is inheriting previous layer's sync mode: 0
I0808 03:06:24.279747  2843 net.cpp:397] relu6 -> fc6 (in-place)
I0808 03:06:24.279755  2843 net.cpp:151] Setting up relu6
I0808 03:06:24.279872  2843 net.cpp:158] Top shape: 128 4096 (524288)
I0808 03:06:24.279883  2843 layer_factory.hpp:74] Creating layer drop6
I0808 03:06:24.279891  2843 net.cpp:91] Creating Layer drop6
I0808 03:06:24.279896  2843 net.cpp:452] drop6 <- fc6
I0808 03:06:24.279901  2843 net.cpp:119] This layer is inheriting previous layer's sync mode: 0
I0808 03:06:24.279906  2843 net.cpp:397] drop6 -> fc6 (in-place)
I0808 03:06:24.279916  2843 net.cpp:151] Setting up drop6
I0808 03:06:24.279924  2843 net.cpp:158] Top shape: 128 4096 (524288)
I0808 03:06:24.279928  2843 layer_factory.hpp:74] Creating layer fc7
I0808 03:06:24.279939  2843 net.cpp:91] Creating Layer fc7
I0808 03:06:24.279943  2843 net.cpp:452] fc7 <- fc6
I0808 03:06:24.279948  2843 net.cpp:119] This layer is inheriting previous layer's sync mode: 0
I0808 03:06:24.279955  2843 net.cpp:408] fc7 -> fc7
I0808 03:06:24.279963  2843 net.cpp:151] Setting up fc7
I0808 03:06:24.437885  2843 net.cpp:158] Top shape: 128 4096 (524288)
I0808 03:06:24.437913  2843 layer_factory.hpp:74] Creating layer relu7
I0808 03:06:24.437926  2843 net.cpp:91] Creating Layer relu7
I0808 03:06:24.437932  2843 net.cpp:452] relu7 <- fc7
I0808 03:06:24.437938  2843 net.cpp:119] This layer is inheriting previous layer's sync mode: 0
I0808 03:06:24.437945  2843 net.cpp:397] relu7 -> fc7 (in-place)
I0808 03:06:24.437953  2843 net.cpp:151] Setting up relu7
I0808 03:06:24.438068  2843 net.cpp:158] Top shape: 128 4096 (524288)
I0808 03:06:24.438076  2843 layer_factory.hpp:74] Creating layer drop7
I0808 03:06:24.438084  2843 net.cpp:91] Creating Layer drop7
I0808 03:06:24.438088  2843 net.cpp:452] drop7 <- fc7
I0808 03:06:24.438093  2843 net.cpp:119] This layer is inheriting previous layer's sync mode: 0
I0808 03:06:24.438098  2843 net.cpp:397] drop7 -> fc7 (in-place)
I0808 03:06:24.438104  2843 net.cpp:151] Setting up drop7
I0808 03:06:24.438112  2843 net.cpp:158] Top shape: 128 4096 (524288)
I0808 03:06:24.438117  2843 layer_factory.hpp:74] Creating layer fc8-1
I0808 03:06:24.438127  2843 net.cpp:91] Creating Layer fc8-1
I0808 03:06:24.438163  2843 net.cpp:452] fc8-1 <- fc7
I0808 03:06:24.438169  2843 net.cpp:119] This layer is inheriting previous layer's sync mode: 0
I0808 03:06:24.438177  2843 net.cpp:408] fc8-1 -> fc8-1
I0808 03:06:24.438185  2843 net.cpp:151] Setting up fc8-1
I0808 03:06:24.452513  2843 net.cpp:158] Top shape: 128 101 (12928)
I0808 03:06:24.452540  2843 layer_factory.hpp:74] Creating layer loss
I0808 03:06:24.452554  2843 net.cpp:91] Creating Layer loss
I0808 03:06:24.452559  2843 net.cpp:452] loss <- fc8-1
I0808 03:06:24.452566  2843 net.cpp:452] loss <- label
I0808 03:06:24.452571  2843 net.cpp:119] This layer is inheriting previous layer's sync mode: 0
I0808 03:06:24.452577  2843 net.cpp:408] loss -> (automatic)
…
    mean_value: 128
    mean_value: 128
    mean_value: 128
    mean_value: 128
    mean_value: 128
    mean_value: 128
    mean_value: 128
    mean_value: 128
    mean_value: 128
    mean_value: 128
    mean_value: 128
    mean_value: 128
    mean_value: 128
    mean_value: 128
    mean_value: 128
    mean_value: 128
    mean_value: 128
    mean_value: 128
    fix_crop: true
    is_flow: true
  }
  video_data_param {
    source: "/home/jiri/Lake/HAR/datasets/UCF-101/val-2-rnd.txt"
    batch_size: 5
    new_length: 10
    num_segments: 1
    modality: FLOW
  }
}
layer {
  name: "conv1_1"
  type: "Convolution"
  bottom: "data"
  top: "conv1_1"
  param {
    lr_mult: 1
    decay_mult: 1
  }
  param {
    lr_mult: 2
    decay_mult: 0
  }
  convolution_param {
    num_output: 64
    pad: 1
    kernel_size: 3
    weight_filler {
      type: "xavier"
    }
  }
}
layer {
  name: "relu1_1"
  type: "ReLU"
  bottom: "conv1_1"
  top: "conv1_1"
}
layer {
  name: "conv1_2"
  type: "Convolution"
  bottom: "conv1_1"
  top: "conv1_2"
  param {
    lr_mult: 1
    decay_mult: 1
  }
  param {
    lr_mult: 2
    decay_mult: 0
  }
  convolution_param {
    num_output: 64
    pad: 1
    kernel_size: 3
    weight_filler {
      type: "xavier"
    }
  }
}
layer {
  name: "relu1_2"
  type: "ReLU"
  bottom: "conv1_2"
  top: "conv1_2"
}
layer {
  name: "pool1"
  type: "Pooling"
  bottom: "conv1_2"
  top: "pool1"
  pooling_param {
    pool: MAX
    kernel_size: 2
    stride: 2
  }
}
layer {
  name: "conv2_1"
  type: "Convolution"
  bottom: "pool1"
  top: "conv2_1"
  param {
    lr_mult: 1
    decay_mult: 1
  }
  param {
    lr_mult: 2
    decay_mult: 0
  }
  convolution_param {
    num_output: 128
    pad: 1
    kernel_size: 3
    weight_filler {
      type: "xavier"
    }
  }
}
layer {
  name: "relu2_1"
  type: "ReLU"
  bottom: "conv2_1"
  top: "conv2_1"
}
layer {
  name: "conv2_2"
  type: "Convolution"
  bottom: "conv2_1"
  top: "conv2_2"
  param {
    lr_mult: 1
    decay_mult: 1
  }
  param {
    lr_mult: 2
    decay_mult: 0
  }
  convolution_param {
    num_output: 128
    pad: 1
    kernel_size: 3
    weight_filler {
      type: "xavier"
    }
  }
}
layer {
  name: "relu2_2"
  type: "ReLU"
  bottom: "conv2_2"
  top: "conv2_2"
}
layer {
  name: "pool2"
  type: "Pooling"
  bottom: "conv2_2"
  top: "pool2"
  pooling_param {
    pool: MAX
    kernel_size: 2
    stride: 2
  }
}
layer {
  name: "conv3_1"
  type: "Convolution"
  bottom: "pool2"
  top: "conv3_1"
  param {
    lr_mult: 1
    decay_mult: 1
  }
  param {
    lr_mult: 2
    decay_mult: 0
  }
  convolution_param {
    num_output: 256
    pad: 1
    kernel_size: 3
    weight_filler {
      type: "xavier"
    }
  }
}
layer {
  name: "relu3_1"
  type: "ReLU"
  bottom: "conv3_1"
  top: "conv3_1"
}
layer {
  name: "conv3_2"
  type: "Convolution"
  bottom: "conv3_1"
  top: "conv3_2"
  param {
    lr_mult: 1
    decay_mult: 1
  }
  param {
    lr_mult: 2
    decay_mult: 0
  }
  convolution_param {
    num_output: 256
    pad: 1
    kernel_size: 3
    weight_filler {
      type: "xavier"
    }
  }
}
layer {
  name: "relu3_2"
  type: "ReLU"
  bottom: "conv3_2"
  top: "conv3_2"
}
layer {
  name: "conv3_3"
  type: "Convolution"
  bottom: "conv3_2"
  top: "conv3_3"
  param {
    lr_mult: 1
    decay_mult: 1
  }
  param {
    lr_mult: 2
    decay_mult: 0
  }
  convolution_param {
    num_output: 256
    pad: 1
    kernel_size: 3
    weight_filler {
      type: "xavier"
    }
  }
}
layer {
  name: "relu3_3"
  type: "ReLU"
  bottom: "conv3_3"
  top: "conv3_3"
}
layer {
  name: "pool3"
  type: "Pooling"
  bottom: "conv3_3"
  top: "pool3"
  pooling_param {
    pool: MAX
    kernel_size: 2
    stride: 2
  }
}
layer {
  name: "conv4_1"
  type: "Convolution"
  bottom: "pool3"
  top: "conv4_1"
  param {
    lr_mult: 1
    decay_mult: 1
  }
  param {
    lr_mult: 2
    decay_mult: 0
  }
  convolution_param {
    num_output: 512
    pad: 1
    kernel_size: 3
    weight_filler {
      type: "xavier"
    }
  }
}
layer {
  name: "relu4_1"
  type: "ReLU"
  bottom: "conv4_1"
  top: "conv4_1"
}
layer {
  name: "conv4_2"
  type: "Convolution"
  bottom: "conv4_1"
  top: "conv4_2"
  param {
    lr_mult: 1
    decay_mult: 1
  }
  param {
    lr_mult: 2
    decay_mult: 0
  }
  convolution_param {
    num_output: 512
    pad: 1
    kernel_size: 3
    weight_filler {
      type: "xavier"
    }
  }
}
layer {
  name: "relu4_2"
  type: "ReLU"
  bottom: "conv4_2"
  top: "conv4_2"
}
layer {
  name: "conv4_3"
  type: "Convolution"
  bottom: "conv4_2"
  top: "conv4_3"
  param {
    lr_mult: 1
    decay_mult: 1
  }
  param {
    lr_mult: 2
    decay_mult: 0
  }
  convolution_param {
    num_output: 512
    pad: 1
    kernel_size: 3
    weight_filler {
      type: "xavier"
    }
  }
}
layer {
  name: "relu4_3"
  type: "ReLU"
  bottom: "conv4_3"
  top: "conv4_3"
}
layer {
  name: "pool4"
  type: "Pooling"
  bottom: "conv4_3"
  top: "pool4"
  pooling_param {
    pool: MAX
    kernel_size: 2
    stride: 2
  }
}
layer {
  name: "conv5_1"
  type: "Convolution"
  bottom: "pool4"
  top: "conv5_1"
  param {
    lr_mult: 1
    decay_mult: 1
  }
  param {
    lr_mult: 2
    decay_mult: 0
  }
  convolution_param {
    num_output: 512
    pad: 1
    kernel_size: 3
    weight_filler {
      type: "xavier"
    }
  }
}
layer {
  name: "relu5_1"
  type: "ReLU"
  bottom: "conv5_1"
  top: "conv5_1"
}
layer {
  name: "conv5_2"
  type: "Convolution"
  bottom: "conv5_1"
  top: "conv5_2"
  param {
    lr_mult: 1
    decay_mult: 1
  }
  param {
    lr_mult: 2
    decay_mult: 0
  }
  convolution_param {
    num_output: 512
    pad: 1
    kernel_size: 3
    weight_filler {
      type: "xavier"
    }
  }
}
layer {
  name: "relu5_2"
  type: "ReLU"
  bottom: "conv5_2"
  top: "conv5_2"
}
layer {
  name: "conv5_3"
  type: "Convolution"
  bottom: "conv5_2"
  top: "conv5_3"
  param {
    lr_mult: 1
    decay_mult: 1
  }
  param {
    lr_mult: 2
    decay_mult: 0
  }
  convolution_param {
    num_output: 512
    pad: 1
    kernel_size: 3
    weight_filler {
      type: "xavier"
    }
  }
}
layer {
  name: "relu5_3"
  type: "ReLU"
  bottom: "conv5_3"
  top: "conv5_3"
}
layer {
  name: "pool5"
  type: "Pooling"
  bottom: "conv5_3"
  top: "pool5_local"
  pooling_param {
    pool: MAX
    kernel_size: 2
    stride: 2
  }
}
layer {
  name: "gather"
  type: "Gather"
  bottom: "pool5_local"
  bottom: "label_local"
  top: "pool5"
  top: "label"
}
layer {
  name: "fc6"
  type: "InnerProduct"
  bottom: "pool5"
  top: "fc6"
  param {
    lr_mult: 1
    decay_mult: 1
  }
  param {
    lr_mult: 2
    decay_mult: 0
  }
  inner_product_param {
    num_output: 4096
    weight_filler {
      type: "xavier"
    }
  }
}
layer {
  name: "relu6"
  type: "ReLU"
  bottom: "fc6"
  top: "fc6"
}
layer {
  name: "drop6"
  type: "Dropout"
  bottom: "fc6"
  top: "fc6"
  dropout_param {
    dropout_ratio: 0.9
  }
}
layer {
  name: "fc7"
  type: "InnerProduct"
  bottom: "fc6"
  top: "fc7"
  param {
    lr_mult: 1
    decay_mult: 1
  }
  param {
    lr_mult: 2
    decay_mult: 0
  }
  inner_product_param {
    num_output: 4096
    weight_filler {
      type: "xavier"
    }
  }
}
layer {
  name: "relu7"
  type: "ReLU"
  bottom: "fc7"
  top: "fc7"
}
layer {
  name: "drop7"
  type: "Dropout"
  bottom: "fc7"
  top: "fc7"
  dropout_param {
    dropout_ratio: 0.8
  }
}
layer {
  name: "fc8-1"
  type: "InnerProduct"
  bottom: "fc7"
  top: "fc8-1"
  param {
    lr_mult: 1
    decay_mult: 1
  }
  param {
    lr_mult: 2
    decay_mult: 0
  }
  inner_product_param {
    num_output: 101
    weight_filler {
      type: "gaussian"
      std: 0.001
    }
    bias_filler {
      type: "constant"
      value: 0
    }
  }
}
layer {
  name: "loss"
  type: "SoftmaxWithLoss"
  bottom: "fc8-1"
  bottom: "label"
  top: "loss"
  include {
    phase: TEST
  }
}
layer {
  name: "accuracy"
  type: "Accuracy"
  bottom: "fc8-1"
  bottom: "label"
  top: "accuracy"
  include {
    phase: TEST
  }
}
I0808 03:06:24.455324  2843 layer_factory.hpp:74] Creating layer data
I0808 03:06:24.455338  2843 net.cpp:91] Creating Layer data
I0808 03:06:24.455344  2843 net.cpp:408] data -> data
I0808 03:06:24.455353  2843 net.cpp:408] data -> label_local
I0808 03:06:24.455361  2843 net.cpp:151] Setting up data
I0808 03:06:24.455368  2843 video_data_layer.cpp:34] Opening file: /home/jiri/Lake/HAR/datasets/UCF-101/val-2-rnd.txt
I0808 03:06:24.458268  2843 video_data_layer.cpp:50] A total of 3783 videos.
I0808 03:06:24.474659  2843 video_data_layer.cpp:76] output data size: 5,20,224,224
I0808 03:06:24.504417  2843 net.cpp:158] Top shape: 5 20 224 224 (5017600)
I0808 03:06:24.504441  2843 net.cpp:158] Top shape: 5 1 1 1 (5)
I0808 03:06:24.504448  2843 layer_factory.hpp:74] Creating layer conv1_1
I0808 03:06:24.504465  2843 net.cpp:91] Creating Layer conv1_1
I0808 03:06:24.504470  2843 net.cpp:452] conv1_1 <- data
I0808 03:06:24.504477  2843 net.cpp:119] This layer is inheriting previous layer's sync mode: 1
I0808 03:06:24.504483  2843 net.cpp:408] conv1_1 -> conv1_1
I0808 03:06:24.504495  2843 net.cpp:151] Setting up conv1_1
I0808 03:06:24.505079  2843 net.cpp:158] Top shape: 5 64 224 224 (16056320)
I0808 03:06:24.505097  2843 layer_factory.hpp:74] Creating layer relu1_1
I0808 03:06:24.505106  2843 net.cpp:91] Creating Layer relu1_1
I0808 03:06:24.505110  2843 net.cpp:452] relu1_1 <- conv1_1
I0808 03:06:24.505115  2843 net.cpp:119] This layer is inheriting previous layer's sync mode: 1
I0808 03:06:24.505120  2843 net.cpp:397] relu1_1 -> conv1_1 (in-place)
I0808 03:06:24.505126  2843 net.cpp:151] Setting up relu1_1
I0808 03:06:24.505187  2843 net.cpp:158] Top shape: 5 64 224 224 (16056320)
I0808 03:06:24.505194  2843 layer_factory.hpp:74] Creating layer conv1_2
I0808 03:06:24.505203  2843 net.cpp:91] Creating Layer conv1_2
I0808 03:06:24.505205  2843 net.cpp:452] conv1_2 <- conv1_1
I0808 03:06:24.505209  2843 net.cpp:119] This layer is inheriting previous layer's sync mode: 1
I0808 03:06:24.505214  2843 net.cpp:408] conv1_2 -> conv1_2
I0808 03:06:24.505221  2843 net.cpp:151] Setting up conv1_2
I0808 03:06:24.505858  2843 net.cpp:158] Top shape: 5 64 224 224 (16056320)
I0808 03:06:24.505877  2843 layer_factory.hpp:74] Creating layer relu1_2
I0808 03:06:24.505885  2843 net.cpp:91] Creating Layer relu1_2
I0808 03:06:24.505889  2843 net.cpp:452] relu1_2 <- conv1_2
I0808 03:06:24.505894  2843 net.cpp:119] This layer is inheriting previous layer's sync mode: 1
I0808 03:06:24.505898  2843 net.cpp:397] relu1_2 -> conv1_2 (in-place)
I0808 03:06:24.505904  2843 net.cpp:151] Setting up relu1_2
I0808 03:06:24.505967  2843 net.cpp:158] Top shape: 5 64 224 224 (16056320)
I0808 03:06:24.505975  2843 layer_factory.hpp:74] Creating layer pool1
I0808 03:06:24.505981  2843 net.cpp:91] Creating Layer pool1
I0808 03:06:24.505985  2843 net.cpp:452] pool1 <- conv1_2
I0808 03:06:24.505990  2843 net.cpp:119] This layer is inheriting previous layer's sync mode: 1
I0808 03:06:24.505993  2843 net.cpp:408] pool1 -> pool1
I0808 03:06:24.506000  2843 net.cpp:151] Setting up pool1
I0808 03:06:24.506062  2843 net.cpp:158] Top shape: 5 64 112 112 (4014080)
I0808 03:06:24.506069  2843 layer_factory.hpp:74] Creating layer conv2_1
I0808 03:06:24.506077  2843 net.cpp:91] Creating Layer conv2_1
I0808 03:06:24.506079  2843 net.cpp:452] conv2_1 <- pool1
I0808 03:06:24.506113  2843 net.cpp:119] This layer is inheriting previous layer's sync mode: 1
I0808 03:06:24.506119  2843 net.cpp:408] conv2_1 -> conv2_1
I0808 03:06:24.506125  2843 net.cpp:151] Setting up conv2_1
I0808 03:06:24.506997  2843 net.cpp:158] Top shape: 5 128 112 112 (8028160)
I0808 03:06:24.507014  2843 layer_factory.hpp:74] Creating layer relu2_1
I0808 03:06:24.507021  2843 net.cpp:91] Creating Layer relu2_1
I0808 03:06:24.507026  2843 net.cpp:452] relu2_1 <- conv2_1
I0808 03:06:24.507031  2843 net.cpp:119] This layer is inheriting previous layer's sync mode: 1
I0808 03:06:24.507036  2843 net.cpp:397] relu2_1 -> conv2_1 (in-place)
I0808 03:06:24.507042  2843 net.cpp:151] Setting up relu2_1
I0808 03:06:24.507254  2843 net.cpp:158] Top shape: 5 128 112 112 (8028160)
I0808 03:06:24.507263  2843 layer_factory.hpp:74] Creating layer conv2_2
I0808 03:06:24.507273  2843 net.cpp:91] Creating Layer conv2_2
I0808 03:06:24.507277  2843 net.cpp:452] conv2_2 <- conv2_1
I0808 03:06:24.507282  2843 net.cpp:119] This layer is inheriting previous layer's sync mode: 1
I0808 03:06:24.507287  2843 net.cpp:408] conv2_2 -> conv2_2
I0808 03:06:24.507294  2843 net.cpp:151] Setting up conv2_2
I0808 03:06:24.508608  2843 net.cpp:158] Top shape: 5 128 112 112 (8028160)
I0808 03:06:24.508622  2843 layer_factory.hpp:74] Creating layer relu2_2
I0808 03:06:24.508630  2843 net.cpp:91] Creating Layer relu2_2
I0808 03:06:24.508635  2843 net.cpp:452] relu2_2 <- conv2_2
I0808 03:06:24.508640  2843 net.cpp:119] This layer is inheriting previous layer's sync mode: 1
I0808 03:06:24.508644  2843 net.cpp:397] relu2_2 -> conv2_2 (in-place)
I0808 03:06:24.508649  2843 net.cpp:151] Setting up relu2_2
I0808 03:06:24.508709  2843 net.cpp:158] Top shape: 5 128 112 112 (8028160)
I0808 03:06:24.508716  2843 layer_factory.hpp:74] Creating layer pool2
I0808 03:06:24.508723  2843 net.cpp:91] Creating Layer pool2
I0808 03:06:24.508726  2843 net.cpp:452] pool2 <- conv2_2
I0808 03:06:24.508731  2843 net.cpp:119] This layer is inheriting previous layer's sync mode: 1
I0808 03:06:24.508735  2843 net.cpp:408] pool2 -> pool2
I0808 03:06:24.508741  2843 net.cpp:151] Setting up pool2
I0808 03:06:24.508810  2843 net.cpp:158] Top shape: 5 128 56 56 (2007040)
I0808 03:06:24.508821  2843 layer_factory.hpp:74] Creating layer conv3_1
I0808 03:06:24.508828  2843 net.cpp:91] Creating Layer conv3_1
I0808 03:06:24.508832  2843 net.cpp:452] conv3_1 <- pool2
I0808 03:06:24.508838  2843 net.cpp:119] This layer is inheriting previous layer's sync mode: 1
I0808 03:06:24.508843  2843 net.cpp:408] conv3_1 -> conv3_1
I0808 03:06:24.508853  2843 net.cpp:151] Setting up conv3_1
I0808 03:06:24.511152  2843 net.cpp:158] Top shape: 5 256 56 56 (4014080)
I0808 03:06:24.511169  2843 layer_factory.hpp:74] Creating layer relu3_1
I0808 03:06:24.511176  2843 net.cpp:91] Creating Layer relu3_1
I0808 03:06:24.511180  2843 net.cpp:452] relu3_1 <- conv3_1
I0808 03:06:24.511185  2843 net.cpp:119] This layer is inheriting previous layer's sync mode: 1
I0808 03:06:24.511190  2843 net.cpp:397] relu3_1 -> conv3_1 (in-place)
I0808 03:06:24.511198  2843 net.cpp:151] Setting up relu3_1
I0808 03:06:24.511407  2843 net.cpp:158] Top shape: 5 256 56 56 (4014080)
I0808 03:06:24.511417  2843 layer_factory.hpp:74] Creating layer conv3_2
I0808 03:06:24.511426  2843 net.cpp:91] Creating Layer conv3_2
I0808 03:06:24.511430  2843 net.cpp:452] conv3_2 <- conv3_1
I0808 03:06:24.511435  2843 net.cpp:119] This layer is inheriting previous layer's sync mode: 1
I0808 03:06:24.511441  2843 net.cpp:408] conv3_2 -> conv3_2
I0808 03:06:24.511448  2843 net.cpp:151] Setting up conv3_2
I0808 03:06:24.516165  2843 net.cpp:158] Top shape: 5 256 56 56 (4014080)
I0808 03:06:24.516190  2843 layer_factory.hpp:74] Creating layer relu3_2
I0808 03:06:24.516201  2843 net.cpp:91] Creating Layer relu3_2
I0808 03:06:24.516207  2843 net.cpp:452] relu3_2 <- conv3_2
I0808 03:06:24.516216  2843 net.cpp:119] This layer is inheriting previous layer's sync mode: 1
I0808 03:06:24.516221  2843 net.cpp:397] relu3_2 -> conv3_2 (in-place)
I0808 03:06:24.516258  2843 net.cpp:151] Setting up relu3_2
I0808 03:06:24.516340  2843 net.cpp:158] Top shape: 5 256 56 56 (4014080)
I0808 03:06:24.516348  2843 layer_factory.hpp:74] Creating layer conv3_3
I0808 03:06:24.516357  2843 net.cpp:91] Creating Layer conv3_3
I0808 03:06:24.516361  2843 net.cpp:452] conv3_3 <- conv3_2
I0808 03:06:24.516367  2843 net.cpp:119] This layer is inheriting previous layer's sync mode: 1
I0808 03:06:24.516374  2843 net.cpp:408] conv3_3 -> conv3_3
I0808 03:06:24.516382  2843 net.cpp:151] Setting up conv3_3
I0808 03:06:24.522320  2843 net.cpp:158] Top shape: 5 256 56 56 (4014080)
I0808 03:06:24.522343  2843 layer_factory.hpp:74] Creating layer relu3_3
I0808 03:06:24.522358  2843 net.cpp:91] Creating Layer relu3_3
I0808 03:06:24.522364  2843 net.cpp:452] relu3_3 <- conv3_3
I0808 03:06:24.522371  2843 net.cpp:119] This layer is inheriting previous layer's sync mode: 1
I0808 03:06:24.522375  2843 net.cpp:397] relu3_3 -> conv3_3 (in-place)
I0808 03:06:24.522383  2843 net.cpp:151] Setting up relu3_3
I0808 03:06:24.523222  2843 net.cpp:158] Top shape: 5 256 56 56 (4014080)
I0808 03:06:24.523236  2843 layer_factory.hpp:74] Creating layer pool3
I0808 03:06:24.523247  2843 net.cpp:91] Creating Layer pool3
I0808 03:06:24.523252  2843 net.cpp:452] pool3 <- conv3_3
I0808 03:06:24.523257  2843 net.cpp:119] This layer is inheriting previous layer's sync mode: 1
I0808 03:06:24.523267  2843 net.cpp:408] pool3 -> pool3
I0808 03:06:24.523274  2843 net.cpp:151] Setting up pool3
I0808 03:06:24.523355  2843 net.cpp:158] Top shape: 5 256 28 28 (1003520)
I0808 03:06:24.523363  2843 layer_factory.hpp:74] Creating layer conv4_1
I0808 03:06:24.523375  2843 net.cpp:91] Creating Layer conv4_1
I0808 03:06:24.523378  2843 net.cpp:452] conv4_1 <- pool3
I0808 03:06:24.523383  2843 net.cpp:119] This layer is inheriting previous layer's sync mode: 1
I0808 03:06:24.523389  2843 net.cpp:408] conv4_1 -> conv4_1
I0808 03:06:24.523397  2843 net.cpp:151] Setting up conv4_1
I0808 03:06:24.547829  2843 net.cpp:158] Top shape: 5 512 28 28 (2007040)
I0808 03:06:24.547855  2843 layer_factory.hpp:74] Creating layer relu4_1
I0808 03:06:24.547868  2843 net.cpp:91] Creating Layer relu4_1
I0808 03:06:24.547874  2843 net.cpp:452] relu4_1 <- conv4_1
I0808 03:06:24.547881  2843 net.cpp:119] This layer is inheriting previous layer's sync mode: 1
I0808 03:06:24.547886  2843 net.cpp:397] relu4_1 -> conv4_1 (in-place)
I0808 03:06:24.547894  2843 net.cpp:151] Setting up relu4_1
I0808 03:06:24.548108  2843 net.cpp:158] Top shape: 5 512 28 28 (2007040)
I0808 03:06:24.548120  2843 layer_factory.hpp:74] Creating layer conv4_2
I0808 03:06:24.548130  2843 net.cpp:91] Creating Layer conv4_2
I0808 03:06:24.548133  2843 net.cpp:452] conv4_2 <- conv4_1
I0808 03:06:24.548140  2843 net.cpp:119] This layer is inheriting previous layer's sync mode: 1
I0808 03:06:24.548146  2843 net.cpp:408] conv4_2 -> conv4_2
I0808 03:06:24.548156  2843 net.cpp:151] Setting up conv4_2
I0808 03:06:24.577906  2843 net.cpp:158] Top shape: 5 512 28 28 (2007040)
I0808 03:06:24.577939  2843 layer_factory.hpp:74] Creating layer relu4_2
I0808 03:06:24.577952  2843 net.cpp:91] Creating Layer relu4_2
I0808 03:06:24.577957  2843 net.cpp:452] relu4_2 <- conv4_2
I0808 03:06:24.577965  2843 net.cpp:119] This layer is inheriting previous layer's sync mode: 1
I0808 03:06:24.577970  2843 net.cpp:397] relu4_2 -> conv4_2 (in-place)
I0808 03:06:24.577977  2843 net.cpp:151] Setting up relu4_2
I0808 03:06:24.578052  2843 net.cpp:158] Top shape: 5 512 28 28 (2007040)
I0808 03:06:24.578059  2843 layer_factory.hpp:74] Creating layer conv4_3
I0808 03:06:24.578070  2843 net.cpp:91] Creating Layer conv4_3
I0808 03:06:24.578074  2843 net.cpp:452] conv4_3 <- conv4_2
I0808 03:06:24.578078  2843 net.cpp:119] This layer is inheriting previous layer's sync mode: 1
I0808 03:06:24.578084  2843 net.cpp:408] conv4_3 -> conv4_3
I0808 03:06:24.578093  2843 net.cpp:151] Setting up conv4_3
I0808 03:06:24.655689  2843 net.cpp:158] Top shape: 5 512 28 28 (2007040)
I0808 03:06:24.655719  2843 layer_factory.hpp:74] Creating layer relu4_3
I0808 03:06:24.655760  2843 net.cpp:91] Creating Layer relu4_3
I0808 03:06:24.655767  2843 net.cpp:452] relu4_3 <- conv4_3
I0808 03:06:24.655774  2843 net.cpp:119] This layer is inheriting previous layer's sync mode: 1
I0808 03:06:24.655779  2843 net.cpp:397] relu4_3 -> conv4_3 (in-place)
I0808 03:06:24.655788  2843 net.cpp:151] Setting up relu4_3
I0808 03:06:24.655861  2843 net.cpp:158] Top shape: 5 512 28 28 (2007040)
I0808 03:06:24.655870  2843 layer_factory.hpp:74] Creating layer pool4
I0808 03:06:24.655879  2843 net.cpp:91] Creating Layer pool4
I0808 03:06:24.655884  2843 net.cpp:452] pool4 <- conv4_3
I0808 03:06:24.655889  2843 net.cpp:119] This layer is inheriting previous layer's sync mode: 1
I0808 03:06:24.655895  2843 net.cpp:408] pool4 -> pool4
I0808 03:06:24.655902  2843 net.cpp:151] Setting up pool4
I0808 03:06:24.655977  2843 net.cpp:158] Top shape: 5 512 14 14 (501760)
I0808 03:06:24.655985  2843 layer_factory.hpp:74] Creating layer conv5_1
I0808 03:06:24.655994  2843 net.cpp:91] Creating Layer conv5_1
I0808 03:06:24.655998  2843 net.cpp:452] conv5_1 <- pool4
I0808 03:06:24.656003  2843 net.cpp:119] This layer is inheriting previous layer's sync mode: 1
I0808 03:06:24.656009  2843 net.cpp:408] conv5_1 -> conv5_1
I0808 03:06:24.656020  2843 net.cpp:151] Setting up conv5_1
I0808 03:06:24.695669  2843 net.cpp:158] Top shape: 5 512 14 14 (501760)
I0808 03:06:24.695698  2843 layer_factory.hpp:74] Creating layer relu5_1
I0808 03:06:24.695713  2843 net.cpp:91] Creating Layer relu5_1
I0808 03:06:24.695719  2843 net.cpp:452] relu5_1 <- conv5_1
I0808 03:06:24.695726  2843 net.cpp:119] This layer is inheriting previous layer's sync mode: 1
I0808 03:06:24.695731  2843 net.cpp:397] relu5_1 -> conv5_1 (in-place)
I0808 03:06:24.695740  2843 net.cpp:151] Setting up relu5_1
I0808 03:06:24.695941  2843 net.cpp:158] Top shape: 5 512 14 14 (501760)
I0808 03:06:24.695951  2843 layer_factory.hpp:74] Creating layer conv5_2
I0808 03:06:24.695962  2843 net.cpp:91] Creating Layer conv5_2
I0808 03:06:24.695966  2843 net.cpp:452] conv5_2 <- conv5_1
I0808 03:06:24.695971  2843 net.cpp:119] This layer is inheriting previous layer's sync mode: 1
I0808 03:06:24.695977  2843 net.cpp:408] conv5_2 -> conv5_2
I0808 03:06:24.695984  2843 net.cpp:151] Setting up conv5_2
I0808 03:06:24.729111  2843 net.cpp:158] Top shape: 5 512 14 14 (501760)
I0808 03:06:24.729188  2843 layer_factory.hpp:74] Creating layer relu5_2
I0808 03:06:24.729223  2843 net.cpp:91] Creating Layer relu5_2
I0808 03:06:24.729231  2843 net.cpp:452] relu5_2 <- conv5_2
I0808 03:06:24.729238  2843 net.cpp:119] This layer is inheriting previous layer's sync mode: 1
I0808 03:06:24.729244  2843 net.cpp:397] relu5_2 -> conv5_2 (in-place)
I0808 03:06:24.729251  2843 net.cpp:151] Setting up relu5_2
I0808 03:06:24.729326  2843 net.cpp:158] Top shape: 5 512 14 14 (501760)
I0808 03:06:24.729334  2843 layer_factory.hpp:74] Creating layer conv5_3
I0808 03:06:24.729344  2843 net.cpp:91] Creating Layer conv5_3
I0808 03:06:24.729348  2843 net.cpp:452] conv5_3 <- conv5_2
I0808 03:06:24.729352  2843 net.cpp:119] This layer is inheriting previous layer's sync mode: 1
I0808 03:06:24.729359  2843 net.cpp:408] conv5_3 -> conv5_3
I0808 03:06:24.729367  2843 net.cpp:151] Setting up conv5_3
I0808 03:06:24.759639  2843 net.cpp:158] Top shape: 5 512 14 14 (501760)
I0808 03:06:24.759666  2843 layer_factory.hpp:74] Creating layer relu5_3
I0808 03:06:24.759678  2843 net.cpp:91] Creating Layer relu5_3
I0808 03:06:24.759685  2843 net.cpp:452] relu5_3 <- conv5_3
I0808 03:06:24.759691  2843 net.cpp:119] This layer is inheriting previous layer's sync mode: 1
I0808 03:06:24.759699  2843 net.cpp:397] relu5_3 -> conv5_3 (in-place)
I0808 03:06:24.759708  2843 net.cpp:151] Setting up relu5_3
I0808 03:06:24.759786  2843 net.cpp:158] Top shape: 5 512 14 14 (501760)
I0808 03:06:24.759795  2843 layer_factory.hpp:74] Creating layer pool5
I0808 03:06:24.759804  2843 net.cpp:91] Creating Layer pool5
I0808 03:06:24.759807  2843 net.cpp:452] pool5 <- conv5_3
I0808 03:06:24.759811  2843 net.cpp:119] This layer is inheriting previous layer's sync mode: 1
I0808 03:06:24.759846  2843 net.cpp:408] pool5 -> pool5_local
I0808 03:06:24.759855  2843 net.cpp:151] Setting up pool5
I0808 03:06:24.759922  2843 net.cpp:158] Top shape: 5 512 7 7 (125440)
I0808 03:06:24.759970  2843 layer_factory.hpp:74] Creating layer gather
I0808 03:06:24.760004  2843 net.cpp:91] Creating Layer gather
I0808 03:06:24.760027  2843 net.cpp:452] gather <- pool5_local
I0808 03:06:24.760049  2843 net.cpp:452] gather <- label_local
I0808 03:06:24.760074  2843 net.cpp:408] gather -> pool5
I0808 03:06:24.760103  2843 net.cpp:408] gather -> label
I0808 03:06:24.760128  2843 net.cpp:151] Setting up gather
I0808 03:06:24.760156  2843 net.cpp:158] Top shape: 10 512 7 7 (250880)
I0808 03:06:24.760179  2843 net.cpp:158] Top shape: 10 1 1 1 (10)
I0808 03:06:24.760201  2843 layer_factory.hpp:74] Creating layer label_gather_1_split
I0808 03:06:24.760226  2843 net.cpp:91] Creating Layer label_gather_1_split
I0808 03:06:24.760246  2843 net.cpp:452] label_gather_1_split <- label
I0808 03:06:24.760273  2843 net.cpp:119] This layer is inheriting previous layer's sync mode: 0
I0808 03:06:24.760296  2843 net.cpp:408] label_gather_1_split -> label_gather_1_split_0
I0808 03:06:24.760323  2843 net.cpp:408] label_gather_1_split -> label_gather_1_split_1
I0808 03:06:24.760347  2843 net.cpp:151] Setting up label_gather_1_split
I0808 03:06:24.760371  2843 net.cpp:158] Top shape: 10 1 1 1 (10)
I0808 03:06:24.760393  2843 net.cpp:158] Top shape: 10 1 1 1 (10)
I0808 03:06:24.760413  2843 layer_factory.hpp:74] Creating layer fc6
I0808 03:06:24.760439  2843 net.cpp:91] Creating Layer fc6
I0808 03:06:24.760460  2843 net.cpp:452] fc6 <- pool5
I0808 03:06:24.760480  2843 net.cpp:119] This layer is inheriting previous layer's sync mode: 0
I0808 03:06:24.760504  2843 net.cpp:408] fc6 -> fc6
I0808 03:06:24.760530  2843 net.cpp:151] Setting up fc6
I0808 03:06:26.077808  2843 net.cpp:158] Top shape: 10 4096 (40960)
I0808 03:06:26.077833  2843 layer_factory.hpp:74] Creating layer relu6
I0808 03:06:26.077846  2843 net.cpp:91] Creating Layer relu6
I0808 03:06:26.077850  2843 net.cpp:452] relu6 <- fc6
I0808 03:06:26.077857  2843 net.cpp:119] This layer is inheriting previous layer's sync mode: 0
I0808 03:06:26.077862  2843 net.cpp:397] relu6 -> fc6 (in-place)
I0808 03:06:26.077870  2843 net.cpp:151] Setting up relu6
I0808 03:06:26.078173  2843 net.cpp:158] Top shape: 10 4096 (40960)
I0808 03:06:26.078182  2843 layer_factory.hpp:74] Creating layer drop6
I0808 03:06:26.078192  2843 net.cpp:91] Creating Layer drop6
I0808 03:06:26.078197  2843 net.cpp:452] drop6 <- fc6
I0808 03:06:26.078202  2843 net.cpp:119] This layer is inheriting previous layer's sync mode: 0
I0808 03:06:26.078208  2843 net.cpp:397] drop6 -> fc6 (in-place)
I0808 03:06:26.078217  2843 net.cpp:151] Setting up drop6
I0808 03:06:26.078225  2843 net.cpp:158] Top shape: 10 4096 (40960)
I0808 03:06:26.078229  2843 layer_factory.hpp:74] Creating layer fc7
I0808 03:06:26.078238  2843 net.cpp:91] Creating Layer fc7
I0808 03:06:26.078243  2843 net.cpp:452] fc7 <- fc6
I0808 03:06:26.078248  2843 net.cpp:119] This layer is inheriting previous layer's sync mode: 0
I0808 03:06:26.078256  2843 net.cpp:408] fc7 -> fc7
I0808 03:06:26.078265  2843 net.cpp:151] Setting up fc7
I0808 03:06:26.279667  2843 net.cpp:158] Top shape: 10 4096 (40960)
I0808 03:06:26.279692  2843 layer_factory.hpp:74] Creating layer relu7
I0808 03:06:26.279707  2843 net.cpp:91] Creating Layer relu7
I0808 03:06:26.279712  2843 net.cpp:452] relu7 <- fc7
I0808 03:06:26.279719  2843 net.cpp:119] This layer is inheriting previous layer's sync mode: 0
I0808 03:06:26.279726  2843 net.cpp:397] relu7 -> fc7 (in-place)
I0808 03:06:26.279732  2843 net.cpp:151] Setting up relu7
I0808 03:06:26.279829  2843 net.cpp:158] Top shape: 10 4096 (40960)
I0808 03:06:26.279836  2843 layer_factory.hpp:74] Creating layer drop7
I0808 03:06:26.279846  2843 net.cpp:91] Creating Layer drop7
I0808 03:06:26.279851  2843 net.cpp:452] drop7 <- fc7
I0808 03:06:26.279856  2843 net.cpp:119] This layer is inheriting previous layer's sync mode: 0
I0808 03:06:26.279893  2843 net.cpp:397] drop7 -> fc7 (in-place)
I0808 03:06:26.279901  2843 net.cpp:151] Setting up drop7
I0808 03:06:26.279911  2843 net.cpp:158] Top shape: 10 4096 (40960)
I0808 03:06:26.279916  2843 layer_factory.hpp:74] Creating layer fc8-1
I0808 03:06:26.279927  2843 net.cpp:91] Creating Layer fc8-1
I0808 03:06:26.279932  2843 net.cpp:452] fc8-1 <- fc7
I0808 03:06:26.279937  2843 net.cpp:119] This layer is inheriting previous layer's sync mode: 0
I0808 03:06:26.279942  2843 net.cpp:408] fc8-1 -> fc8-1
I0808 03:06:26.279952  2843 net.cpp:151] Setting up fc8-1
I0808 03:06:26.288995  2843 net.cpp:158] Top shape: 10 101 (1010)
I0808 03:06:26.289016  2843 layer_factory.hpp:74] Creating layer fc8-1_fc8-1_0_split
I0808 03:06:26.289024  2843 net.cpp:91] Creating Layer fc8-1_fc8-1_0_split
I0808 03:06:26.289028  2843 net.cpp:452] fc8-1_fc8-1_0_split <- fc8-1
I0808 03:06:26.289034  2843 net.cpp:119] This layer is inheriting previous layer's sync mode: 0
I0808 03:06:26.289041  2843 net.cpp:408] fc8-1_fc8-1_0_split -> fc8-1_fc8-1_0_split_0
I0808 03:06:26.289052  2843 net.cpp:408] fc8-1_fc8-1_0_split -> fc8-1_fc8-1_0_split_1
I0808 03:06:26.289059  2843 net.cpp:151] Setting up fc8-1_fc8-1_0_split
I0808 03:06:26.289067  2843 net.cpp:158] Top shape: 10 101 (1010)
I0808 03:06:26.289072  2843 net.cpp:158] Top shape: 10 101 (1010)
I0808 03:06:26.289077  2843 layer_factory.hpp:74] Creating layer loss
I0808 03:06:26.289084  2843 net.cpp:91] Creating Layer loss
I0808 03:06:26.289088  2843 net.cpp:452] loss <- fc8-1_fc8-1_0_split_0
I0808 03:06:26.289094  2843 net.cpp:452] loss <- label_gather_1_split_0
I0808 03:06:26.289099  2843 net.cpp:119] This layer is inheriting previous layer's sync mode: 0
I0808 03:06:26.289105  2843 net.cpp:408] loss -> loss
…
