…
    mean_value: 128
    mean_value: 128
    mean_value: 128
    mean_value: 128
    mean_value: 128
    mean_value: 128
    mean_value: 128
    mean_value: 128
    mean_value: 128
    mean_value: 128
    mean_value: 128
    mean_value: 128
    fix_crop: true
    multi_scale: true
    scale_ratios: 1
    scale_ratios: 0.875
    scale_ratios: 0.75
    max_distort: 1
    is_flow: true
  }
  video_data_param {
    source: "/home/jiri/Lake/HAR/datasets/UCF-101/train-2-rnd.txt"
    batch_size: 64
    new_length: 10
    num_segments: 1
    modality: FLOW
  }
}
layer {
  name: "conv1_1"
  type: "Convolution"
  bottom: "data"
  top: "conv1_1"
  param {
    lr_mult: 1
    decay_mult: 1
  }
  param {
    lr_mult: 2
    decay_mult: 0
  }
  convolution_param {
    num_output: 64
    pad: 1
    kernel_size: 3
    weight_filler {
      type: "xavier"
    }
  }
}
layer {
  name: "relu1_1"
  type: "ReLU"
  bottom: "conv1_1"
  top: "conv1_1"
}
layer {
  name: "conv1_2"
  type: "Convolution"
  bottom: "conv1_1"
  top: "conv1_2"
  param {
    lr_mult: 1
    decay_mult: 1
  }
  param {
    lr_mult: 2
    decay_mult: 0
  }
  convolution_param {
    num_output: 64
    pad: 1
    kernel_size: 3
    weight_filler {
      type: "xavier"
    }
  }
}
layer {
  name: "relu1_2"
  type: "ReLU"
  bottom: "conv1_2"
  top: "conv1_2"
}
layer {
  name: "pool1"
  type: "Pooling"
  bottom: "conv1_2"
  top: "pool1"
  pooling_param {
    pool: MAX
    kernel_size: 2
    stride: 2
  }
}
layer {
  name: "conv2_1"
  type: "Convolution"
  bottom: "pool1"
  top: "conv2_1"
  param {
    lr_mult: 1
    decay_mult: 1
  }
  param {
    lr_mult: 2
    decay_mult: 0
  }
  convolution_param {
    num_output: 128
    pad: 1
    kernel_size: 3
    weight_filler {
      type: "xavier"
    }
  }
}
layer {
  name: "relu2_1"
  type: "ReLU"
  bottom: "conv2_1"
  top: "conv2_1"
}
layer {
  name: "conv2_2"
  type: "Convolution"
  bottom: "conv2_1"
  top: "conv2_2"
  param {
    lr_mult: 1
    decay_mult: 1
  }
  param {
    lr_mult: 2
    decay_mult: 0
  }
  convolution_param {
    num_output: 128
    pad: 1
    kernel_size: 3
    weight_filler {
      type: "xavier"
    }
  }
}
layer {
  name: "relu2_2"
  type: "ReLU"
  bottom: "conv2_2"
  top: "conv2_2"
}
layer {
  name: "pool2"
  type: "Pooling"
  bottom: "conv2_2"
  top: "pool2"
  pooling_param {
    pool: MAX
    kernel_size: 2
    stride: 2
  }
}
layer {
  name: "conv3_1"
  type: "Convolution"
  bottom: "pool2"
  top: "conv3_1"
  param {
    lr_mult: 1
    decay_mult: 1
  }
  param {
    lr_mult: 2
    decay_mult: 0
  }
  convolution_param {
    num_output: 256
    pad: 1
    kernel_size: 3
    weight_filler {
      type: "xavier"
    }
  }
}
layer {
  name: "relu3_1"
  type: "ReLU"
  bottom: "conv3_1"
  top: "conv3_1"
}
layer {
  name: "conv3_2"
  type: "Convolution"
  bottom: "conv3_1"
  top: "conv3_2"
  param {
    lr_mult: 1
    decay_mult: 1
  }
  param {
    lr_mult: 2
    decay_mult: 0
  }
  convolution_param {
    num_output: 256
    pad: 1
    kernel_size: 3
    weight_filler {
      type: "xavier"
    }
  }
}
layer {
  name: "relu3_2"
  type: "ReLU"
  bottom: "conv3_2"
  top: "conv3_2"
}
layer {
  name: "conv3_3"
  type: "Convolution"
  bottom: "conv3_2"
  top: "conv3_3"
  param {
    lr_mult: 1
    decay_mult: 1
  }
  param {
    lr_mult: 2
    decay_mult: 0
  }
  convolution_param {
    num_output: 256
    pad: 1
    kernel_size: 3
    weight_filler {
      type: "xavier"
    }
  }
}
layer {
  name: "relu3_3"
  type: "ReLU"
  bottom: "conv3_3"
  top: "conv3_3"
}
layer {
  name: "pool3"
  type: "Pooling"
  bottom: "conv3_3"
  top: "pool3"
  pooling_param {
    pool: MAX
    kernel_size: 2
    stride: 2
  }
}
layer {
  name: "conv4_1"
  type: "Convolution"
  bottom: "pool3"
  top: "conv4_1"
  param {
    lr_mult: 1
    decay_mult: 1
  }
  param {
    lr_mult: 2
    decay_mult: 0
  }
  convolution_param {
    num_output: 512
    pad: 1
    kernel_size: 3
    weight_filler {
      type: "xavier"
    }
  }
}
layer {
  name: "relu4_1"
  type: "ReLU"
  bottom: "conv4_1"
  top: "conv4_1"
}
layer {
  name: "conv4_2"
  type: "Convolution"
  bottom: "conv4_1"
  top: "conv4_2"
  param {
    lr_mult: 1
    decay_mult: 1
  }
  param {
    lr_mult: 2
    decay_mult: 0
  }
  convolution_param {
    num_output: 512
    pad: 1
    kernel_size: 3
    weight_filler {
      type: "xavier"
    }
  }
}
layer {
  name: "relu4_2"
  type: "ReLU"
  bottom: "conv4_2"
  top: "conv4_2"
}
layer {
  name: "conv4_3"
  type: "Convolution"
  bottom: "conv4_2"
  top: "conv4_3"
  param {
    lr_mult: 1
    decay_mult: 1
  }
  param {
    lr_mult: 2
    decay_mult: 0
  }
  convolution_param {
    num_output: 512
    pad: 1
    kernel_size: 3
    weight_filler {
      type: "xavier"
    }
  }
}
layer {
  name: "relu4_3"
  type: "ReLU"
  bottom: "conv4_3"
  top: "conv4_3"
}
layer {
  name: "pool4"
  type: "Pooling"
  bottom: "conv4_3"
  top: "pool4"
  pooling_param {
    pool: MAX
    kernel_size: 2
    stride: 2
  }
}
layer {
  name: "conv5_1"
  type: "Convolution"
  bottom: "pool4"
  top: "conv5_1"
  param {
    lr_mult: 1
    decay_mult: 1
  }
  param {
    lr_mult: 2
    decay_mult: 0
  }
  convolution_param {
    num_output: 512
    pad: 1
    kernel_size: 3
    weight_filler {
      type: "xavier"
    }
  }
}
layer {
  name: "relu5_1"
  type: "ReLU"
  bottom: "conv5_1"
  top: "conv5_1"
}
layer {
  name: "conv5_2"
  type: "Convolution"
  bottom: "conv5_1"
  top: "conv5_2"
  param {
    lr_mult: 1
    decay_mult: 1
  }
  param {
    lr_mult: 2
    decay_mult: 0
  }
  convolution_param {
    num_output: 512
    pad: 1
    kernel_size: 3
    weight_filler {
      type: "xavier"
    }
  }
}
layer {
  name: "relu5_2"
  type: "ReLU"
  bottom: "conv5_2"
  top: "conv5_2"
}
layer {
  name: "conv5_3"
  type: "Convolution"
  bottom: "conv5_2"
  top: "conv5_3"
  param {
    lr_mult: 1
    decay_mult: 1
  }
  param {
    lr_mult: 2
    decay_mult: 0
  }
  convolution_param {
    num_output: 512
    pad: 1
    kernel_size: 3
    weight_filler {
      type: "xavier"
    }
  }
}
layer {
  name: "relu5_3"
  type: "ReLU"
  bottom: "conv5_3"
  top: "conv5_3"
}
layer {
  name: "pool5"
  type: "Pooling"
  bottom: "conv5_3"
  top: "pool5_local"
  pooling_param {
    pool: MAX
    kernel_size: 2
    stride: 2
  }
}
layer {
  name: "gather"
  type: "Gather"
  bottom: "pool5_local"
  bottom: "label_local"
  top: "pool5"
  top: "label"
}
layer {
  name: "fc6"
  type: "InnerProduct"
  bottom: "pool5"
  top: "fc6"
  param {
    lr_mult: 1
    decay_mult: 1
  }
  param {
    lr_mult: 2
    decay_mult: 0
  }
  inner_product_param {
    num_output: 4096
    weight_filler {
      type: "xavier"
    }
  }
}
layer {
  name: "relu6"
  type: "ReLU"
  bottom: "fc6"
  top: "fc6"
}
layer {
  name: "drop6"
  type: "Dropout"
  bottom: "fc6"
  top: "fc6"
  dropout_param {
    dropout_ratio: 0.9
  }
}
layer {
  name: "fc7"
  type: "InnerProduct"
  bottom: "fc6"
  top: "fc7"
  param {
    lr_mult: 1
    decay_mult: 1
  }
  param {
    lr_mult: 2
    decay_mult: 0
  }
  inner_product_param {
    num_output: 4096
    weight_filler {
      type: "xavier"
    }
  }
}
layer {
  name: "relu7"
  type: "ReLU"
  bottom: "fc7"
  top: "fc7"
}
layer {
  name: "drop7"
  type: "Dropout"
  bottom: "fc7"
  top: "fc7"
  dropout_param {
    dropout_ratio: 0.8
  }
}
layer {
  name: "fc8-1"
  type: "InnerProduct"
  bottom: "fc7"
  top: "fc8-1"
  param {
    lr_mult: 1
    decay_mult: 1
  }
  param {
    lr_mult: 2
    decay_mult: 0
  }
  inner_product_param {
    num_output: 101
    weight_filler {
      type: "gaussian"
      std: 0.001
    }
    bias_filler {
      type: "constant"
      value: 0
    }
  }
}
layer {
  name: "loss"
  type: "SoftmaxWithLoss"
  bottom: "fc8-1"
  bottom: "label"
  include {
    phase: TRAIN
  }
}
I0809 12:47:47.251966  2646 layer_factory.hpp:74] Creating layer data
I0809 12:47:47.253999  2646 net.cpp:91] Creating Layer data
I0809 12:47:47.254007  2646 net.cpp:408] data -> data
I0809 12:47:47.254027  2646 net.cpp:408] data -> label_local
I0809 12:47:47.254035  2646 net.cpp:151] Setting up data
I0809 12:47:47.254421  2646 video_data_layer.cpp:34] Opening file: /home/jiri/Lake/HAR/datasets/UCF-101/train-2-rnd.txt
I0809 12:47:47.258822  2646 video_data_layer.cpp:50] A total of 9537 videos.
I0809 12:47:47.271917  2646 video_data_layer.cpp:76] output data size: 64,20,224,224
I0809 12:47:47.308715  2646 net.cpp:158] Top shape: 64 20 224 224 (64225280)
I0809 12:47:47.308743  2646 net.cpp:158] Top shape: 64 1 1 1 (64)
I0809 12:47:47.308753  2646 layer_factory.hpp:74] Creating layer conv1_1
I0809 12:47:47.308773  2646 net.cpp:91] Creating Layer conv1_1
I0809 12:47:47.308779  2646 net.cpp:452] conv1_1 <- data
I0809 12:47:47.308791  2646 net.cpp:119] This layer is inheriting previous layer's sync mode: 1
I0809 12:47:47.308799  2646 net.cpp:408] conv1_1 -> conv1_1
I0809 12:47:47.308815  2646 net.cpp:151] Setting up conv1_1
I0809 12:47:47.359998  2646 net.cpp:158] Top shape: 64 64 224 224 (205520896)
I0809 12:47:47.360036  2646 layer_factory.hpp:74] Creating layer relu1_1
I0809 12:47:47.360050  2646 net.cpp:91] Creating Layer relu1_1
I0809 12:47:47.360057  2646 net.cpp:452] relu1_1 <- conv1_1
I0809 12:47:47.360064  2646 net.cpp:119] This layer is inheriting previous layer's sync mode: 1
I0809 12:47:47.360071  2646 net.cpp:397] relu1_1 -> conv1_1 (in-place)
I0809 12:47:47.360080  2646 net.cpp:151] Setting up relu1_1
I0809 12:47:47.360574  2646 net.cpp:158] Top shape: 64 64 224 224 (205520896)
I0809 12:47:47.360585  2646 layer_factory.hpp:74] Creating layer conv1_2
I0809 12:47:47.360596  2646 net.cpp:91] Creating Layer conv1_2
I0809 12:47:47.360601  2646 net.cpp:452] conv1_2 <- conv1_1
I0809 12:47:47.360606  2646 net.cpp:119] This layer is inheriting previous layer's sync mode: 1
I0809 12:47:47.360612  2646 net.cpp:408] conv1_2 -> conv1_2
I0809 12:47:47.360622  2646 net.cpp:151] Setting up conv1_2
I0809 12:47:47.361261  2646 net.cpp:158] Top shape: 64 64 224 224 (205520896)
I0809 12:47:47.361279  2646 layer_factory.hpp:74] Creating layer relu1_2
I0809 12:47:47.361287  2646 net.cpp:91] Creating Layer relu1_2
I0809 12:47:47.361292  2646 net.cpp:452] relu1_2 <- conv1_2
I0809 12:47:47.361297  2646 net.cpp:119] This layer is inheriting previous layer's sync mode: 1
I0809 12:47:47.361301  2646 net.cpp:397] relu1_2 -> conv1_2 (in-place)
I0809 12:47:47.361307  2646 net.cpp:151] Setting up relu1_2
I0809 12:47:47.361505  2646 net.cpp:158] Top shape: 64 64 224 224 (205520896)
I0809 12:47:47.361516  2646 layer_factory.hpp:74] Creating layer pool1
I0809 12:47:47.361529  2646 net.cpp:91] Creating Layer pool1
I0809 12:47:47.361533  2646 net.cpp:452] pool1 <- conv1_2
I0809 12:47:47.361538  2646 net.cpp:119] This layer is inheriting previous layer's sync mode: 1
I0809 12:47:47.361567  2646 net.cpp:408] pool1 -> pool1
I0809 12:47:47.361577  2646 net.cpp:151] Setting up pool1
I0809 12:47:47.361662  2646 net.cpp:158] Top shape: 64 64 112 112 (51380224)
I0809 12:47:47.361672  2646 layer_factory.hpp:74] Creating layer conv2_1
I0809 12:47:47.361681  2646 net.cpp:91] Creating Layer conv2_1
I0809 12:47:47.361685  2646 net.cpp:452] conv2_1 <- pool1
I0809 12:47:47.361691  2646 net.cpp:119] This layer is inheriting previous layer's sync mode: 1
I0809 12:47:47.361697  2646 net.cpp:408] conv2_1 -> conv2_1
I0809 12:47:47.361706  2646 net.cpp:151] Setting up conv2_1
I0809 12:47:47.362574  2646 net.cpp:158] Top shape: 64 128 112 112 (102760448)
I0809 12:47:47.362592  2646 layer_factory.hpp:74] Creating layer relu2_1
I0809 12:47:47.362599  2646 net.cpp:91] Creating Layer relu2_1
I0809 12:47:47.362604  2646 net.cpp:452] relu2_1 <- conv2_1
I0809 12:47:47.362609  2646 net.cpp:119] This layer is inheriting previous layer's sync mode: 1
I0809 12:47:47.362613  2646 net.cpp:397] relu2_1 -> conv2_1 (in-place)
I0809 12:47:47.362620  2646 net.cpp:151] Setting up relu2_1
I0809 12:47:47.362686  2646 net.cpp:158] Top shape: 64 128 112 112 (102760448)
I0809 12:47:47.362692  2646 layer_factory.hpp:74] Creating layer conv2_2
I0809 12:47:47.362702  2646 net.cpp:91] Creating Layer conv2_2
I0809 12:47:47.362706  2646 net.cpp:452] conv2_2 <- conv2_1
I0809 12:47:47.362711  2646 net.cpp:119] This layer is inheriting previous layer's sync mode: 1
I0809 12:47:47.362717  2646 net.cpp:408] conv2_2 -> conv2_2
I0809 12:47:47.362725  2646 net.cpp:151] Setting up conv2_2
I0809 12:47:47.364058  2646 net.cpp:158] Top shape: 64 128 112 112 (102760448)
I0809 12:47:47.364073  2646 layer_factory.hpp:74] Creating layer relu2_2
I0809 12:47:47.364081  2646 net.cpp:91] Creating Layer relu2_2
I0809 12:47:47.364085  2646 net.cpp:452] relu2_2 <- conv2_2
I0809 12:47:47.364091  2646 net.cpp:119] This layer is inheriting previous layer's sync mode: 1
I0809 12:47:47.364096  2646 net.cpp:397] relu2_2 -> conv2_2 (in-place)
I0809 12:47:47.364104  2646 net.cpp:151] Setting up relu2_2
I0809 12:47:47.364168  2646 net.cpp:158] Top shape: 64 128 112 112 (102760448)
I0809 12:47:47.364174  2646 layer_factory.hpp:74] Creating layer pool2
I0809 12:47:47.364182  2646 net.cpp:91] Creating Layer pool2
I0809 12:47:47.364187  2646 net.cpp:452] pool2 <- conv2_2
I0809 12:47:47.364192  2646 net.cpp:119] This layer is inheriting previous layer's sync mode: 1
I0809 12:47:47.364197  2646 net.cpp:408] pool2 -> pool2
I0809 12:47:47.364203  2646 net.cpp:151] Setting up pool2
I0809 12:47:47.364403  2646 net.cpp:158] Top shape: 64 128 56 56 (25690112)
I0809 12:47:47.364414  2646 layer_factory.hpp:74] Creating layer conv3_1
I0809 12:47:47.364423  2646 net.cpp:91] Creating Layer conv3_1
I0809 12:47:47.364428  2646 net.cpp:452] conv3_1 <- pool2
I0809 12:47:47.364433  2646 net.cpp:119] This layer is inheriting previous layer's sync mode: 1
I0809 12:47:47.364439  2646 net.cpp:408] conv3_1 -> conv3_1
I0809 12:47:47.364446  2646 net.cpp:151] Setting up conv3_1
I0809 12:47:47.366778  2646 net.cpp:158] Top shape: 64 256 56 56 (51380224)
I0809 12:47:47.366796  2646 layer_factory.hpp:74] Creating layer relu3_1
I0809 12:47:47.366803  2646 net.cpp:91] Creating Layer relu3_1
I0809 12:47:47.366808  2646 net.cpp:452] relu3_1 <- conv3_1
I0809 12:47:47.366813  2646 net.cpp:119] This layer is inheriting previous layer's sync mode: 1
I0809 12:47:47.366819  2646 net.cpp:397] relu3_1 -> conv3_1 (in-place)
I0809 12:47:47.366827  2646 net.cpp:151] Setting up relu3_1
I0809 12:47:47.366891  2646 net.cpp:158] Top shape: 64 256 56 56 (51380224)
I0809 12:47:47.366897  2646 layer_factory.hpp:74] Creating layer conv3_2
I0809 12:47:47.366905  2646 net.cpp:91] Creating Layer conv3_2
I0809 12:47:47.366909  2646 net.cpp:452] conv3_2 <- conv3_1
I0809 12:47:47.366914  2646 net.cpp:119] This layer is inheriting previous layer's sync mode: 1
I0809 12:47:47.366919  2646 net.cpp:408] conv3_2 -> conv3_2
I0809 12:47:47.366926  2646 net.cpp:151] Setting up conv3_2
I0809 12:47:47.371557  2646 net.cpp:158] Top shape: 64 256 56 56 (51380224)
I0809 12:47:47.371577  2646 layer_factory.hpp:74] Creating layer relu3_2
I0809 12:47:47.371587  2646 net.cpp:91] Creating Layer relu3_2
I0809 12:47:47.371592  2646 net.cpp:452] relu3_2 <- conv3_2
I0809 12:47:47.371598  2646 net.cpp:119] This layer is inheriting previous layer's sync mode: 1
I0809 12:47:47.371603  2646 net.cpp:397] relu3_2 -> conv3_2 (in-place)
I0809 12:47:47.371610  2646 net.cpp:151] Setting up relu3_2
I0809 12:47:47.371677  2646 net.cpp:158] Top shape: 64 256 56 56 (51380224)
I0809 12:47:47.371686  2646 layer_factory.hpp:74] Creating layer conv3_3
I0809 12:47:47.371695  2646 net.cpp:91] Creating Layer conv3_3
I0809 12:47:47.371701  2646 net.cpp:452] conv3_3 <- conv3_2
I0809 12:47:47.371706  2646 net.cpp:119] This layer is inheriting previous layer's sync mode: 1
I0809 12:47:47.371712  2646 net.cpp:408] conv3_3 -> conv3_3
I0809 12:47:47.371721  2646 net.cpp:151] Setting up conv3_3
I0809 12:47:47.376317  2646 net.cpp:158] Top shape: 64 256 56 56 (51380224)
I0809 12:47:47.376332  2646 layer_factory.hpp:74] Creating layer relu3_3
I0809 12:47:47.376341  2646 net.cpp:91] Creating Layer relu3_3
I0809 12:47:47.376344  2646 net.cpp:452] relu3_3 <- conv3_3
I0809 12:47:47.376349  2646 net.cpp:119] This layer is inheriting previous layer's sync mode: 1
I0809 12:47:47.376354  2646 net.cpp:397] relu3_3 -> conv3_3 (in-place)
I0809 12:47:47.376363  2646 net.cpp:151] Setting up relu3_3
I0809 12:47:47.376435  2646 net.cpp:158] Top shape: 64 256 56 56 (51380224)
I0809 12:47:47.376442  2646 layer_factory.hpp:74] Creating layer pool3
I0809 12:47:47.376452  2646 net.cpp:91] Creating Layer pool3
I0809 12:47:47.376456  2646 net.cpp:452] pool3 <- conv3_3
I0809 12:47:47.376462  2646 net.cpp:119] This layer is inheriting previous layer's sync mode: 1
I0809 12:47:47.376468  2646 net.cpp:408] pool3 -> pool3
I0809 12:47:47.376477  2646 net.cpp:151] Setting up pool3
I0809 12:47:47.376687  2646 net.cpp:158] Top shape: 64 256 28 28 (12845056)
I0809 12:47:47.376698  2646 layer_factory.hpp:74] Creating layer conv4_1
I0809 12:47:47.376709  2646 net.cpp:91] Creating Layer conv4_1
I0809 12:47:47.376713  2646 net.cpp:452] conv4_1 <- pool3
I0809 12:47:47.376719  2646 net.cpp:119] This layer is inheriting previous layer's sync mode: 1
I0809 12:47:47.376725  2646 net.cpp:408] conv4_1 -> conv4_1
I0809 12:47:47.376732  2646 net.cpp:151] Setting up conv4_1
I0809 12:47:47.384886  2646 net.cpp:158] Top shape: 64 512 28 28 (25690112)
I0809 12:47:47.384908  2646 layer_factory.hpp:74] Creating layer relu4_1
I0809 12:47:47.384918  2646 net.cpp:91] Creating Layer relu4_1
I0809 12:47:47.384923  2646 net.cpp:452] relu4_1 <- conv4_1
I0809 12:47:47.384929  2646 net.cpp:119] This layer is inheriting previous layer's sync mode: 1
I0809 12:47:47.384935  2646 net.cpp:397] relu4_1 -> conv4_1 (in-place)
I0809 12:47:47.384943  2646 net.cpp:151] Setting up relu4_1
I0809 12:47:47.385010  2646 net.cpp:158] Top shape: 64 512 28 28 (25690112)
I0809 12:47:47.385015  2646 layer_factory.hpp:74] Creating layer conv4_2
I0809 12:47:47.385025  2646 net.cpp:91] Creating Layer conv4_2
I0809 12:47:47.385028  2646 net.cpp:452] conv4_2 <- conv4_1
I0809 12:47:47.385033  2646 net.cpp:119] This layer is inheriting previous layer's sync mode: 1
I0809 12:47:47.385040  2646 net.cpp:408] conv4_2 -> conv4_2
I0809 12:47:47.385047  2646 net.cpp:151] Setting up conv4_2
I0809 12:47:47.402258  2646 net.cpp:158] Top shape: 64 512 28 28 (25690112)
I0809 12:47:47.402294  2646 layer_factory.hpp:74] Creating layer relu4_2
I0809 12:47:47.402307  2646 net.cpp:91] Creating Layer relu4_2
I0809 12:47:47.402312  2646 net.cpp:452] relu4_2 <- conv4_2
I0809 12:47:47.402319  2646 net.cpp:119] This layer is inheriting previous layer's sync mode: 1
I0809 12:47:47.402325  2646 net.cpp:397] relu4_2 -> conv4_2 (in-place)
I0809 12:47:47.402333  2646 net.cpp:151] Setting up relu4_2
I0809 12:47:47.402400  2646 net.cpp:158] Top shape: 64 512 28 28 (25690112)
I0809 12:47:47.402408  2646 layer_factory.hpp:74] Creating layer conv4_3
I0809 12:47:47.402439  2646 net.cpp:91] Creating Layer conv4_3
I0809 12:47:47.402443  2646 net.cpp:452] conv4_3 <- conv4_2
I0809 12:47:47.402446  2646 net.cpp:119] This layer is inheriting previous layer's sync mode: 1
I0809 12:47:47.402451  2646 net.cpp:408] conv4_3 -> conv4_3
I0809 12:47:47.402457  2646 net.cpp:151] Setting up conv4_3
I0809 12:47:47.418694  2646 net.cpp:158] Top shape: 64 512 28 28 (25690112)
I0809 12:47:47.418723  2646 layer_factory.hpp:74] Creating layer relu4_3
I0809 12:47:47.418737  2646 net.cpp:91] Creating Layer relu4_3
I0809 12:47:47.418745  2646 net.cpp:452] relu4_3 <- conv4_3
I0809 12:47:47.418751  2646 net.cpp:119] This layer is inheriting previous layer's sync mode: 1
I0809 12:47:47.418758  2646 net.cpp:397] relu4_3 -> conv4_3 (in-place)
I0809 12:47:47.418766  2646 net.cpp:151] Setting up relu4_3
I0809 12:47:47.418977  2646 net.cpp:158] Top shape: 64 512 28 28 (25690112)
I0809 12:47:47.418989  2646 layer_factory.hpp:74] Creating layer pool4
I0809 12:47:47.419000  2646 net.cpp:91] Creating Layer pool4
I0809 12:47:47.419005  2646 net.cpp:452] pool4 <- conv4_3
I0809 12:47:47.419011  2646 net.cpp:119] This layer is inheriting previous layer's sync mode: 1
I0809 12:47:47.419018  2646 net.cpp:408] pool4 -> pool4
I0809 12:47:47.419025  2646 net.cpp:151] Setting up pool4
I0809 12:47:47.419105  2646 net.cpp:158] Top shape: 64 512 14 14 (6422528)
I0809 12:47:47.419113  2646 layer_factory.hpp:74] Creating layer conv5_1
I0809 12:47:47.419123  2646 net.cpp:91] Creating Layer conv5_1
I0809 12:47:47.419127  2646 net.cpp:452] conv5_1 <- pool4
I0809 12:47:47.419132  2646 net.cpp:119] This layer is inheriting previous layer's sync mode: 1
I0809 12:47:47.419138  2646 net.cpp:408] conv5_1 -> conv5_1
I0809 12:47:47.419152  2646 net.cpp:151] Setting up conv5_1
I0809 12:47:47.436221  2646 net.cpp:158] Top shape: 64 512 14 14 (6422528)
I0809 12:47:47.436247  2646 layer_factory.hpp:74] Creating layer relu5_1
I0809 12:47:47.436261  2646 net.cpp:91] Creating Layer relu5_1
I0809 12:47:47.436269  2646 net.cpp:452] relu5_1 <- conv5_1
I0809 12:47:47.436277  2646 net.cpp:119] This layer is inheriting previous layer's sync mode: 1
I0809 12:47:47.436286  2646 net.cpp:397] relu5_1 -> conv5_1 (in-place)
I0809 12:47:47.436296  2646 net.cpp:151] Setting up relu5_1
I0809 12:47:47.436374  2646 net.cpp:158] Top shape: 64 512 14 14 (6422528)
I0809 12:47:47.436385  2646 layer_factory.hpp:74] Creating layer conv5_2
I0809 12:47:47.436398  2646 net.cpp:91] Creating Layer conv5_2
I0809 12:47:47.436403  2646 net.cpp:452] conv5_2 <- conv5_1
I0809 12:47:47.436408  2646 net.cpp:119] This layer is inheriting previous layer's sync mode: 1
I0809 12:47:47.436414  2646 net.cpp:408] conv5_2 -> conv5_2
I0809 12:47:47.436424  2646 net.cpp:151] Setting up conv5_2
I0809 12:47:47.453160  2646 net.cpp:158] Top shape: 64 512 14 14 (6422528)
I0809 12:47:47.453189  2646 layer_factory.hpp:74] Creating layer relu5_2
I0809 12:47:47.453202  2646 net.cpp:91] Creating Layer relu5_2
I0809 12:47:47.453208  2646 net.cpp:452] relu5_2 <- conv5_2
I0809 12:47:47.453215  2646 net.cpp:119] This layer is inheriting previous layer's sync mode: 1
I0809 12:47:47.453223  2646 net.cpp:397] relu5_2 -> conv5_2 (in-place)
I0809 12:47:47.453233  2646 net.cpp:151] Setting up relu5_2
I0809 12:47:47.453310  2646 net.cpp:158] Top shape: 64 512 14 14 (6422528)
I0809 12:47:47.453316  2646 layer_factory.hpp:74] Creating layer conv5_3
I0809 12:47:47.453326  2646 net.cpp:91] Creating Layer conv5_3
I0809 12:47:47.453330  2646 net.cpp:452] conv5_3 <- conv5_2
I0809 12:47:47.453336  2646 net.cpp:119] This layer is inheriting previous layer's sync mode: 1
I0809 12:47:47.453343  2646 net.cpp:408] conv5_3 -> conv5_3
I0809 12:47:47.453351  2646 net.cpp:151] Setting up conv5_3
I0809 12:47:47.470155  2646 net.cpp:158] Top shape: 64 512 14 14 (6422528)
I0809 12:47:47.470185  2646 layer_factory.hpp:74] Creating layer relu5_3
I0809 12:47:47.470199  2646 net.cpp:91] Creating Layer relu5_3
I0809 12:47:47.470206  2646 net.cpp:452] relu5_3 <- conv5_3
I0809 12:47:47.470213  2646 net.cpp:119] This layer is inheriting previous layer's sync mode: 1
I0809 12:47:47.470238  2646 net.cpp:397] relu5_3 -> conv5_3 (in-place)
I0809 12:47:47.470249  2646 net.cpp:151] Setting up relu5_3
I0809 12:47:47.470465  2646 net.cpp:158] Top shape: 64 512 14 14 (6422528)
I0809 12:47:47.470479  2646 layer_factory.hpp:74] Creating layer pool5
I0809 12:47:47.470489  2646 net.cpp:91] Creating Layer pool5
I0809 12:47:47.470494  2646 net.cpp:452] pool5 <- conv5_3
I0809 12:47:47.470499  2646 net.cpp:119] This layer is inheriting previous layer's sync mode: 1
I0809 12:47:47.470507  2646 net.cpp:408] pool5 -> pool5_local
I0809 12:47:47.470516  2646 net.cpp:151] Setting up pool5
I0809 12:47:47.470598  2646 net.cpp:158] Top shape: 64 512 7 7 (1605632)
I0809 12:47:47.470608  2646 layer_factory.hpp:74] Creating layer gather
I0809 12:47:47.470623  2646 net.cpp:91] Creating Layer gather
I0809 12:47:47.470628  2646 net.cpp:452] gather <- pool5_local
I0809 12:47:47.470633  2646 net.cpp:452] gather <- label_local
I0809 12:47:47.470643  2646 net.cpp:408] gather -> pool5
I0809 12:47:47.470652  2646 net.cpp:408] gather -> label
I0809 12:47:47.470659  2646 net.cpp:151] Setting up gather
I0809 12:47:47.470670  2646 net.cpp:158] Top shape: 64 512 7 7 (1605632)
I0809 12:47:47.470675  2646 net.cpp:158] Top shape: 64 1 1 1 (64)
I0809 12:47:47.470679  2646 layer_factory.hpp:74] Creating layer fc6
I0809 12:47:47.470690  2646 net.cpp:91] Creating Layer fc6
I0809 12:47:47.470695  2646 net.cpp:452] fc6 <- pool5
I0809 12:47:47.470698  2646 net.cpp:119] This layer is inheriting previous layer's sync mode: 0
I0809 12:47:47.470705  2646 net.cpp:408] fc6 -> fc6
I0809 12:47:47.470712  2646 net.cpp:151] Setting up fc6
I0809 12:47:48.123833  2646 net.cpp:158] Top shape: 64 4096 (262144)
I0809 12:47:48.123862  2646 layer_factory.hpp:74] Creating layer relu6
I0809 12:47:48.123875  2646 net.cpp:91] Creating Layer relu6
I0809 12:47:48.123881  2646 net.cpp:452] relu6 <- fc6
I0809 12:47:48.123888  2646 net.cpp:119] This layer is inheriting previous layer's sync mode: 0
I0809 12:47:48.123894  2646 net.cpp:397] relu6 -> fc6 (in-place)
I0809 12:47:48.123903  2646 net.cpp:151] Setting up relu6
I0809 12:47:48.124014  2646 net.cpp:158] Top shape: 64 4096 (262144)
I0809 12:47:48.124022  2646 layer_factory.hpp:74] Creating layer drop6
I0809 12:47:48.124030  2646 net.cpp:91] Creating Layer drop6
I0809 12:47:48.124033  2646 net.cpp:452] drop6 <- fc6
I0809 12:47:48.124038  2646 net.cpp:119] This layer is inheriting previous layer's sync mode: 0
I0809 12:47:48.124044  2646 net.cpp:397] drop6 -> fc6 (in-place)
I0809 12:47:48.124052  2646 net.cpp:151] Setting up drop6
I0809 12:47:48.124060  2646 net.cpp:158] Top shape: 64 4096 (262144)
I0809 12:47:48.124063  2646 layer_factory.hpp:74] Creating layer fc7
I0809 12:47:48.124071  2646 net.cpp:91] Creating Layer fc7
I0809 12:47:48.124074  2646 net.cpp:452] fc7 <- fc6
I0809 12:47:48.124079  2646 net.cpp:119] This layer is inheriting previous layer's sync mode: 0
I0809 12:47:48.124084  2646 net.cpp:408] fc7 -> fc7
I0809 12:47:48.124091  2646 net.cpp:151] Setting up fc7
I0809 12:47:48.230669  2646 net.cpp:158] Top shape: 64 4096 (262144)
I0809 12:47:48.230696  2646 layer_factory.hpp:74] Creating layer relu7
I0809 12:47:48.230708  2646 net.cpp:91] Creating Layer relu7
I0809 12:47:48.230715  2646 net.cpp:452] relu7 <- fc7
I0809 12:47:48.230721  2646 net.cpp:119] This layer is inheriting previous layer's sync mode: 0
I0809 12:47:48.230728  2646 net.cpp:397] relu7 -> fc7 (in-place)
I0809 12:47:48.230737  2646 net.cpp:151] Setting up relu7
I0809 12:47:48.230849  2646 net.cpp:158] Top shape: 64 4096 (262144)
I0809 12:47:48.230855  2646 layer_factory.hpp:74] Creating layer drop7
I0809 12:47:48.230864  2646 net.cpp:91] Creating Layer drop7
I0809 12:47:48.230867  2646 net.cpp:452] drop7 <- fc7
I0809 12:47:48.230872  2646 net.cpp:119] This layer is inheriting previous layer's sync mode: 0
I0809 12:47:48.230880  2646 net.cpp:397] drop7 -> fc7 (in-place)
I0809 12:47:48.230885  2646 net.cpp:151] Setting up drop7
I0809 12:47:48.230891  2646 net.cpp:158] Top shape: 64 4096 (262144)
I0809 12:47:48.230913  2646 layer_factory.hpp:74] Creating layer fc8-1
I0809 12:47:48.230922  2646 net.cpp:91] Creating Layer fc8-1
I0809 12:47:48.230926  2646 net.cpp:452] fc8-1 <- fc7
I0809 12:47:48.230929  2646 net.cpp:119] This layer is inheriting previous layer's sync mode: 0
I0809 12:47:48.230936  2646 net.cpp:408] fc8-1 -> fc8-1
I0809 12:47:48.230942  2646 net.cpp:151] Setting up fc8-1
I0809 12:47:48.243721  2646 net.cpp:158] Top shape: 64 101 (6464)
I0809 12:47:48.243738  2646 layer_factory.hpp:74] Creating layer loss
I0809 12:47:48.243751  2646 net.cpp:91] Creating Layer loss
I0809 12:47:48.243757  2646 net.cpp:452] loss <- fc8-1
I0809 12:47:48.243762  2646 net.cpp:452] loss <- label
I0809 12:47:48.243768  2646 net.cpp:119] This layer is inheriting previous layer's sync mode: 0
I0809 12:47:48.243775  2646 net.cpp:408] loss -> (automatic)
…
    mean_value: 128
    mean_value: 128
    mean_value: 128
    mean_value: 128
    mean_value: 128
    mean_value: 128
    mean_value: 128
    mean_value: 128
    mean_value: 128
    mean_value: 128
    mean_value: 128
    mean_value: 128
    mean_value: 128
    mean_value: 128
    mean_value: 128
    mean_value: 128
    mean_value: 128
    mean_value: 128
    fix_crop: true
    is_flow: true
  }
  video_data_param {
    source: "/home/jiri/Lake/HAR/datasets/UCF-101/val-2-rnd.txt"
    batch_size: 5
    new_length: 10
    num_segments: 1
    modality: FLOW
  }
}
layer {
  name: "conv1_1"
  type: "Convolution"
  bottom: "data"
  top: "conv1_1"
  param {
    lr_mult: 1
    decay_mult: 1
  }
  param {
    lr_mult: 2
    decay_mult: 0
  }
  convolution_param {
    num_output: 64
    pad: 1
    kernel_size: 3
    weight_filler {
      type: "xavier"
    }
  }
}
layer {
  name: "relu1_1"
  type: "ReLU"
  bottom: "conv1_1"
  top: "conv1_1"
}
layer {
  name: "conv1_2"
  type: "Convolution"
  bottom: "conv1_1"
  top: "conv1_2"
  param {
    lr_mult: 1
    decay_mult: 1
  }
  param {
    lr_mult: 2
    decay_mult: 0
  }
  convolution_param {
    num_output: 64
    pad: 1
    kernel_size: 3
    weight_filler {
      type: "xavier"
    }
  }
}
layer {
  name: "relu1_2"
  type: "ReLU"
  bottom: "conv1_2"
  top: "conv1_2"
}
layer {
  name: "pool1"
  type: "Pooling"
  bottom: "conv1_2"
  top: "pool1"
  pooling_param {
    pool: MAX
    kernel_size: 2
    stride: 2
  }
}
layer {
  name: "conv2_1"
  type: "Convolution"
  bottom: "pool1"
  top: "conv2_1"
  param {
    lr_mult: 1
    decay_mult: 1
  }
  param {
    lr_mult: 2
    decay_mult: 0
  }
  convolution_param {
    num_output: 128
    pad: 1
    kernel_size: 3
    weight_filler {
      type: "xavier"
    }
  }
}
layer {
  name: "relu2_1"
  type: "ReLU"
  bottom: "conv2_1"
  top: "conv2_1"
}
layer {
  name: "conv2_2"
  type: "Convolution"
  bottom: "conv2_1"
  top: "conv2_2"
  param {
    lr_mult: 1
    decay_mult: 1
  }
  param {
    lr_mult: 2
    decay_mult: 0
  }
  convolution_param {
    num_output: 128
    pad: 1
    kernel_size: 3
    weight_filler {
      type: "xavier"
    }
  }
}
layer {
  name: "relu2_2"
  type: "ReLU"
  bottom: "conv2_2"
  top: "conv2_2"
}
layer {
  name: "pool2"
  type: "Pooling"
  bottom: "conv2_2"
  top: "pool2"
  pooling_param {
    pool: MAX
    kernel_size: 2
    stride: 2
  }
}
layer {
  name: "conv3_1"
  type: "Convolution"
  bottom: "pool2"
  top: "conv3_1"
  param {
    lr_mult: 1
    decay_mult: 1
  }
  param {
    lr_mult: 2
    decay_mult: 0
  }
  convolution_param {
    num_output: 256
    pad: 1
    kernel_size: 3
    weight_filler {
      type: "xavier"
    }
  }
}
layer {
  name: "relu3_1"
  type: "ReLU"
  bottom: "conv3_1"
  top: "conv3_1"
}
layer {
  name: "conv3_2"
  type: "Convolution"
  bottom: "conv3_1"
  top: "conv3_2"
  param {
    lr_mult: 1
    decay_mult: 1
  }
  param {
    lr_mult: 2
    decay_mult: 0
  }
  convolution_param {
    num_output: 256
    pad: 1
    kernel_size: 3
    weight_filler {
      type: "xavier"
    }
  }
}
layer {
  name: "relu3_2"
  type: "ReLU"
  bottom: "conv3_2"
  top: "conv3_2"
}
layer {
  name: "conv3_3"
  type: "Convolution"
  bottom: "conv3_2"
  top: "conv3_3"
  param {
    lr_mult: 1
    decay_mult: 1
  }
  param {
    lr_mult: 2
    decay_mult: 0
  }
  convolution_param {
    num_output: 256
    pad: 1
    kernel_size: 3
    weight_filler {
      type: "xavier"
    }
  }
}
layer {
  name: "relu3_3"
  type: "ReLU"
  bottom: "conv3_3"
  top: "conv3_3"
}
layer {
  name: "pool3"
  type: "Pooling"
  bottom: "conv3_3"
  top: "pool3"
  pooling_param {
    pool: MAX
    kernel_size: 2
    stride: 2
  }
}
layer {
  name: "conv4_1"
  type: "Convolution"
  bottom: "pool3"
  top: "conv4_1"
  param {
    lr_mult: 1
    decay_mult: 1
  }
  param {
    lr_mult: 2
    decay_mult: 0
  }
  convolution_param {
    num_output: 512
    pad: 1
    kernel_size: 3
    weight_filler {
      type: "xavier"
    }
  }
}
layer {
  name: "relu4_1"
  type: "ReLU"
  bottom: "conv4_1"
  top: "conv4_1"
}
layer {
  name: "conv4_2"
  type: "Convolution"
  bottom: "conv4_1"
  top: "conv4_2"
  param {
    lr_mult: 1
    decay_mult: 1
  }
  param {
    lr_mult: 2
    decay_mult: 0
  }
  convolution_param {
    num_output: 512
    pad: 1
    kernel_size: 3
    weight_filler {
      type: "xavier"
    }
  }
}
layer {
  name: "relu4_2"
  type: "ReLU"
  bottom: "conv4_2"
  top: "conv4_2"
}
layer {
  name: "conv4_3"
  type: "Convolution"
  bottom: "conv4_2"
  top: "conv4_3"
  param {
    lr_mult: 1
    decay_mult: 1
  }
  param {
    lr_mult: 2
    decay_mult: 0
  }
  convolution_param {
    num_output: 512
    pad: 1
    kernel_size: 3
    weight_filler {
      type: "xavier"
    }
  }
}
layer {
  name: "relu4_3"
  type: "ReLU"
  bottom: "conv4_3"
  top: "conv4_3"
}
layer {
  name: "pool4"
  type: "Pooling"
  bottom: "conv4_3"
  top: "pool4"
  pooling_param {
    pool: MAX
    kernel_size: 2
    stride: 2
  }
}
layer {
  name: "conv5_1"
  type: "Convolution"
  bottom: "pool4"
  top: "conv5_1"
  param {
    lr_mult: 1
    decay_mult: 1
  }
  param {
    lr_mult: 2
    decay_mult: 0
  }
  convolution_param {
    num_output: 512
    pad: 1
    kernel_size: 3
    weight_filler {
      type: "xavier"
    }
  }
}
layer {
  name: "relu5_1"
  type: "ReLU"
  bottom: "conv5_1"
  top: "conv5_1"
}
layer {
  name: "conv5_2"
  type: "Convolution"
  bottom: "conv5_1"
  top: "conv5_2"
  param {
    lr_mult: 1
    decay_mult: 1
  }
  param {
    lr_mult: 2
    decay_mult: 0
  }
  convolution_param {
    num_output: 512
    pad: 1
    kernel_size: 3
    weight_filler {
      type: "xavier"
    }
  }
}
layer {
  name: "relu5_2"
  type: "ReLU"
  bottom: "conv5_2"
  top: "conv5_2"
}
layer {
  name: "conv5_3"
  type: "Convolution"
  bottom: "conv5_2"
  top: "conv5_3"
  param {
    lr_mult: 1
    decay_mult: 1
  }
  param {
    lr_mult: 2
    decay_mult: 0
  }
  convolution_param {
    num_output: 512
    pad: 1
    kernel_size: 3
    weight_filler {
      type: "xavier"
    }
  }
}
layer {
  name: "relu5_3"
  type: "ReLU"
  bottom: "conv5_3"
  top: "conv5_3"
}
layer {
  name: "pool5"
  type: "Pooling"
  bottom: "conv5_3"
  top: "pool5_local"
  pooling_param {
    pool: MAX
    kernel_size: 2
    stride: 2
  }
}
layer {
  name: "gather"
  type: "Gather"
  bottom: "pool5_local"
  bottom: "label_local"
  top: "pool5"
  top: "label"
}
layer {
  name: "fc6"
  type: "InnerProduct"
  bottom: "pool5"
  top: "fc6"
  param {
    lr_mult: 1
    decay_mult: 1
  }
  param {
    lr_mult: 2
    decay_mult: 0
  }
  inner_product_param {
    num_output: 4096
    weight_filler {
      type: "xavier"
    }
  }
}
layer {
  name: "relu6"
  type: "ReLU"
  bottom: "fc6"
  top: "fc6"
}
layer {
  name: "drop6"
  type: "Dropout"
  bottom: "fc6"
  top: "fc6"
  dropout_param {
    dropout_ratio: 0.9
  }
}
layer {
  name: "fc7"
  type: "InnerProduct"
  bottom: "fc6"
  top: "fc7"
  param {
    lr_mult: 1
    decay_mult: 1
  }
  param {
    lr_mult: 2
    decay_mult: 0
  }
  inner_product_param {
    num_output: 4096
    weight_filler {
      type: "xavier"
    }
  }
}
layer {
  name: "relu7"
  type: "ReLU"
  bottom: "fc7"
  top: "fc7"
}
layer {
  name: "drop7"
  type: "Dropout"
  bottom: "fc7"
  top: "fc7"
  dropout_param {
    dropout_ratio: 0.8
  }
}
layer {
  name: "fc8-1"
  type: "InnerProduct"
  bottom: "fc7"
  top: "fc8-1"
  param {
    lr_mult: 1
    decay_mult: 1
  }
  param {
    lr_mult: 2
    decay_mult: 0
  }
  inner_product_param {
    num_output: 101
    weight_filler {
      type: "gaussian"
      std: 0.001
    }
    bias_filler {
      type: "constant"
      value: 0
    }
  }
}
layer {
  name: "loss"
  type: "SoftmaxWithLoss"
  bottom: "fc8-1"
  bottom: "label"
  top: "loss"
  include {
    phase: TEST
  }
}
layer {
  name: "accuracy"
  type: "Accuracy"
  bottom: "fc8-1"
  bottom: "label"
  top: "accuracy"
  include {
    phase: TEST
  }
}
I0809 12:47:48.246227  2646 layer_factory.hpp:74] Creating layer data
I0809 12:47:48.246239  2646 net.cpp:91] Creating Layer data
I0809 12:47:48.246247  2646 net.cpp:408] data -> data
I0809 12:47:48.246256  2646 net.cpp:408] data -> label_local
I0809 12:47:48.246264  2646 net.cpp:151] Setting up data
I0809 12:47:48.246271  2646 video_data_layer.cpp:34] Opening file: /home/jiri/Lake/HAR/datasets/UCF-101/val-2-rnd.txt
I0809 12:47:48.248963  2646 video_data_layer.cpp:50] A total of 3783 videos.
I0809 12:47:48.267904  2646 video_data_layer.cpp:76] output data size: 5,20,224,224
I0809 12:47:48.270792  2646 net.cpp:158] Top shape: 5 20 224 224 (5017600)
I0809 12:47:48.270814  2646 net.cpp:158] Top shape: 5 1 1 1 (5)
I0809 12:47:48.270823  2646 layer_factory.hpp:74] Creating layer conv1_1
I0809 12:47:48.270840  2646 net.cpp:91] Creating Layer conv1_1
I0809 12:47:48.270845  2646 net.cpp:452] conv1_1 <- data
I0809 12:47:48.270853  2646 net.cpp:119] This layer is inheriting previous layer's sync mode: 1
I0809 12:47:48.270860  2646 net.cpp:408] conv1_1 -> conv1_1
I0809 12:47:48.270872  2646 net.cpp:151] Setting up conv1_1
I0809 12:47:48.271441  2646 net.cpp:158] Top shape: 5 64 224 224 (16056320)
I0809 12:47:48.271457  2646 layer_factory.hpp:74] Creating layer relu1_1
I0809 12:47:48.271466  2646 net.cpp:91] Creating Layer relu1_1
I0809 12:47:48.271471  2646 net.cpp:452] relu1_1 <- conv1_1
I0809 12:47:48.271476  2646 net.cpp:119] This layer is inheriting previous layer's sync mode: 1
I0809 12:47:48.271481  2646 net.cpp:397] relu1_1 -> conv1_1 (in-place)
I0809 12:47:48.271487  2646 net.cpp:151] Setting up relu1_1
I0809 12:47:48.271558  2646 net.cpp:158] Top shape: 5 64 224 224 (16056320)
I0809 12:47:48.271574  2646 layer_factory.hpp:74] Creating layer conv1_2
I0809 12:47:48.271584  2646 net.cpp:91] Creating Layer conv1_2
I0809 12:47:48.271589  2646 net.cpp:452] conv1_2 <- conv1_1
I0809 12:47:48.271594  2646 net.cpp:119] This layer is inheriting previous layer's sync mode: 1
I0809 12:47:48.271600  2646 net.cpp:408] conv1_2 -> conv1_2
I0809 12:47:48.271607  2646 net.cpp:151] Setting up conv1_2
I0809 12:47:48.272167  2646 net.cpp:158] Top shape: 5 64 224 224 (16056320)
I0809 12:47:48.272181  2646 layer_factory.hpp:74] Creating layer relu1_2
I0809 12:47:48.272186  2646 net.cpp:91] Creating Layer relu1_2
I0809 12:47:48.272191  2646 net.cpp:452] relu1_2 <- conv1_2
I0809 12:47:48.272195  2646 net.cpp:119] This layer is inheriting previous layer's sync mode: 1
I0809 12:47:48.272200  2646 net.cpp:397] relu1_2 -> conv1_2 (in-place)
I0809 12:47:48.272207  2646 net.cpp:151] Setting up relu1_2
I0809 12:47:48.272261  2646 net.cpp:158] Top shape: 5 64 224 224 (16056320)
I0809 12:47:48.272270  2646 layer_factory.hpp:74] Creating layer pool1
I0809 12:47:48.272276  2646 net.cpp:91] Creating Layer pool1
I0809 12:47:48.272279  2646 net.cpp:452] pool1 <- conv1_2
I0809 12:47:48.272282  2646 net.cpp:119] This layer is inheriting previous layer's sync mode: 1
I0809 12:47:48.272285  2646 net.cpp:408] pool1 -> pool1
I0809 12:47:48.272290  2646 net.cpp:151] Setting up pool1
I0809 12:47:48.272342  2646 net.cpp:158] Top shape: 5 64 112 112 (4014080)
I0809 12:47:48.272349  2646 layer_factory.hpp:74] Creating layer conv2_1
I0809 12:47:48.272379  2646 net.cpp:91] Creating Layer conv2_1
I0809 12:47:48.272385  2646 net.cpp:452] conv2_1 <- pool1
I0809 12:47:48.272390  2646 net.cpp:119] This layer is inheriting previous layer's sync mode: 1
I0809 12:47:48.272397  2646 net.cpp:408] conv2_1 -> conv2_1
I0809 12:47:48.272404  2646 net.cpp:151] Setting up conv2_1
I0809 12:47:48.273242  2646 net.cpp:158] Top shape: 5 128 112 112 (8028160)
I0809 12:47:48.273259  2646 layer_factory.hpp:74] Creating layer relu2_1
I0809 12:47:48.273267  2646 net.cpp:91] Creating Layer relu2_1
I0809 12:47:48.273272  2646 net.cpp:452] relu2_1 <- conv2_1
I0809 12:47:48.273278  2646 net.cpp:119] This layer is inheriting previous layer's sync mode: 1
I0809 12:47:48.273283  2646 net.cpp:397] relu2_1 -> conv2_1 (in-place)
I0809 12:47:48.273290  2646 net.cpp:151] Setting up relu2_1
I0809 12:47:48.273494  2646 net.cpp:158] Top shape: 5 128 112 112 (8028160)
I0809 12:47:48.273506  2646 layer_factory.hpp:74] Creating layer conv2_2
I0809 12:47:48.273517  2646 net.cpp:91] Creating Layer conv2_2
I0809 12:47:48.273522  2646 net.cpp:452] conv2_2 <- conv2_1
I0809 12:47:48.273527  2646 net.cpp:119] This layer is inheriting previous layer's sync mode: 1
I0809 12:47:48.273533  2646 net.cpp:408] conv2_2 -> conv2_2
I0809 12:47:48.273541  2646 net.cpp:151] Setting up conv2_2
I0809 12:47:48.274821  2646 net.cpp:158] Top shape: 5 128 112 112 (8028160)
I0809 12:47:48.274835  2646 layer_factory.hpp:74] Creating layer relu2_2
I0809 12:47:48.274843  2646 net.cpp:91] Creating Layer relu2_2
I0809 12:47:48.274847  2646 net.cpp:452] relu2_2 <- conv2_2
I0809 12:47:48.274853  2646 net.cpp:119] This layer is inheriting previous layer's sync mode: 1
I0809 12:47:48.274857  2646 net.cpp:397] relu2_2 -> conv2_2 (in-place)
I0809 12:47:48.274864  2646 net.cpp:151] Setting up relu2_2
I0809 12:47:48.274931  2646 net.cpp:158] Top shape: 5 128 112 112 (8028160)
I0809 12:47:48.274945  2646 layer_factory.hpp:74] Creating layer pool2
I0809 12:47:48.274953  2646 net.cpp:91] Creating Layer pool2
I0809 12:47:48.274958  2646 net.cpp:452] pool2 <- conv2_2
I0809 12:47:48.274963  2646 net.cpp:119] This layer is inheriting previous layer's sync mode: 1
I0809 12:47:48.274968  2646 net.cpp:408] pool2 -> pool2
I0809 12:47:48.274976  2646 net.cpp:151] Setting up pool2
I0809 12:47:48.275053  2646 net.cpp:158] Top shape: 5 128 56 56 (2007040)
I0809 12:47:48.275066  2646 layer_factory.hpp:74] Creating layer conv3_1
I0809 12:47:48.275075  2646 net.cpp:91] Creating Layer conv3_1
I0809 12:47:48.275079  2646 net.cpp:452] conv3_1 <- pool2
I0809 12:47:48.275085  2646 net.cpp:119] This layer is inheriting previous layer's sync mode: 1
I0809 12:47:48.275090  2646 net.cpp:408] conv3_1 -> conv3_1
I0809 12:47:48.275100  2646 net.cpp:151] Setting up conv3_1
I0809 12:47:48.277374  2646 net.cpp:158] Top shape: 5 256 56 56 (4014080)
I0809 12:47:48.277392  2646 layer_factory.hpp:74] Creating layer relu3_1
I0809 12:47:48.277400  2646 net.cpp:91] Creating Layer relu3_1
I0809 12:47:48.277405  2646 net.cpp:452] relu3_1 <- conv3_1
I0809 12:47:48.277410  2646 net.cpp:119] This layer is inheriting previous layer's sync mode: 1
I0809 12:47:48.277415  2646 net.cpp:397] relu3_1 -> conv3_1 (in-place)
I0809 12:47:48.277421  2646 net.cpp:151] Setting up relu3_1
I0809 12:47:48.277606  2646 net.cpp:158] Top shape: 5 256 56 56 (4014080)
I0809 12:47:48.277616  2646 layer_factory.hpp:74] Creating layer conv3_2
I0809 12:47:48.277623  2646 net.cpp:91] Creating Layer conv3_2
I0809 12:47:48.277628  2646 net.cpp:452] conv3_2 <- conv3_1
I0809 12:47:48.277632  2646 net.cpp:119] This layer is inheriting previous layer's sync mode: 1
I0809 12:47:48.277638  2646 net.cpp:408] conv3_2 -> conv3_2
I0809 12:47:48.277645  2646 net.cpp:151] Setting up conv3_2
I0809 12:47:48.282240  2646 net.cpp:158] Top shape: 5 256 56 56 (4014080)
I0809 12:47:48.282258  2646 layer_factory.hpp:74] Creating layer relu3_2
I0809 12:47:48.282266  2646 net.cpp:91] Creating Layer relu3_2
I0809 12:47:48.282271  2646 net.cpp:452] relu3_2 <- conv3_2
I0809 12:47:48.282277  2646 net.cpp:119] This layer is inheriting previous layer's sync mode: 1
I0809 12:47:48.282296  2646 net.cpp:397] relu3_2 -> conv3_2 (in-place)
I0809 12:47:48.282305  2646 net.cpp:151] Setting up relu3_2
I0809 12:47:48.282382  2646 net.cpp:158] Top shape: 5 256 56 56 (4014080)
I0809 12:47:48.282390  2646 layer_factory.hpp:74] Creating layer conv3_3
I0809 12:47:48.282398  2646 net.cpp:91] Creating Layer conv3_3
I0809 12:47:48.282402  2646 net.cpp:452] conv3_3 <- conv3_2
I0809 12:47:48.282408  2646 net.cpp:119] This layer is inheriting previous layer's sync mode: 1
I0809 12:47:48.282416  2646 net.cpp:408] conv3_3 -> conv3_3
I0809 12:47:48.282424  2646 net.cpp:151] Setting up conv3_3
I0809 12:47:48.287149  2646 net.cpp:158] Top shape: 5 256 56 56 (4014080)
I0809 12:47:48.287164  2646 layer_factory.hpp:74] Creating layer relu3_3
I0809 12:47:48.287176  2646 net.cpp:91] Creating Layer relu3_3
I0809 12:47:48.287180  2646 net.cpp:452] relu3_3 <- conv3_3
I0809 12:47:48.287185  2646 net.cpp:119] This layer is inheriting previous layer's sync mode: 1
I0809 12:47:48.287194  2646 net.cpp:397] relu3_3 -> conv3_3 (in-place)
I0809 12:47:48.287200  2646 net.cpp:151] Setting up relu3_3
I0809 12:47:48.287267  2646 net.cpp:158] Top shape: 5 256 56 56 (4014080)
I0809 12:47:48.287272  2646 layer_factory.hpp:74] Creating layer pool3
I0809 12:47:48.287281  2646 net.cpp:91] Creating Layer pool3
I0809 12:47:48.287286  2646 net.cpp:452] pool3 <- conv3_3
I0809 12:47:48.287291  2646 net.cpp:119] This layer is inheriting previous layer's sync mode: 1
I0809 12:47:48.287294  2646 net.cpp:408] pool3 -> pool3
I0809 12:47:48.287300  2646 net.cpp:151] Setting up pool3
I0809 12:47:48.287367  2646 net.cpp:158] Top shape: 5 256 28 28 (1003520)
I0809 12:47:48.287376  2646 layer_factory.hpp:74] Creating layer conv4_1
I0809 12:47:48.287384  2646 net.cpp:91] Creating Layer conv4_1
I0809 12:47:48.287389  2646 net.cpp:452] conv4_1 <- pool3
I0809 12:47:48.287394  2646 net.cpp:119] This layer is inheriting previous layer's sync mode: 1
I0809 12:47:48.287399  2646 net.cpp:408] conv4_1 -> conv4_1
I0809 12:47:48.287405  2646 net.cpp:151] Setting up conv4_1
I0809 12:47:48.296181  2646 net.cpp:158] Top shape: 5 512 28 28 (2007040)
I0809 12:47:48.296207  2646 layer_factory.hpp:74] Creating layer relu4_1
I0809 12:47:48.296219  2646 net.cpp:91] Creating Layer relu4_1
I0809 12:47:48.296226  2646 net.cpp:452] relu4_1 <- conv4_1
I0809 12:47:48.296232  2646 net.cpp:119] This layer is inheriting previous layer's sync mode: 1
I0809 12:47:48.296238  2646 net.cpp:397] relu4_1 -> conv4_1 (in-place)
I0809 12:47:48.296247  2646 net.cpp:151] Setting up relu4_1
I0809 12:47:48.296450  2646 net.cpp:158] Top shape: 5 512 28 28 (2007040)
I0809 12:47:48.296460  2646 layer_factory.hpp:74] Creating layer conv4_2
I0809 12:47:48.296471  2646 net.cpp:91] Creating Layer conv4_2
I0809 12:47:48.296475  2646 net.cpp:452] conv4_2 <- conv4_1
I0809 12:47:48.296480  2646 net.cpp:119] This layer is inheriting previous layer's sync mode: 1
I0809 12:47:48.296489  2646 net.cpp:408] conv4_2 -> conv4_2
I0809 12:47:48.296497  2646 net.cpp:151] Setting up conv4_2
I0809 12:47:48.312407  2646 net.cpp:158] Top shape: 5 512 28 28 (2007040)
I0809 12:47:48.312441  2646 layer_factory.hpp:74] Creating layer relu4_2
I0809 12:47:48.312453  2646 net.cpp:91] Creating Layer relu4_2
I0809 12:47:48.312458  2646 net.cpp:452] relu4_2 <- conv4_2
I0809 12:47:48.312466  2646 net.cpp:119] This layer is inheriting previous layer's sync mode: 1
I0809 12:47:48.312472  2646 net.cpp:397] relu4_2 -> conv4_2 (in-place)
I0809 12:47:48.312480  2646 net.cpp:151] Setting up relu4_2
I0809 12:47:48.312554  2646 net.cpp:158] Top shape: 5 512 28 28 (2007040)
I0809 12:47:48.312561  2646 layer_factory.hpp:74] Creating layer conv4_3
I0809 12:47:48.312571  2646 net.cpp:91] Creating Layer conv4_3
I0809 12:47:48.312574  2646 net.cpp:452] conv4_3 <- conv4_2
I0809 12:47:48.312579  2646 net.cpp:119] This layer is inheriting previous layer's sync mode: 1
I0809 12:47:48.312585  2646 net.cpp:408] conv4_3 -> conv4_3
I0809 12:47:48.312594  2646 net.cpp:151] Setting up conv4_3
I0809 12:47:48.329913  2646 net.cpp:158] Top shape: 5 512 28 28 (2007040)
I0809 12:47:48.329953  2646 layer_factory.hpp:74] Creating layer relu4_3
I0809 12:47:48.329967  2646 net.cpp:91] Creating Layer relu4_3
I0809 12:47:48.329973  2646 net.cpp:452] relu4_3 <- conv4_3
I0809 12:47:48.329982  2646 net.cpp:119] This layer is inheriting previous layer's sync mode: 1
I0809 12:47:48.329989  2646 net.cpp:397] relu4_3 -> conv4_3 (in-place)
I0809 12:47:48.329999  2646 net.cpp:151] Setting up relu4_3
I0809 12:47:48.330075  2646 net.cpp:158] Top shape: 5 512 28 28 (2007040)
I0809 12:47:48.330081  2646 layer_factory.hpp:74] Creating layer pool4
I0809 12:47:48.330090  2646 net.cpp:91] Creating Layer pool4
I0809 12:47:48.330095  2646 net.cpp:452] pool4 <- conv4_3
I0809 12:47:48.330101  2646 net.cpp:119] This layer is inheriting previous layer's sync mode: 1
I0809 12:47:48.330106  2646 net.cpp:408] pool4 -> pool4
I0809 12:47:48.330113  2646 net.cpp:151] Setting up pool4
I0809 12:47:48.330188  2646 net.cpp:158] Top shape: 5 512 14 14 (501760)
I0809 12:47:48.330196  2646 layer_factory.hpp:74] Creating layer conv5_1
I0809 12:47:48.330205  2646 net.cpp:91] Creating Layer conv5_1
I0809 12:47:48.330210  2646 net.cpp:452] conv5_1 <- pool4
I0809 12:47:48.330215  2646 net.cpp:119] This layer is inheriting previous layer's sync mode: 1
I0809 12:47:48.330221  2646 net.cpp:408] conv5_1 -> conv5_1
I0809 12:47:48.330232  2646 net.cpp:151] Setting up conv5_1
I0809 12:47:48.346675  2646 net.cpp:158] Top shape: 5 512 14 14 (501760)
I0809 12:47:48.346703  2646 layer_factory.hpp:74] Creating layer relu5_1
I0809 12:47:48.346715  2646 net.cpp:91] Creating Layer relu5_1
I0809 12:47:48.346721  2646 net.cpp:452] relu5_1 <- conv5_1
I0809 12:47:48.346729  2646 net.cpp:119] This layer is inheriting previous layer's sync mode: 1
I0809 12:47:48.346735  2646 net.cpp:397] relu5_1 -> conv5_1 (in-place)
I0809 12:47:48.346742  2646 net.cpp:151] Setting up relu5_1
I0809 12:47:48.346943  2646 net.cpp:158] Top shape: 5 512 14 14 (501760)
I0809 12:47:48.346956  2646 layer_factory.hpp:74] Creating layer conv5_2
I0809 12:47:48.346966  2646 net.cpp:91] Creating Layer conv5_2
I0809 12:47:48.346969  2646 net.cpp:452] conv5_2 <- conv5_1
I0809 12:47:48.346976  2646 net.cpp:119] This layer is inheriting previous layer's sync mode: 1
I0809 12:47:48.346982  2646 net.cpp:408] conv5_2 -> conv5_2
I0809 12:47:48.346992  2646 net.cpp:151] Setting up conv5_2
I0809 12:47:48.363385  2646 net.cpp:158] Top shape: 5 512 14 14 (501760)
I0809 12:47:48.363407  2646 layer_factory.hpp:74] Creating layer relu5_2
I0809 12:47:48.363416  2646 net.cpp:91] Creating Layer relu5_2
I0809 12:47:48.363420  2646 net.cpp:452] relu5_2 <- conv5_2
I0809 12:47:48.363425  2646 net.cpp:119] This layer is inheriting previous layer's sync mode: 1
I0809 12:47:48.363430  2646 net.cpp:397] relu5_2 -> conv5_2 (in-place)
I0809 12:47:48.363459  2646 net.cpp:151] Setting up relu5_2
I0809 12:47:48.363512  2646 net.cpp:158] Top shape: 5 512 14 14 (501760)
I0809 12:47:48.363515  2646 layer_factory.hpp:74] Creating layer conv5_3
I0809 12:47:48.363523  2646 net.cpp:91] Creating Layer conv5_3
I0809 12:47:48.363525  2646 net.cpp:452] conv5_3 <- conv5_2
I0809 12:47:48.363528  2646 net.cpp:119] This layer is inheriting previous layer's sync mode: 1
I0809 12:47:48.363533  2646 net.cpp:408] conv5_3 -> conv5_3
I0809 12:47:48.363538  2646 net.cpp:151] Setting up conv5_3
I0809 12:47:48.379858  2646 net.cpp:158] Top shape: 5 512 14 14 (501760)
I0809 12:47:48.379887  2646 layer_factory.hpp:74] Creating layer relu5_3
I0809 12:47:48.379899  2646 net.cpp:91] Creating Layer relu5_3
I0809 12:47:48.379904  2646 net.cpp:452] relu5_3 <- conv5_3
I0809 12:47:48.379911  2646 net.cpp:119] This layer is inheriting previous layer's sync mode: 1
I0809 12:47:48.379920  2646 net.cpp:397] relu5_3 -> conv5_3 (in-place)
I0809 12:47:48.379928  2646 net.cpp:151] Setting up relu5_3
I0809 12:47:48.380005  2646 net.cpp:158] Top shape: 5 512 14 14 (501760)
I0809 12:47:48.380013  2646 layer_factory.hpp:74] Creating layer pool5
I0809 12:47:48.380023  2646 net.cpp:91] Creating Layer pool5
I0809 12:47:48.380044  2646 net.cpp:452] pool5 <- conv5_3
I0809 12:47:48.380051  2646 net.cpp:119] This layer is inheriting previous layer's sync mode: 1
I0809 12:47:48.380059  2646 net.cpp:408] pool5 -> pool5_local
I0809 12:47:48.380069  2646 net.cpp:151] Setting up pool5
I0809 12:47:48.380152  2646 net.cpp:158] Top shape: 5 512 7 7 (125440)
I0809 12:47:48.380162  2646 layer_factory.hpp:74] Creating layer gather
I0809 12:47:48.380175  2646 net.cpp:91] Creating Layer gather
I0809 12:47:48.380179  2646 net.cpp:452] gather <- pool5_local
I0809 12:47:48.380185  2646 net.cpp:452] gather <- label_local
I0809 12:47:48.380192  2646 net.cpp:408] gather -> pool5
I0809 12:47:48.380200  2646 net.cpp:408] gather -> label
I0809 12:47:48.380208  2646 net.cpp:151] Setting up gather
I0809 12:47:48.380218  2646 net.cpp:158] Top shape: 5 512 7 7 (125440)
I0809 12:47:48.380223  2646 net.cpp:158] Top shape: 5 1 1 1 (5)
I0809 12:47:48.380228  2646 layer_factory.hpp:74] Creating layer label_gather_1_split
I0809 12:47:48.380234  2646 net.cpp:91] Creating Layer label_gather_1_split
I0809 12:47:48.380239  2646 net.cpp:452] label_gather_1_split <- label
I0809 12:47:48.380244  2646 net.cpp:119] This layer is inheriting previous layer's sync mode: 0
I0809 12:47:48.380249  2646 net.cpp:408] label_gather_1_split -> label_gather_1_split_0
I0809 12:47:48.380255  2646 net.cpp:408] label_gather_1_split -> label_gather_1_split_1
I0809 12:47:48.380261  2646 net.cpp:151] Setting up label_gather_1_split
I0809 12:47:48.380269  2646 net.cpp:158] Top shape: 5 1 1 1 (5)
I0809 12:47:48.380273  2646 net.cpp:158] Top shape: 5 1 1 1 (5)
I0809 12:47:48.380277  2646 layer_factory.hpp:74] Creating layer fc6
I0809 12:47:48.380287  2646 net.cpp:91] Creating Layer fc6
I0809 12:47:48.380292  2646 net.cpp:452] fc6 <- pool5
I0809 12:47:48.380296  2646 net.cpp:119] This layer is inheriting previous layer's sync mode: 0
I0809 12:47:48.380303  2646 net.cpp:408] fc6 -> fc6
I0809 12:47:48.380311  2646 net.cpp:151] Setting up fc6
I0809 12:47:49.029140  2646 net.cpp:158] Top shape: 5 4096 (20480)
I0809 12:47:49.029167  2646 layer_factory.hpp:74] Creating layer relu6
I0809 12:47:49.029176  2646 net.cpp:91] Creating Layer relu6
I0809 12:47:49.029181  2646 net.cpp:452] relu6 <- fc6
I0809 12:47:49.029186  2646 net.cpp:119] This layer is inheriting previous layer's sync mode: 0
I0809 12:47:49.029191  2646 net.cpp:397] relu6 -> fc6 (in-place)
I0809 12:47:49.029196  2646 net.cpp:151] Setting up relu6
I0809 12:47:49.029512  2646 net.cpp:158] Top shape: 5 4096 (20480)
I0809 12:47:49.029525  2646 layer_factory.hpp:74] Creating layer drop6
I0809 12:47:49.029533  2646 net.cpp:91] Creating Layer drop6
I0809 12:47:49.029538  2646 net.cpp:452] drop6 <- fc6
I0809 12:47:49.029543  2646 net.cpp:119] This layer is inheriting previous layer's sync mode: 0
I0809 12:47:49.029549  2646 net.cpp:397] drop6 -> fc6 (in-place)
I0809 12:47:49.029556  2646 net.cpp:151] Setting up drop6
I0809 12:47:49.029563  2646 net.cpp:158] Top shape: 5 4096 (20480)
I0809 12:47:49.029567  2646 layer_factory.hpp:74] Creating layer fc7
I0809 12:47:49.029575  2646 net.cpp:91] Creating Layer fc7
I0809 12:47:49.029578  2646 net.cpp:452] fc7 <- fc6
I0809 12:47:49.029582  2646 net.cpp:119] This layer is inheriting previous layer's sync mode: 0
I0809 12:47:49.029589  2646 net.cpp:408] fc7 -> fc7
I0809 12:47:49.029597  2646 net.cpp:151] Setting up fc7
I0809 12:47:49.134687  2646 net.cpp:158] Top shape: 5 4096 (20480)
I0809 12:47:49.134708  2646 layer_factory.hpp:74] Creating layer relu7
I0809 12:47:49.134718  2646 net.cpp:91] Creating Layer relu7
I0809 12:47:49.134723  2646 net.cpp:452] relu7 <- fc7
I0809 12:47:49.134730  2646 net.cpp:119] This layer is inheriting previous layer's sync mode: 0
I0809 12:47:49.134737  2646 net.cpp:397] relu7 -> fc7 (in-place)
I0809 12:47:49.134747  2646 net.cpp:151] Setting up relu7
I0809 12:47:49.134863  2646 net.cpp:158] Top shape: 5 4096 (20480)
I0809 12:47:49.134873  2646 layer_factory.hpp:74] Creating layer drop7
I0809 12:47:49.134883  2646 net.cpp:91] Creating Layer drop7
I0809 12:47:49.134887  2646 net.cpp:452] drop7 <- fc7
I0809 12:47:49.134914  2646 net.cpp:119] This layer is inheriting previous layer's sync mode: 0
I0809 12:47:49.134920  2646 net.cpp:397] drop7 -> fc7 (in-place)
I0809 12:47:49.134927  2646 net.cpp:151] Setting up drop7
I0809 12:47:49.134935  2646 net.cpp:158] Top shape: 5 4096 (20480)
I0809 12:47:49.134939  2646 layer_factory.hpp:74] Creating layer fc8-1
I0809 12:47:49.134950  2646 net.cpp:91] Creating Layer fc8-1
I0809 12:47:49.134954  2646 net.cpp:452] fc8-1 <- fc7
I0809 12:47:49.134959  2646 net.cpp:119] This layer is inheriting previous layer's sync mode: 0
I0809 12:47:49.134966  2646 net.cpp:408] fc8-1 -> fc8-1
I0809 12:47:49.134974  2646 net.cpp:151] Setting up fc8-1
I0809 12:47:49.148047  2646 net.cpp:158] Top shape: 5 101 (505)
I0809 12:47:49.148063  2646 layer_factory.hpp:74] Creating layer fc8-1_fc8-1_0_split
I0809 12:47:49.148073  2646 net.cpp:91] Creating Layer fc8-1_fc8-1_0_split
I0809 12:47:49.148077  2646 net.cpp:452] fc8-1_fc8-1_0_split <- fc8-1
I0809 12:47:49.148083  2646 net.cpp:119] This layer is inheriting previous layer's sync mode: 0
I0809 12:47:49.148090  2646 net.cpp:408] fc8-1_fc8-1_0_split -> fc8-1_fc8-1_0_split_0
I0809 12:47:49.148099  2646 net.cpp:408] fc8-1_fc8-1_0_split -> fc8-1_fc8-1_0_split_1
I0809 12:47:49.148105  2646 net.cpp:151] Setting up fc8-1_fc8-1_0_split
I0809 12:47:49.148113  2646 net.cpp:158] Top shape: 5 101 (505)
I0809 12:47:49.148116  2646 net.cpp:158] Top shape: 5 101 (505)
I0809 12:47:49.148120  2646 layer_factory.hpp:74] Creating layer loss
I0809 12:47:49.148126  2646 net.cpp:91] Creating Layer loss
I0809 12:47:49.148130  2646 net.cpp:452] loss <- fc8-1_fc8-1_0_split_0
I0809 12:47:49.148134  2646 net.cpp:452] loss <- label_gather_1_split_0
I0809 12:47:49.148139  2646 net.cpp:119] This layer is inheriting previous layer's sync mode: 0
I0809 12:47:49.148145  2646 net.cpp:408] loss -> loss
…
