…
    mean_value: 128
    mean_value: 128
    mean_value: 128
    mean_value: 128
    mean_value: 128
    mean_value: 128
    mean_value: 128
    mean_value: 128
    mean_value: 128
    mean_value: 128
    mean_value: 128
    mean_value: 128
    fix_crop: true
    multi_scale: true
    scale_ratios: 1
    scale_ratios: 0.875
    scale_ratios: 0.75
    max_distort: 1
    is_flow: true
  }
  video_data_param {
    source: "/home/jiri/Lake/HAR/datasets/UCF-101/train-1-rnd.txt"
    batch_size: 64
    new_length: 10
    num_segments: 1
    modality: FLOW
  }
}
layer {
  name: "conv1_1"
  type: "Convolution"
  bottom: "data"
  top: "conv1_1"
  param {
    lr_mult: 1
    decay_mult: 1
  }
  param {
    lr_mult: 2
    decay_mult: 0
  }
  convolution_param {
    num_output: 64
    pad: 1
    kernel_size: 3
    weight_filler {
      type: "xavier"
    }
  }
}
layer {
  name: "relu1_1"
  type: "ReLU"
  bottom: "conv1_1"
  top: "conv1_1"
}
layer {
  name: "conv1_2"
  type: "Convolution"
  bottom: "conv1_1"
  top: "conv1_2"
  param {
    lr_mult: 1
    decay_mult: 1
  }
  param {
    lr_mult: 2
    decay_mult: 0
  }
  convolution_param {
    num_output: 64
    pad: 1
    kernel_size: 3
    weight_filler {
      type: "xavier"
    }
  }
}
layer {
  name: "relu1_2"
  type: "ReLU"
  bottom: "conv1_2"
  top: "conv1_2"
}
layer {
  name: "pool1"
  type: "Pooling"
  bottom: "conv1_2"
  top: "pool1"
  pooling_param {
    pool: MAX
    kernel_size: 2
    stride: 2
  }
}
layer {
  name: "conv2_1"
  type: "Convolution"
  bottom: "pool1"
  top: "conv2_1"
  param {
    lr_mult: 1
    decay_mult: 1
  }
  param {
    lr_mult: 2
    decay_mult: 0
  }
  convolution_param {
    num_output: 128
    pad: 1
    kernel_size: 3
    weight_filler {
      type: "xavier"
    }
  }
}
layer {
  name: "relu2_1"
  type: "ReLU"
  bottom: "conv2_1"
  top: "conv2_1"
}
layer {
  name: "conv2_2"
  type: "Convolution"
  bottom: "conv2_1"
  top: "conv2_2"
  param {
    lr_mult: 1
    decay_mult: 1
  }
  param {
    lr_mult: 2
    decay_mult: 0
  }
  convolution_param {
    num_output: 128
    pad: 1
    kernel_size: 3
    weight_filler {
      type: "xavier"
    }
  }
}
layer {
  name: "relu2_2"
  type: "ReLU"
  bottom: "conv2_2"
  top: "conv2_2"
}
layer {
  name: "pool2"
  type: "Pooling"
  bottom: "conv2_2"
  top: "pool2"
  pooling_param {
    pool: MAX
    kernel_size: 2
    stride: 2
  }
}
layer {
  name: "conv3_1"
  type: "Convolution"
  bottom: "pool2"
  top: "conv3_1"
  param {
    lr_mult: 1
    decay_mult: 1
  }
  param {
    lr_mult: 2
    decay_mult: 0
  }
  convolution_param {
    num_output: 256
    pad: 1
    kernel_size: 3
    weight_filler {
      type: "xavier"
    }
  }
}
layer {
  name: "relu3_1"
  type: "ReLU"
  bottom: "conv3_1"
  top: "conv3_1"
}
layer {
  name: "conv3_2"
  type: "Convolution"
  bottom: "conv3_1"
  top: "conv3_2"
  param {
    lr_mult: 1
    decay_mult: 1
  }
  param {
    lr_mult: 2
    decay_mult: 0
  }
  convolution_param {
    num_output: 256
    pad: 1
    kernel_size: 3
    weight_filler {
      type: "xavier"
    }
  }
}
layer {
  name: "relu3_2"
  type: "ReLU"
  bottom: "conv3_2"
  top: "conv3_2"
}
layer {
  name: "conv3_3"
  type: "Convolution"
  bottom: "conv3_2"
  top: "conv3_3"
  param {
    lr_mult: 1
    decay_mult: 1
  }
  param {
    lr_mult: 2
    decay_mult: 0
  }
  convolution_param {
    num_output: 256
    pad: 1
    kernel_size: 3
    weight_filler {
      type: "xavier"
    }
  }
}
layer {
  name: "relu3_3"
  type: "ReLU"
  bottom: "conv3_3"
  top: "conv3_3"
}
layer {
  name: "pool3"
  type: "Pooling"
  bottom: "conv3_3"
  top: "pool3"
  pooling_param {
    pool: MAX
    kernel_size: 2
    stride: 2
  }
}
layer {
  name: "conv4_1"
  type: "Convolution"
  bottom: "pool3"
  top: "conv4_1"
  param {
    lr_mult: 1
    decay_mult: 1
  }
  param {
    lr_mult: 2
    decay_mult: 0
  }
  convolution_param {
    num_output: 512
    pad: 1
    kernel_size: 3
    weight_filler {
      type: "xavier"
    }
  }
}
layer {
  name: "relu4_1"
  type: "ReLU"
  bottom: "conv4_1"
  top: "conv4_1"
}
layer {
  name: "conv4_2"
  type: "Convolution"
  bottom: "conv4_1"
  top: "conv4_2"
  param {
    lr_mult: 1
    decay_mult: 1
  }
  param {
    lr_mult: 2
    decay_mult: 0
  }
  convolution_param {
    num_output: 512
    pad: 1
    kernel_size: 3
    weight_filler {
      type: "xavier"
    }
  }
}
layer {
  name: "relu4_2"
  type: "ReLU"
  bottom: "conv4_2"
  top: "conv4_2"
}
layer {
  name: "conv4_3"
  type: "Convolution"
  bottom: "conv4_2"
  top: "conv4_3"
  param {
    lr_mult: 1
    decay_mult: 1
  }
  param {
    lr_mult: 2
    decay_mult: 0
  }
  convolution_param {
    num_output: 512
    pad: 1
    kernel_size: 3
    weight_filler {
      type: "xavier"
    }
  }
}
layer {
  name: "relu4_3"
  type: "ReLU"
  bottom: "conv4_3"
  top: "conv4_3"
}
layer {
  name: "pool4"
  type: "Pooling"
  bottom: "conv4_3"
  top: "pool4"
  pooling_param {
    pool: MAX
    kernel_size: 2
    stride: 2
  }
}
layer {
  name: "conv5_1"
  type: "Convolution"
  bottom: "pool4"
  top: "conv5_1"
  param {
    lr_mult: 1
    decay_mult: 1
  }
  param {
    lr_mult: 2
    decay_mult: 0
  }
  convolution_param {
    num_output: 512
    pad: 1
    kernel_size: 3
    weight_filler {
      type: "xavier"
    }
  }
}
layer {
  name: "relu5_1"
  type: "ReLU"
  bottom: "conv5_1"
  top: "conv5_1"
}
layer {
  name: "conv5_2"
  type: "Convolution"
  bottom: "conv5_1"
  top: "conv5_2"
  param {
    lr_mult: 1
    decay_mult: 1
  }
  param {
    lr_mult: 2
    decay_mult: 0
  }
  convolution_param {
    num_output: 512
    pad: 1
    kernel_size: 3
    weight_filler {
      type: "xavier"
    }
  }
}
layer {
  name: "relu5_2"
  type: "ReLU"
  bottom: "conv5_2"
  top: "conv5_2"
}
layer {
  name: "conv5_3"
  type: "Convolution"
  bottom: "conv5_2"
  top: "conv5_3"
  param {
    lr_mult: 1
    decay_mult: 1
  }
  param {
    lr_mult: 2
    decay_mult: 0
  }
  convolution_param {
    num_output: 512
    pad: 1
    kernel_size: 3
    weight_filler {
      type: "xavier"
    }
  }
}
layer {
  name: "relu5_3"
  type: "ReLU"
  bottom: "conv5_3"
  top: "conv5_3"
}
layer {
  name: "pool5"
  type: "Pooling"
  bottom: "conv5_3"
  top: "pool5"
  pooling_param {
    pool: MAX
    kernel_size: 2
    stride: 2
  }
}
layer {
  name: "fc6"
  type: "InnerProduct"
  bottom: "pool5"
  top: "fc6"
  param {
    lr_mult: 1
    decay_mult: 1
  }
  param {
    lr_mult: 2
    decay_mult: 0
  }
  inner_product_param {
    num_output: 4096
    weight_filler {
      type: "xavier"
    }
  }
}
layer {
  name: "relu6"
  type: "ReLU"
  bottom: "fc6"
  top: "fc6"
}
layer {
  name: "drop6"
  type: "Dropout"
  bottom: "fc6"
  top: "fc6"
  dropout_param {
    dropout_ratio: 0.5
  }
}
layer {
  name: "fc7"
  type: "InnerProduct"
  bottom: "fc6"
  top: "fc7"
  param {
    lr_mult: 1
    decay_mult: 1
  }
  param {
    lr_mult: 2
    decay_mult: 0
  }
  inner_product_param {
    num_output: 4096
    weight_filler {
      type: "xavier"
    }
  }
}
layer {
  name: "relu7"
  type: "ReLU"
  bottom: "fc7"
  top: "fc7"
}
layer {
  name: "drop7"
  type: "Dropout"
  bottom: "fc7"
  top: "fc7"
  dropout_param {
    dropout_ratio: 0.5
  }
}
layer {
  name: "fc8-1"
  type: "InnerProduct"
  bottom: "fc7"
  top: "fc8-1"
  param {
    lr_mult: 1
    decay_mult: 1
  }
  param {
    lr_mult: 2
    decay_mult: 0
  }
  inner_product_param {
    num_output: 101
    weight_filler {
      type: "gaussian"
      std: 0.001
    }
    bias_filler {
      type: "constant"
      value: 0
    }
  }
}
layer {
  name: "loss"
  type: "SoftmaxWithLoss"
  bottom: "fc8-1"
  bottom: "label_local"
  include {
    phase: TRAIN
  }
}
I0811 19:34:08.924407  6457 layer_factory.hpp:75] Creating layer data
I0811 19:34:08.924444  6457 net.cpp:99] Creating Layer data
I0811 19:34:08.924454  6457 net.cpp:409] data -> data
I0811 19:34:08.924476  6457 net.cpp:409] data -> label_local
I0811 19:34:08.924486  6457 net.cpp:131] Setting up data
I0811 19:34:08.924496  6457 video_data_layer.cpp:34] Opening file: /home/jiri/Lake/HAR/datasets/UCF-101/train-1-rnd.txt
I0811 19:34:08.928936  6457 video_data_layer.cpp:50] A total of 9537 videos.
I0811 19:34:08.937846  6457 video_data_layer.cpp:85] output data size: 64,20,224,224
I0811 19:34:09.263059  6457 net.cpp:140] Top shape: 64 20 224 224 (64225280)
I0811 19:34:09.263088  6457 net.cpp:140] Top shape: 64 1 1 1 (64)
I0811 19:34:09.263100  6457 layer_factory.hpp:75] Creating layer conv1_1
I0811 19:34:09.263119  6457 net.cpp:99] Creating Layer conv1_1
I0811 19:34:09.263128  6457 net.cpp:453] conv1_1 <- data
I0811 19:34:09.263139  6457 net.cpp:409] conv1_1 -> conv1_1
I0811 19:34:09.263154  6457 net.cpp:131] Setting up conv1_1
I0811 19:34:09.319617  6457 net.cpp:140] Top shape: 64 64 224 224 (205520896)
I0811 19:34:09.319658  6457 layer_factory.hpp:75] Creating layer relu1_1
I0811 19:34:09.319672  6457 net.cpp:99] Creating Layer relu1_1
I0811 19:34:09.319679  6457 net.cpp:453] relu1_1 <- conv1_1
I0811 19:34:09.319687  6457 net.cpp:396] relu1_1 -> conv1_1 (in-place)
I0811 19:34:09.319695  6457 net.cpp:131] Setting up relu1_1
I0811 19:34:09.319753  6457 net.cpp:140] Top shape: 64 64 224 224 (205520896)
I0811 19:34:09.319763  6457 layer_factory.hpp:75] Creating layer conv1_2
I0811 19:34:09.319774  6457 net.cpp:99] Creating Layer conv1_2
I0811 19:34:09.319780  6457 net.cpp:453] conv1_2 <- conv1_1
I0811 19:34:09.319787  6457 net.cpp:409] conv1_2 -> conv1_2
I0811 19:34:09.319799  6457 net.cpp:131] Setting up conv1_2
I0811 19:34:09.320303  6457 net.cpp:140] Top shape: 64 64 224 224 (205520896)
I0811 19:34:09.320324  6457 layer_factory.hpp:75] Creating layer relu1_2
I0811 19:34:09.320333  6457 net.cpp:99] Creating Layer relu1_2
I0811 19:34:09.320339  6457 net.cpp:453] relu1_2 <- conv1_2
I0811 19:34:09.320346  6457 net.cpp:396] relu1_2 -> conv1_2 (in-place)
I0811 19:34:09.320353  6457 net.cpp:131] Setting up relu1_2
I0811 19:34:09.320524  6457 net.cpp:140] Top shape: 64 64 224 224 (205520896)
I0811 19:34:09.320538  6457 layer_factory.hpp:75] Creating layer pool1
I0811 19:34:09.320551  6457 net.cpp:99] Creating Layer pool1
I0811 19:34:09.320557  6457 net.cpp:453] pool1 <- conv1_2
I0811 19:34:09.320566  6457 net.cpp:409] pool1 -> pool1
I0811 19:34:09.320574  6457 net.cpp:131] Setting up pool1
I0811 19:34:09.320647  6457 net.cpp:140] Top shape: 64 64 112 112 (51380224)
I0811 19:34:09.320657  6457 layer_factory.hpp:75] Creating layer conv2_1
I0811 19:34:09.320667  6457 net.cpp:99] Creating Layer conv2_1
I0811 19:34:09.320672  6457 net.cpp:453] conv2_1 <- pool1
I0811 19:34:09.320679  6457 net.cpp:409] conv2_1 -> conv2_1
I0811 19:34:09.320688  6457 net.cpp:131] Setting up conv2_1
I0811 19:34:09.321720  6457 net.cpp:140] Top shape: 64 128 112 112 (102760448)
I0811 19:34:09.321741  6457 layer_factory.hpp:75] Creating layer relu2_1
I0811 19:34:09.321750  6457 net.cpp:99] Creating Layer relu2_1
I0811 19:34:09.321781  6457 net.cpp:453] relu2_1 <- conv2_1
I0811 19:34:09.321789  6457 net.cpp:396] relu2_1 -> conv2_1 (in-place)
I0811 19:34:09.321797  6457 net.cpp:131] Setting up relu2_1
I0811 19:34:09.321851  6457 net.cpp:140] Top shape: 64 128 112 112 (102760448)
I0811 19:34:09.321861  6457 layer_factory.hpp:75] Creating layer conv2_2
I0811 19:34:09.321871  6457 net.cpp:99] Creating Layer conv2_2
I0811 19:34:09.321877  6457 net.cpp:453] conv2_2 <- conv2_1
I0811 19:34:09.321883  6457 net.cpp:409] conv2_2 -> conv2_2
I0811 19:34:09.321892  6457 net.cpp:131] Setting up conv2_2
I0811 19:34:09.322911  6457 net.cpp:140] Top shape: 64 128 112 112 (102760448)
I0811 19:34:09.322927  6457 layer_factory.hpp:75] Creating layer relu2_2
I0811 19:34:09.322937  6457 net.cpp:99] Creating Layer relu2_2
I0811 19:34:09.322942  6457 net.cpp:453] relu2_2 <- conv2_2
I0811 19:34:09.322948  6457 net.cpp:396] relu2_2 -> conv2_2 (in-place)
I0811 19:34:09.322957  6457 net.cpp:131] Setting up relu2_2
I0811 19:34:09.323005  6457 net.cpp:140] Top shape: 64 128 112 112 (102760448)
I0811 19:34:09.323014  6457 layer_factory.hpp:75] Creating layer pool2
I0811 19:34:09.323021  6457 net.cpp:99] Creating Layer pool2
I0811 19:34:09.323027  6457 net.cpp:453] pool2 <- conv2_2
I0811 19:34:09.323034  6457 net.cpp:409] pool2 -> pool2
I0811 19:34:09.323041  6457 net.cpp:131] Setting up pool2
I0811 19:34:09.323210  6457 net.cpp:140] Top shape: 64 128 56 56 (25690112)
I0811 19:34:09.323223  6457 layer_factory.hpp:75] Creating layer conv3_1
I0811 19:34:09.323232  6457 net.cpp:99] Creating Layer conv3_1
I0811 19:34:09.323238  6457 net.cpp:453] conv3_1 <- pool2
I0811 19:34:09.323246  6457 net.cpp:409] conv3_1 -> conv3_1
I0811 19:34:09.323256  6457 net.cpp:131] Setting up conv3_1
I0811 19:34:09.325868  6457 net.cpp:140] Top shape: 64 256 56 56 (51380224)
I0811 19:34:09.325891  6457 layer_factory.hpp:75] Creating layer relu3_1
I0811 19:34:09.325899  6457 net.cpp:99] Creating Layer relu3_1
I0811 19:34:09.325906  6457 net.cpp:453] relu3_1 <- conv3_1
I0811 19:34:09.325912  6457 net.cpp:396] relu3_1 -> conv3_1 (in-place)
I0811 19:34:09.325919  6457 net.cpp:131] Setting up relu3_1
I0811 19:34:09.325975  6457 net.cpp:140] Top shape: 64 256 56 56 (51380224)
I0811 19:34:09.325984  6457 layer_factory.hpp:75] Creating layer conv3_2
I0811 19:34:09.325994  6457 net.cpp:99] Creating Layer conv3_2
I0811 19:34:09.325999  6457 net.cpp:453] conv3_2 <- conv3_1
I0811 19:34:09.326005  6457 net.cpp:409] conv3_2 -> conv3_2
I0811 19:34:09.326014  6457 net.cpp:131] Setting up conv3_2
I0811 19:34:09.330137  6457 net.cpp:140] Top shape: 64 256 56 56 (51380224)
I0811 19:34:09.330155  6457 layer_factory.hpp:75] Creating layer relu3_2
I0811 19:34:09.330164  6457 net.cpp:99] Creating Layer relu3_2
I0811 19:34:09.330170  6457 net.cpp:453] relu3_2 <- conv3_2
I0811 19:34:09.330178  6457 net.cpp:396] relu3_2 -> conv3_2 (in-place)
I0811 19:34:09.330184  6457 net.cpp:131] Setting up relu3_2
I0811 19:34:09.330238  6457 net.cpp:140] Top shape: 64 256 56 56 (51380224)
I0811 19:34:09.330247  6457 layer_factory.hpp:75] Creating layer conv3_3
I0811 19:34:09.330255  6457 net.cpp:99] Creating Layer conv3_3
I0811 19:34:09.330261  6457 net.cpp:453] conv3_3 <- conv3_2
I0811 19:34:09.330268  6457 net.cpp:409] conv3_3 -> conv3_3
I0811 19:34:09.330276  6457 net.cpp:131] Setting up conv3_3
I0811 19:34:09.334036  6457 net.cpp:140] Top shape: 64 256 56 56 (51380224)
I0811 19:34:09.334058  6457 layer_factory.hpp:75] Creating layer relu3_3
I0811 19:34:09.334069  6457 net.cpp:99] Creating Layer relu3_3
I0811 19:34:09.334076  6457 net.cpp:453] relu3_3 <- conv3_3
I0811 19:34:09.334084  6457 net.cpp:396] relu3_3 -> conv3_3 (in-place)
I0811 19:34:09.334090  6457 net.cpp:131] Setting up relu3_3
I0811 19:34:09.334262  6457 net.cpp:140] Top shape: 64 256 56 56 (51380224)
I0811 19:34:09.334276  6457 layer_factory.hpp:75] Creating layer pool3
I0811 19:34:09.334286  6457 net.cpp:99] Creating Layer pool3
I0811 19:34:09.334292  6457 net.cpp:453] pool3 <- conv3_3
I0811 19:34:09.334300  6457 net.cpp:409] pool3 -> pool3
I0811 19:34:09.334333  6457 net.cpp:131] Setting up pool3
I0811 19:34:09.334393  6457 net.cpp:140] Top shape: 64 256 28 28 (12845056)
I0811 19:34:09.334403  6457 layer_factory.hpp:75] Creating layer conv4_1
I0811 19:34:09.334413  6457 net.cpp:99] Creating Layer conv4_1
I0811 19:34:09.334417  6457 net.cpp:453] conv4_1 <- pool3
I0811 19:34:09.334424  6457 net.cpp:409] conv4_1 -> conv4_1
I0811 19:34:09.334432  6457 net.cpp:131] Setting up conv4_1
I0811 19:34:09.341881  6457 net.cpp:140] Top shape: 64 512 28 28 (25690112)
I0811 19:34:09.341912  6457 layer_factory.hpp:75] Creating layer relu4_1
I0811 19:34:09.341922  6457 net.cpp:99] Creating Layer relu4_1
I0811 19:34:09.341929  6457 net.cpp:453] relu4_1 <- conv4_1
I0811 19:34:09.341938  6457 net.cpp:396] relu4_1 -> conv4_1 (in-place)
I0811 19:34:09.341946  6457 net.cpp:131] Setting up relu4_1
I0811 19:34:09.341999  6457 net.cpp:140] Top shape: 64 512 28 28 (25690112)
I0811 19:34:09.342007  6457 layer_factory.hpp:75] Creating layer conv4_2
I0811 19:34:09.342017  6457 net.cpp:99] Creating Layer conv4_2
I0811 19:34:09.342023  6457 net.cpp:453] conv4_2 <- conv4_1
I0811 19:34:09.342031  6457 net.cpp:409] conv4_2 -> conv4_2
I0811 19:34:09.342039  6457 net.cpp:131] Setting up conv4_2
I0811 19:34:09.356416  6457 net.cpp:140] Top shape: 64 512 28 28 (25690112)
I0811 19:34:09.356451  6457 layer_factory.hpp:75] Creating layer relu4_2
I0811 19:34:09.356463  6457 net.cpp:99] Creating Layer relu4_2
I0811 19:34:09.356469  6457 net.cpp:453] relu4_2 <- conv4_2
I0811 19:34:09.356478  6457 net.cpp:396] relu4_2 -> conv4_2 (in-place)
I0811 19:34:09.356487  6457 net.cpp:131] Setting up relu4_2
I0811 19:34:09.356539  6457 net.cpp:140] Top shape: 64 512 28 28 (25690112)
I0811 19:34:09.356547  6457 layer_factory.hpp:75] Creating layer conv4_3
I0811 19:34:09.356556  6457 net.cpp:99] Creating Layer conv4_3
I0811 19:34:09.356562  6457 net.cpp:453] conv4_3 <- conv4_2
I0811 19:34:09.356570  6457 net.cpp:409] conv4_3 -> conv4_3
I0811 19:34:09.356578  6457 net.cpp:131] Setting up conv4_3
I0811 19:34:09.370847  6457 net.cpp:140] Top shape: 64 512 28 28 (25690112)
I0811 19:34:09.370878  6457 layer_factory.hpp:75] Creating layer relu4_3
I0811 19:34:09.370890  6457 net.cpp:99] Creating Layer relu4_3
I0811 19:34:09.370898  6457 net.cpp:453] relu4_3 <- conv4_3
I0811 19:34:09.370905  6457 net.cpp:396] relu4_3 -> conv4_3 (in-place)
I0811 19:34:09.370914  6457 net.cpp:131] Setting up relu4_3
I0811 19:34:09.371093  6457 net.cpp:140] Top shape: 64 512 28 28 (25690112)
I0811 19:34:09.371107  6457 layer_factory.hpp:75] Creating layer pool4
I0811 19:34:09.371117  6457 net.cpp:99] Creating Layer pool4
I0811 19:34:09.371124  6457 net.cpp:453] pool4 <- conv4_3
I0811 19:34:09.371131  6457 net.cpp:409] pool4 -> pool4
I0811 19:34:09.371140  6457 net.cpp:131] Setting up pool4
I0811 19:34:09.371194  6457 net.cpp:140] Top shape: 64 512 14 14 (6422528)
I0811 19:34:09.371204  6457 layer_factory.hpp:75] Creating layer conv5_1
I0811 19:34:09.371214  6457 net.cpp:99] Creating Layer conv5_1
I0811 19:34:09.371220  6457 net.cpp:453] conv5_1 <- pool4
I0811 19:34:09.371227  6457 net.cpp:409] conv5_1 -> conv5_1
I0811 19:34:09.371238  6457 net.cpp:131] Setting up conv5_1
I0811 19:34:09.385385  6457 net.cpp:140] Top shape: 64 512 14 14 (6422528)
I0811 19:34:09.385426  6457 layer_factory.hpp:75] Creating layer relu5_1
I0811 19:34:09.385445  6457 net.cpp:99] Creating Layer relu5_1
I0811 19:34:09.385457  6457 net.cpp:453] relu5_1 <- conv5_1
I0811 19:34:09.385469  6457 net.cpp:396] relu5_1 -> conv5_1 (in-place)
I0811 19:34:09.385484  6457 net.cpp:131] Setting up relu5_1
I0811 19:34:09.385556  6457 net.cpp:140] Top shape: 64 512 14 14 (6422528)
I0811 19:34:09.385571  6457 layer_factory.hpp:75] Creating layer conv5_2
I0811 19:34:09.385586  6457 net.cpp:99] Creating Layer conv5_2
I0811 19:34:09.385593  6457 net.cpp:453] conv5_2 <- conv5_1
I0811 19:34:09.385601  6457 net.cpp:409] conv5_2 -> conv5_2
I0811 19:34:09.385610  6457 net.cpp:131] Setting up conv5_2
I0811 19:34:09.399910  6457 net.cpp:140] Top shape: 64 512 14 14 (6422528)
I0811 19:34:09.399945  6457 layer_factory.hpp:75] Creating layer relu5_2
I0811 19:34:09.399981  6457 net.cpp:99] Creating Layer relu5_2
I0811 19:34:09.399988  6457 net.cpp:453] relu5_2 <- conv5_2
I0811 19:34:09.399996  6457 net.cpp:396] relu5_2 -> conv5_2 (in-place)
I0811 19:34:09.400005  6457 net.cpp:131] Setting up relu5_2
I0811 19:34:09.400060  6457 net.cpp:140] Top shape: 64 512 14 14 (6422528)
I0811 19:34:09.400070  6457 layer_factory.hpp:75] Creating layer conv5_3
I0811 19:34:09.400081  6457 net.cpp:99] Creating Layer conv5_3
I0811 19:34:09.400087  6457 net.cpp:453] conv5_3 <- conv5_2
I0811 19:34:09.400094  6457 net.cpp:409] conv5_3 -> conv5_3
I0811 19:34:09.400104  6457 net.cpp:131] Setting up conv5_3
I0811 19:34:09.414397  6457 net.cpp:140] Top shape: 64 512 14 14 (6422528)
I0811 19:34:09.414429  6457 layer_factory.hpp:75] Creating layer relu5_3
I0811 19:34:09.414443  6457 net.cpp:99] Creating Layer relu5_3
I0811 19:34:09.414449  6457 net.cpp:453] relu5_3 <- conv5_3
I0811 19:34:09.414456  6457 net.cpp:396] relu5_3 -> conv5_3 (in-place)
I0811 19:34:09.414465  6457 net.cpp:131] Setting up relu5_3
I0811 19:34:09.414641  6457 net.cpp:140] Top shape: 64 512 14 14 (6422528)
I0811 19:34:09.414654  6457 layer_factory.hpp:75] Creating layer pool5
I0811 19:34:09.414664  6457 net.cpp:99] Creating Layer pool5
I0811 19:34:09.414669  6457 net.cpp:453] pool5 <- conv5_3
I0811 19:34:09.414677  6457 net.cpp:409] pool5 -> pool5
I0811 19:34:09.414685  6457 net.cpp:131] Setting up pool5
I0811 19:34:09.414741  6457 net.cpp:140] Top shape: 64 512 7 7 (1605632)
I0811 19:34:09.414748  6457 layer_factory.hpp:75] Creating layer fc6
I0811 19:34:09.414762  6457 net.cpp:99] Creating Layer fc6
I0811 19:34:09.414767  6457 net.cpp:453] fc6 <- pool5
I0811 19:34:09.414774  6457 net.cpp:409] fc6 -> fc6
I0811 19:34:09.414785  6457 net.cpp:131] Setting up fc6
I0811 19:34:09.999358  6457 net.cpp:140] Top shape: 64 4096 (262144)
I0811 19:34:09.999390  6457 layer_factory.hpp:75] Creating layer relu6
I0811 19:34:09.999402  6457 net.cpp:99] Creating Layer relu6
I0811 19:34:09.999409  6457 net.cpp:453] relu6 <- fc6
I0811 19:34:09.999418  6457 net.cpp:396] relu6 -> fc6 (in-place)
I0811 19:34:09.999426  6457 net.cpp:131] Setting up relu6
I0811 19:34:09.999502  6457 net.cpp:140] Top shape: 64 4096 (262144)
I0811 19:34:09.999511  6457 layer_factory.hpp:75] Creating layer drop6
I0811 19:34:09.999519  6457 net.cpp:99] Creating Layer drop6
I0811 19:34:09.999526  6457 net.cpp:453] drop6 <- fc6
I0811 19:34:09.999532  6457 net.cpp:396] drop6 -> fc6 (in-place)
I0811 19:34:09.999541  6457 net.cpp:131] Setting up drop6
I0811 19:34:09.999549  6457 net.cpp:140] Top shape: 64 4096 (262144)
I0811 19:34:09.999557  6457 layer_factory.hpp:75] Creating layer fc7
I0811 19:34:09.999565  6457 net.cpp:99] Creating Layer fc7
I0811 19:34:09.999570  6457 net.cpp:453] fc7 <- fc6
I0811 19:34:09.999577  6457 net.cpp:409] fc7 -> fc7
I0811 19:34:09.999585  6457 net.cpp:131] Setting up fc7
I0811 19:34:10.093734  6457 net.cpp:140] Top shape: 64 4096 (262144)
I0811 19:34:10.093765  6457 layer_factory.hpp:75] Creating layer relu7
I0811 19:34:10.093776  6457 net.cpp:99] Creating Layer relu7
I0811 19:34:10.093783  6457 net.cpp:453] relu7 <- fc7
I0811 19:34:10.093791  6457 net.cpp:396] relu7 -> fc7 (in-place)
I0811 19:34:10.093799  6457 net.cpp:131] Setting up relu7
I0811 19:34:10.093879  6457 net.cpp:140] Top shape: 64 4096 (262144)
I0811 19:34:10.093899  6457 layer_factory.hpp:75] Creating layer drop7
I0811 19:34:10.093909  6457 net.cpp:99] Creating Layer drop7
I0811 19:34:10.093914  6457 net.cpp:453] drop7 <- fc7
I0811 19:34:10.093921  6457 net.cpp:396] drop7 -> fc7 (in-place)
I0811 19:34:10.093929  6457 net.cpp:131] Setting up drop7
I0811 19:34:10.093935  6457 net.cpp:140] Top shape: 64 4096 (262144)
I0811 19:34:10.093941  6457 layer_factory.hpp:75] Creating layer fc8-1
I0811 19:34:10.093950  6457 net.cpp:99] Creating Layer fc8-1
I0811 19:34:10.093956  6457 net.cpp:453] fc8-1 <- fc7
I0811 19:34:10.093962  6457 net.cpp:409] fc8-1 -> fc8-1
I0811 19:34:10.093972  6457 net.cpp:131] Setting up fc8-1
I0811 19:34:10.103274  6457 net.cpp:140] Top shape: 64 101 (6464)
I0811 19:34:10.103317  6457 layer_factory.hpp:75] Creating layer loss
I0811 19:34:10.103327  6457 net.cpp:99] Creating Layer loss
I0811 19:34:10.103333  6457 net.cpp:453] loss <- fc8-1
I0811 19:34:10.103340  6457 net.cpp:453] loss <- label_local
I0811 19:34:10.103348  6457 net.cpp:409] loss -> (automatic)
I0811 19:34:10.103355  6457 net.cpp:131] Setting up loss
I0811 19:34:10.103363  6457 layer_factory.hpp:75] Creating layer loss
…
    mean_value: 128
    mean_value: 128
    mean_value: 128
    mean_value: 128
    mean_value: 128
    mean_value: 128
    mean_value: 128
    mean_value: 128
    mean_value: 128
    mean_value: 128
    mean_value: 128
    mean_value: 128
    mean_value: 128
    mean_value: 128
    mean_value: 128
    mean_value: 128
    mean_value: 128
    mean_value: 128
    fix_crop: true
    is_flow: true
  }
  video_data_param {
    source: "/home/jiri/Lake/HAR/datasets/UCF-101/val-1-rnd.txt"
    batch_size: 5
    new_length: 10
    num_segments: 1
    modality: FLOW
  }
}
layer {
  name: "conv1_1"
  type: "Convolution"
  bottom: "data"
  top: "conv1_1"
  param {
    lr_mult: 1
    decay_mult: 1
  }
  param {
    lr_mult: 2
    decay_mult: 0
  }
  convolution_param {
    num_output: 64
    pad: 1
    kernel_size: 3
    weight_filler {
      type: "xavier"
    }
  }
}
layer {
  name: "relu1_1"
  type: "ReLU"
  bottom: "conv1_1"
  top: "conv1_1"
}
layer {
  name: "conv1_2"
  type: "Convolution"
  bottom: "conv1_1"
  top: "conv1_2"
  param {
    lr_mult: 1
    decay_mult: 1
  }
  param {
    lr_mult: 2
    decay_mult: 0
  }
  convolution_param {
    num_output: 64
    pad: 1
    kernel_size: 3
    weight_filler {
      type: "xavier"
    }
  }
}
layer {
  name: "relu1_2"
  type: "ReLU"
  bottom: "conv1_2"
  top: "conv1_2"
}
layer {
  name: "pool1"
  type: "Pooling"
  bottom: "conv1_2"
  top: "pool1"
  pooling_param {
    pool: MAX
    kernel_size: 2
    stride: 2
  }
}
layer {
  name: "conv2_1"
  type: "Convolution"
  bottom: "pool1"
  top: "conv2_1"
  param {
    lr_mult: 1
    decay_mult: 1
  }
  param {
    lr_mult: 2
    decay_mult: 0
  }
  convolution_param {
    num_output: 128
    pad: 1
    kernel_size: 3
    weight_filler {
      type: "xavier"
    }
  }
}
layer {
  name: "relu2_1"
  type: "ReLU"
  bottom: "conv2_1"
  top: "conv2_1"
}
layer {
  name: "conv2_2"
  type: "Convolution"
  bottom: "conv2_1"
  top: "conv2_2"
  param {
    lr_mult: 1
    decay_mult: 1
  }
  param {
    lr_mult: 2
    decay_mult: 0
  }
  convolution_param {
    num_output: 128
    pad: 1
    kernel_size: 3
    weight_filler {
      type: "xavier"
    }
  }
}
layer {
  name: "relu2_2"
  type: "ReLU"
  bottom: "conv2_2"
  top: "conv2_2"
}
layer {
  name: "pool2"
  type: "Pooling"
  bottom: "conv2_2"
  top: "pool2"
  pooling_param {
    pool: MAX
    kernel_size: 2
    stride: 2
  }
}
layer {
  name: "conv3_1"
  type: "Convolution"
  bottom: "pool2"
  top: "conv3_1"
  param {
    lr_mult: 1
    decay_mult: 1
  }
  param {
    lr_mult: 2
    decay_mult: 0
  }
  convolution_param {
    num_output: 256
    pad: 1
    kernel_size: 3
    weight_filler {
      type: "xavier"
    }
  }
}
layer {
  name: "relu3_1"
  type: "ReLU"
  bottom: "conv3_1"
  top: "conv3_1"
}
layer {
  name: "conv3_2"
  type: "Convolution"
  bottom: "conv3_1"
  top: "conv3_2"
  param {
    lr_mult: 1
    decay_mult: 1
  }
  param {
    lr_mult: 2
    decay_mult: 0
  }
  convolution_param {
    num_output: 256
    pad: 1
    kernel_size: 3
    weight_filler {
      type: "xavier"
    }
  }
}
layer {
  name: "relu3_2"
  type: "ReLU"
  bottom: "conv3_2"
  top: "conv3_2"
}
layer {
  name: "conv3_3"
  type: "Convolution"
  bottom: "conv3_2"
  top: "conv3_3"
  param {
    lr_mult: 1
    decay_mult: 1
  }
  param {
    lr_mult: 2
    decay_mult: 0
  }
  convolution_param {
    num_output: 256
    pad: 1
    kernel_size: 3
    weight_filler {
      type: "xavier"
    }
  }
}
layer {
  name: "relu3_3"
  type: "ReLU"
  bottom: "conv3_3"
  top: "conv3_3"
}
layer {
  name: "pool3"
  type: "Pooling"
  bottom: "conv3_3"
  top: "pool3"
  pooling_param {
    pool: MAX
    kernel_size: 2
    stride: 2
  }
}
layer {
  name: "conv4_1"
  type: "Convolution"
  bottom: "pool3"
  top: "conv4_1"
  param {
    lr_mult: 1
    decay_mult: 1
  }
  param {
    lr_mult: 2
    decay_mult: 0
  }
  convolution_param {
    num_output: 512
    pad: 1
    kernel_size: 3
    weight_filler {
      type: "xavier"
    }
  }
}
layer {
  name: "relu4_1"
  type: "ReLU"
  bottom: "conv4_1"
  top: "conv4_1"
}
layer {
  name: "conv4_2"
  type: "Convolution"
  bottom: "conv4_1"
  top: "conv4_2"
  param {
    lr_mult: 1
    decay_mult: 1
  }
  param {
    lr_mult: 2
    decay_mult: 0
  }
  convolution_param {
    num_output: 512
    pad: 1
    kernel_size: 3
    weight_filler {
      type: "xavier"
    }
  }
}
layer {
  name: "relu4_2"
  type: "ReLU"
  bottom: "conv4_2"
  top: "conv4_2"
}
layer {
  name: "conv4_3"
  type: "Convolution"
  bottom: "conv4_2"
  top: "conv4_3"
  param {
    lr_mult: 1
    decay_mult: 1
  }
  param {
    lr_mult: 2
    decay_mult: 0
  }
  convolution_param {
    num_output: 512
    pad: 1
    kernel_size: 3
    weight_filler {
      type: "xavier"
    }
  }
}
layer {
  name: "relu4_3"
  type: "ReLU"
  bottom: "conv4_3"
  top: "conv4_3"
}
layer {
  name: "pool4"
  type: "Pooling"
  bottom: "conv4_3"
  top: "pool4"
  pooling_param {
    pool: MAX
    kernel_size: 2
    stride: 2
  }
}
layer {
  name: "conv5_1"
  type: "Convolution"
  bottom: "pool4"
  top: "conv5_1"
  param {
    lr_mult: 1
    decay_mult: 1
  }
  param {
    lr_mult: 2
    decay_mult: 0
  }
  convolution_param {
    num_output: 512
    pad: 1
    kernel_size: 3
    weight_filler {
      type: "xavier"
    }
  }
}
layer {
  name: "relu5_1"
  type: "ReLU"
  bottom: "conv5_1"
  top: "conv5_1"
}
layer {
  name: "conv5_2"
  type: "Convolution"
  bottom: "conv5_1"
  top: "conv5_2"
  param {
    lr_mult: 1
    decay_mult: 1
  }
  param {
    lr_mult: 2
    decay_mult: 0
  }
  convolution_param {
    num_output: 512
    pad: 1
    kernel_size: 3
    weight_filler {
      type: "xavier"
    }
  }
}
layer {
  name: "relu5_2"
  type: "ReLU"
  bottom: "conv5_2"
  top: "conv5_2"
}
layer {
  name: "conv5_3"
  type: "Convolution"
  bottom: "conv5_2"
  top: "conv5_3"
  param {
    lr_mult: 1
    decay_mult: 1
  }
  param {
    lr_mult: 2
    decay_mult: 0
  }
  convolution_param {
    num_output: 512
    pad: 1
    kernel_size: 3
    weight_filler {
      type: "xavier"
    }
  }
}
layer {
  name: "relu5_3"
  type: "ReLU"
  bottom: "conv5_3"
  top: "conv5_3"
}
layer {
  name: "pool5"
  type: "Pooling"
  bottom: "conv5_3"
  top: "pool5"
  pooling_param {
    pool: MAX
    kernel_size: 2
    stride: 2
  }
}
layer {
  name: "fc6"
  type: "InnerProduct"
  bottom: "pool5"
  top: "fc6"
  param {
    lr_mult: 1
    decay_mult: 1
  }
  param {
    lr_mult: 2
    decay_mult: 0
  }
  inner_product_param {
    num_output: 4096
    weight_filler {
      type: "xavier"
    }
  }
}
layer {
  name: "relu6"
  type: "ReLU"
  bottom: "fc6"
  top: "fc6"
}
layer {
  name: "drop6"
  type: "Dropout"
  bottom: "fc6"
  top: "fc6"
  dropout_param {
    dropout_ratio: 0.5
  }
}
layer {
  name: "fc7"
  type: "InnerProduct"
  bottom: "fc6"
  top: "fc7"
  param {
    lr_mult: 1
    decay_mult: 1
  }
  param {
    lr_mult: 2
    decay_mult: 0
  }
  inner_product_param {
    num_output: 4096
    weight_filler {
      type: "xavier"
    }
  }
}
layer {
  name: "relu7"
  type: "ReLU"
  bottom: "fc7"
  top: "fc7"
}
layer {
  name: "drop7"
  type: "Dropout"
  bottom: "fc7"
  top: "fc7"
  dropout_param {
    dropout_ratio: 0.5
  }
}
layer {
  name: "fc8-1"
  type: "InnerProduct"
  bottom: "fc7"
  top: "fc8-1"
  param {
    lr_mult: 1
    decay_mult: 1
  }
  param {
    lr_mult: 2
    decay_mult: 0
  }
  inner_product_param {
    num_output: 101
    weight_filler {
      type: "gaussian"
      std: 0.001
    }
    bias_filler {
      type: "constant"
      value: 0
    }
  }
}
layer {
  name: "loss"
  type: "SoftmaxWithLoss"
  bottom: "fc8-1"
  bottom: "label_local"
  top: "loss"
  include {
    phase: TEST
  }
}
layer {
  name: "accuracy"
  type: "Accuracy"
  bottom: "fc8-1"
  bottom: "label_local"
  top: "accuracy"
  include {
    phase: TEST
  }
}
I0811 19:34:10.106109  6457 layer_factory.hpp:75] Creating layer data
I0811 19:34:10.106125  6457 net.cpp:99] Creating Layer data
I0811 19:34:10.106132  6457 net.cpp:409] data -> data
I0811 19:34:10.106142  6457 net.cpp:409] data -> label_local
I0811 19:34:10.106150  6457 net.cpp:131] Setting up data
I0811 19:34:10.106155  6457 video_data_layer.cpp:34] Opening file: /home/jiri/Lake/HAR/datasets/UCF-101/val-1-rnd.txt
I0811 19:34:10.108314  6457 video_data_layer.cpp:50] A total of 3783 videos.
I0811 19:34:10.119334  6457 video_data_layer.cpp:85] output data size: 5,20,224,224
I0811 19:34:10.143280  6457 net.cpp:140] Top shape: 5 20 224 224 (5017600)
I0811 19:34:10.143307  6457 net.cpp:140] Top shape: 5 1 1 1 (5)
I0811 19:34:10.143316  6457 layer_factory.hpp:75] Creating layer label_local_data_1_split
I0811 19:34:10.143329  6457 net.cpp:99] Creating Layer label_local_data_1_split
I0811 19:34:10.143335  6457 net.cpp:453] label_local_data_1_split <- label_local
I0811 19:34:10.143343  6457 net.cpp:409] label_local_data_1_split -> label_local_data_1_split_0
I0811 19:34:10.143353  6457 net.cpp:409] label_local_data_1_split -> label_local_data_1_split_1
I0811 19:34:10.143360  6457 net.cpp:131] Setting up label_local_data_1_split
I0811 19:34:10.143369  6457 net.cpp:140] Top shape: 5 1 1 1 (5)
I0811 19:34:10.143374  6457 net.cpp:140] Top shape: 5 1 1 1 (5)
I0811 19:34:10.143379  6457 layer_factory.hpp:75] Creating layer conv1_1
I0811 19:34:10.143390  6457 net.cpp:99] Creating Layer conv1_1
I0811 19:34:10.143395  6457 net.cpp:453] conv1_1 <- data
I0811 19:34:10.143403  6457 net.cpp:409] conv1_1 -> conv1_1
I0811 19:34:10.143410  6457 net.cpp:131] Setting up conv1_1
I0811 19:34:10.143918  6457 net.cpp:140] Top shape: 5 64 224 224 (16056320)
I0811 19:34:10.143935  6457 layer_factory.hpp:75] Creating layer relu1_1
I0811 19:34:10.143944  6457 net.cpp:99] Creating Layer relu1_1
I0811 19:34:10.143949  6457 net.cpp:453] relu1_1 <- conv1_1
I0811 19:34:10.143957  6457 net.cpp:396] relu1_1 -> conv1_1 (in-place)
I0811 19:34:10.143964  6457 net.cpp:131] Setting up relu1_1
I0811 19:34:10.144017  6457 net.cpp:140] Top shape: 5 64 224 224 (16056320)
I0811 19:34:10.144026  6457 layer_factory.hpp:75] Creating layer conv1_2
I0811 19:34:10.144035  6457 net.cpp:99] Creating Layer conv1_2
I0811 19:34:10.144042  6457 net.cpp:453] conv1_2 <- conv1_1
I0811 19:34:10.144048  6457 net.cpp:409] conv1_2 -> conv1_2
I0811 19:34:10.144055  6457 net.cpp:131] Setting up conv1_2
I0811 19:34:10.145112  6457 net.cpp:140] Top shape: 5 64 224 224 (16056320)
I0811 19:34:10.145130  6457 layer_factory.hpp:75] Creating layer relu1_2
I0811 19:34:10.145138  6457 net.cpp:99] Creating Layer relu1_2
I0811 19:34:10.145143  6457 net.cpp:453] relu1_2 <- conv1_2
I0811 19:34:10.145153  6457 net.cpp:396] relu1_2 -> conv1_2 (in-place)
I0811 19:34:10.145159  6457 net.cpp:131] Setting up relu1_2
I0811 19:34:10.145215  6457 net.cpp:140] Top shape: 5 64 224 224 (16056320)
I0811 19:34:10.145223  6457 layer_factory.hpp:75] Creating layer pool1
I0811 19:34:10.145233  6457 net.cpp:99] Creating Layer pool1
I0811 19:34:10.145239  6457 net.cpp:453] pool1 <- conv1_2
I0811 19:34:10.145246  6457 net.cpp:409] pool1 -> pool1
I0811 19:34:10.145252  6457 net.cpp:131] Setting up pool1
I0811 19:34:10.145419  6457 net.cpp:140] Top shape: 5 64 112 112 (4014080)
I0811 19:34:10.145432  6457 layer_factory.hpp:75] Creating layer conv2_1
I0811 19:34:10.145442  6457 net.cpp:99] Creating Layer conv2_1
I0811 19:34:10.145447  6457 net.cpp:453] conv2_1 <- pool1
I0811 19:34:10.145453  6457 net.cpp:409] conv2_1 -> conv2_1
I0811 19:34:10.145462  6457 net.cpp:131] Setting up conv2_1
I0811 19:34:10.147830  6457 net.cpp:140] Top shape: 5 128 112 112 (8028160)
I0811 19:34:10.147850  6457 layer_factory.hpp:75] Creating layer relu2_1
I0811 19:34:10.147861  6457 net.cpp:99] Creating Layer relu2_1
I0811 19:34:10.147866  6457 net.cpp:453] relu2_1 <- conv2_1
I0811 19:34:10.147894  6457 net.cpp:396] relu2_1 -> conv2_1 (in-place)
I0811 19:34:10.147902  6457 net.cpp:131] Setting up relu2_1
I0811 19:34:10.147954  6457 net.cpp:140] Top shape: 5 128 112 112 (8028160)
I0811 19:34:10.147964  6457 layer_factory.hpp:75] Creating layer conv2_2
I0811 19:34:10.147971  6457 net.cpp:99] Creating Layer conv2_2
I0811 19:34:10.147976  6457 net.cpp:453] conv2_2 <- conv2_1
I0811 19:34:10.147984  6457 net.cpp:409] conv2_2 -> conv2_2
I0811 19:34:10.147991  6457 net.cpp:131] Setting up conv2_2
I0811 19:34:10.148977  6457 net.cpp:140] Top shape: 5 128 112 112 (8028160)
I0811 19:34:10.148994  6457 layer_factory.hpp:75] Creating layer relu2_2
I0811 19:34:10.149003  6457 net.cpp:99] Creating Layer relu2_2
I0811 19:34:10.149008  6457 net.cpp:453] relu2_2 <- conv2_2
I0811 19:34:10.149015  6457 net.cpp:396] relu2_2 -> conv2_2 (in-place)
I0811 19:34:10.149021  6457 net.cpp:131] Setting up relu2_2
I0811 19:34:10.149071  6457 net.cpp:140] Top shape: 5 128 112 112 (8028160)
I0811 19:34:10.149080  6457 layer_factory.hpp:75] Creating layer pool2
I0811 19:34:10.149086  6457 net.cpp:99] Creating Layer pool2
I0811 19:34:10.149091  6457 net.cpp:453] pool2 <- conv2_2
I0811 19:34:10.149097  6457 net.cpp:409] pool2 -> pool2
I0811 19:34:10.149104  6457 net.cpp:131] Setting up pool2
I0811 19:34:10.149153  6457 net.cpp:140] Top shape: 5 128 56 56 (2007040)
I0811 19:34:10.149160  6457 layer_factory.hpp:75] Creating layer conv3_1
I0811 19:34:10.149168  6457 net.cpp:99] Creating Layer conv3_1
I0811 19:34:10.149173  6457 net.cpp:453] conv3_1 <- pool2
I0811 19:34:10.149179  6457 net.cpp:409] conv3_1 -> conv3_1
I0811 19:34:10.149186  6457 net.cpp:131] Setting up conv3_1
I0811 19:34:10.151221  6457 net.cpp:140] Top shape: 5 256 56 56 (4014080)
I0811 19:34:10.151239  6457 layer_factory.hpp:75] Creating layer relu3_1
I0811 19:34:10.151247  6457 net.cpp:99] Creating Layer relu3_1
I0811 19:34:10.151253  6457 net.cpp:453] relu3_1 <- conv3_1
I0811 19:34:10.151259  6457 net.cpp:396] relu3_1 -> conv3_1 (in-place)
I0811 19:34:10.151267  6457 net.cpp:131] Setting up relu3_1
I0811 19:34:10.151430  6457 net.cpp:140] Top shape: 5 256 56 56 (4014080)
I0811 19:34:10.151442  6457 layer_factory.hpp:75] Creating layer conv3_2
I0811 19:34:10.151450  6457 net.cpp:99] Creating Layer conv3_2
I0811 19:34:10.151455  6457 net.cpp:453] conv3_2 <- conv3_1
I0811 19:34:10.151463  6457 net.cpp:409] conv3_2 -> conv3_2
I0811 19:34:10.151470  6457 net.cpp:131] Setting up conv3_2
I0811 19:34:10.155093  6457 net.cpp:140] Top shape: 5 256 56 56 (4014080)
I0811 19:34:10.155117  6457 layer_factory.hpp:75] Creating layer relu3_2
I0811 19:34:10.155125  6457 net.cpp:99] Creating Layer relu3_2
I0811 19:34:10.155131  6457 net.cpp:453] relu3_2 <- conv3_2
I0811 19:34:10.155138  6457 net.cpp:396] relu3_2 -> conv3_2 (in-place)
I0811 19:34:10.155145  6457 net.cpp:131] Setting up relu3_2
I0811 19:34:10.155199  6457 net.cpp:140] Top shape: 5 256 56 56 (4014080)
I0811 19:34:10.155205  6457 layer_factory.hpp:75] Creating layer conv3_3
I0811 19:34:10.155215  6457 net.cpp:99] Creating Layer conv3_3
I0811 19:34:10.155221  6457 net.cpp:453] conv3_3 <- conv3_2
I0811 19:34:10.155227  6457 net.cpp:409] conv3_3 -> conv3_3
I0811 19:34:10.155236  6457 net.cpp:131] Setting up conv3_3
I0811 19:34:10.158853  6457 net.cpp:140] Top shape: 5 256 56 56 (4014080)
I0811 19:34:10.158869  6457 layer_factory.hpp:75] Creating layer relu3_3
I0811 19:34:10.158876  6457 net.cpp:99] Creating Layer relu3_3
I0811 19:34:10.158882  6457 net.cpp:453] relu3_3 <- conv3_3
I0811 19:34:10.158890  6457 net.cpp:396] relu3_3 -> conv3_3 (in-place)
I0811 19:34:10.158896  6457 net.cpp:131] Setting up relu3_3
I0811 19:34:10.158946  6457 net.cpp:140] Top shape: 5 256 56 56 (4014080)
I0811 19:34:10.158953  6457 layer_factory.hpp:75] Creating layer pool3
I0811 19:34:10.158962  6457 net.cpp:99] Creating Layer pool3
I0811 19:34:10.158967  6457 net.cpp:453] pool3 <- conv3_3
I0811 19:34:10.158973  6457 net.cpp:409] pool3 -> pool3
I0811 19:34:10.158980  6457 net.cpp:131] Setting up pool3
I0811 19:34:10.159036  6457 net.cpp:140] Top shape: 5 256 28 28 (1003520)
I0811 19:34:10.159060  6457 layer_factory.hpp:75] Creating layer conv4_1
I0811 19:34:10.159067  6457 net.cpp:99] Creating Layer conv4_1
I0811 19:34:10.159073  6457 net.cpp:453] conv4_1 <- pool3
I0811 19:34:10.159080  6457 net.cpp:409] conv4_1 -> conv4_1
I0811 19:34:10.159087  6457 net.cpp:131] Setting up conv4_1
I0811 19:34:10.166043  6457 net.cpp:140] Top shape: 5 512 28 28 (2007040)
I0811 19:34:10.166074  6457 layer_factory.hpp:75] Creating layer relu4_1
I0811 19:34:10.166086  6457 net.cpp:99] Creating Layer relu4_1
I0811 19:34:10.166093  6457 net.cpp:453] relu4_1 <- conv4_1
I0811 19:34:10.166100  6457 net.cpp:396] relu4_1 -> conv4_1 (in-place)
I0811 19:34:10.166108  6457 net.cpp:131] Setting up relu4_1
I0811 19:34:10.166275  6457 net.cpp:140] Top shape: 5 512 28 28 (2007040)
I0811 19:34:10.166288  6457 layer_factory.hpp:75] Creating layer conv4_2
I0811 19:34:10.166299  6457 net.cpp:99] Creating Layer conv4_2
I0811 19:34:10.166304  6457 net.cpp:453] conv4_2 <- conv4_1
I0811 19:34:10.166313  6457 net.cpp:409] conv4_2 -> conv4_2
I0811 19:34:10.166321  6457 net.cpp:131] Setting up conv4_2
I0811 19:34:10.180873  6457 net.cpp:140] Top shape: 5 512 28 28 (2007040)
I0811 19:34:10.180903  6457 layer_factory.hpp:75] Creating layer relu4_2
I0811 19:34:10.180915  6457 net.cpp:99] Creating Layer relu4_2
I0811 19:34:10.180924  6457 net.cpp:453] relu4_2 <- conv4_2
I0811 19:34:10.180932  6457 net.cpp:396] relu4_2 -> conv4_2 (in-place)
I0811 19:34:10.180940  6457 net.cpp:131] Setting up relu4_2
I0811 19:34:10.180994  6457 net.cpp:140] Top shape: 5 512 28 28 (2007040)
I0811 19:34:10.181002  6457 layer_factory.hpp:75] Creating layer conv4_3
I0811 19:34:10.181011  6457 net.cpp:99] Creating Layer conv4_3
I0811 19:34:10.181016  6457 net.cpp:453] conv4_3 <- conv4_2
I0811 19:34:10.181023  6457 net.cpp:409] conv4_3 -> conv4_3
I0811 19:34:10.181035  6457 net.cpp:131] Setting up conv4_3
I0811 19:34:10.196728  6457 net.cpp:140] Top shape: 5 512 28 28 (2007040)
I0811 19:34:10.196756  6457 layer_factory.hpp:75] Creating layer relu4_3
I0811 19:34:10.196768  6457 net.cpp:99] Creating Layer relu4_3
I0811 19:34:10.196775  6457 net.cpp:453] relu4_3 <- conv4_3
I0811 19:34:10.196782  6457 net.cpp:396] relu4_3 -> conv4_3 (in-place)
I0811 19:34:10.196792  6457 net.cpp:131] Setting up relu4_3
I0811 19:34:10.196846  6457 net.cpp:140] Top shape: 5 512 28 28 (2007040)
I0811 19:34:10.196854  6457 layer_factory.hpp:75] Creating layer pool4
I0811 19:34:10.196863  6457 net.cpp:99] Creating Layer pool4
I0811 19:34:10.196868  6457 net.cpp:453] pool4 <- conv4_3
I0811 19:34:10.196876  6457 net.cpp:409] pool4 -> pool4
I0811 19:34:10.196883  6457 net.cpp:131] Setting up pool4
I0811 19:34:10.197052  6457 net.cpp:140] Top shape: 5 512 14 14 (501760)
I0811 19:34:10.197063  6457 layer_factory.hpp:75] Creating layer conv5_1
I0811 19:34:10.197073  6457 net.cpp:99] Creating Layer conv5_1
I0811 19:34:10.197079  6457 net.cpp:453] conv5_1 <- pool4
I0811 19:34:10.197087  6457 net.cpp:409] conv5_1 -> conv5_1
I0811 19:34:10.197094  6457 net.cpp:131] Setting up conv5_1
I0811 19:34:10.210772  6457 net.cpp:140] Top shape: 5 512 14 14 (501760)
I0811 19:34:10.210805  6457 layer_factory.hpp:75] Creating layer relu5_1
I0811 19:34:10.210829  6457 net.cpp:99] Creating Layer relu5_1
I0811 19:34:10.210839  6457 net.cpp:453] relu5_1 <- conv5_1
I0811 19:34:10.210850  6457 net.cpp:396] relu5_1 -> conv5_1 (in-place)
I0811 19:34:10.210857  6457 net.cpp:131] Setting up relu5_1
I0811 19:34:10.210911  6457 net.cpp:140] Top shape: 5 512 14 14 (501760)
I0811 19:34:10.210923  6457 layer_factory.hpp:75] Creating layer conv5_2
I0811 19:34:10.210932  6457 net.cpp:99] Creating Layer conv5_2
I0811 19:34:10.210938  6457 net.cpp:453] conv5_2 <- conv5_1
I0811 19:34:10.210947  6457 net.cpp:409] conv5_2 -> conv5_2
I0811 19:34:10.210955  6457 net.cpp:131] Setting up conv5_2
I0811 19:34:10.224730  6457 net.cpp:140] Top shape: 5 512 14 14 (501760)
I0811 19:34:10.224759  6457 layer_factory.hpp:75] Creating layer relu5_2
I0811 19:34:10.224771  6457 net.cpp:99] Creating Layer relu5_2
I0811 19:34:10.224800  6457 net.cpp:453] relu5_2 <- conv5_2
I0811 19:34:10.224809  6457 net.cpp:396] relu5_2 -> conv5_2 (in-place)
I0811 19:34:10.224817  6457 net.cpp:131] Setting up relu5_2
I0811 19:34:10.224869  6457 net.cpp:140] Top shape: 5 512 14 14 (501760)
I0811 19:34:10.224876  6457 layer_factory.hpp:75] Creating layer conv5_3
I0811 19:34:10.224885  6457 net.cpp:99] Creating Layer conv5_3
I0811 19:34:10.224890  6457 net.cpp:453] conv5_3 <- conv5_2
I0811 19:34:10.224897  6457 net.cpp:409] conv5_3 -> conv5_3
I0811 19:34:10.224905  6457 net.cpp:131] Setting up conv5_3
I0811 19:34:10.238598  6457 net.cpp:140] Top shape: 5 512 14 14 (501760)
I0811 19:34:10.238631  6457 layer_factory.hpp:75] Creating layer relu5_3
I0811 19:34:10.238641  6457 net.cpp:99] Creating Layer relu5_3
I0811 19:34:10.238648  6457 net.cpp:453] relu5_3 <- conv5_3
I0811 19:34:10.238656  6457 net.cpp:396] relu5_3 -> conv5_3 (in-place)
I0811 19:34:10.238664  6457 net.cpp:131] Setting up relu5_3
I0811 19:34:10.238715  6457 net.cpp:140] Top shape: 5 512 14 14 (501760)
I0811 19:34:10.238723  6457 layer_factory.hpp:75] Creating layer pool5
I0811 19:34:10.238735  6457 net.cpp:99] Creating Layer pool5
I0811 19:34:10.238740  6457 net.cpp:453] pool5 <- conv5_3
I0811 19:34:10.238747  6457 net.cpp:409] pool5 -> pool5
I0811 19:34:10.238755  6457 net.cpp:131] Setting up pool5
I0811 19:34:10.238940  6457 net.cpp:140] Top shape: 5 512 7 7 (125440)
I0811 19:34:10.238952  6457 layer_factory.hpp:75] Creating layer fc6
I0811 19:34:10.238961  6457 net.cpp:99] Creating Layer fc6
I0811 19:34:10.238967  6457 net.cpp:453] fc6 <- pool5
I0811 19:34:10.238975  6457 net.cpp:409] fc6 -> fc6
I0811 19:34:10.238982  6457 net.cpp:131] Setting up fc6
I0811 19:34:10.813621  6457 net.cpp:140] Top shape: 5 4096 (20480)
I0811 19:34:10.813652  6457 layer_factory.hpp:75] Creating layer relu6
I0811 19:34:10.813663  6457 net.cpp:99] Creating Layer relu6
I0811 19:34:10.813670  6457 net.cpp:453] relu6 <- fc6
I0811 19:34:10.813678  6457 net.cpp:396] relu6 -> fc6 (in-place)
I0811 19:34:10.813688  6457 net.cpp:131] Setting up relu6
I0811 19:34:10.813765  6457 net.cpp:140] Top shape: 5 4096 (20480)
I0811 19:34:10.813781  6457 layer_factory.hpp:75] Creating layer drop6
I0811 19:34:10.813791  6457 net.cpp:99] Creating Layer drop6
I0811 19:34:10.813796  6457 net.cpp:453] drop6 <- fc6
I0811 19:34:10.813802  6457 net.cpp:396] drop6 -> fc6 (in-place)
I0811 19:34:10.813808  6457 net.cpp:131] Setting up drop6
I0811 19:34:10.813815  6457 net.cpp:140] Top shape: 5 4096 (20480)
I0811 19:34:10.813820  6457 layer_factory.hpp:75] Creating layer fc7
I0811 19:34:10.813828  6457 net.cpp:99] Creating Layer fc7
I0811 19:34:10.813834  6457 net.cpp:453] fc7 <- fc6
I0811 19:34:10.813840  6457 net.cpp:409] fc7 -> fc7
I0811 19:34:10.813848  6457 net.cpp:131] Setting up fc7
I0811 19:34:10.907726  6457 net.cpp:140] Top shape: 5 4096 (20480)
I0811 19:34:10.907753  6457 layer_factory.hpp:75] Creating layer relu7
I0811 19:34:10.907765  6457 net.cpp:99] Creating Layer relu7
I0811 19:34:10.907773  6457 net.cpp:453] relu7 <- fc7
I0811 19:34:10.907780  6457 net.cpp:396] relu7 -> fc7 (in-place)
I0811 19:34:10.907788  6457 net.cpp:131] Setting up relu7
I0811 19:34:10.907865  6457 net.cpp:140] Top shape: 5 4096 (20480)
I0811 19:34:10.907878  6457 layer_factory.hpp:75] Creating layer drop7
I0811 19:34:10.907887  6457 net.cpp:99] Creating Layer drop7
I0811 19:34:10.907894  6457 net.cpp:453] drop7 <- fc7
I0811 19:34:10.907901  6457 net.cpp:396] drop7 -> fc7 (in-place)
I0811 19:34:10.907907  6457 net.cpp:131] Setting up drop7
I0811 19:34:10.907914  6457 net.cpp:140] Top shape: 5 4096 (20480)
I0811 19:34:10.907919  6457 layer_factory.hpp:75] Creating layer fc8-1
I0811 19:34:10.907928  6457 net.cpp:99] Creating Layer fc8-1
I0811 19:34:10.907933  6457 net.cpp:453] fc8-1 <- fc7
I0811 19:34:10.907939  6457 net.cpp:409] fc8-1 -> fc8-1
I0811 19:34:10.907948  6457 net.cpp:131] Setting up fc8-1
I0811 19:34:10.917306  6457 net.cpp:140] Top shape: 5 101 (505)
I0811 19:34:10.917332  6457 layer_factory.hpp:75] Creating layer fc8-1_fc8-1_0_split
I0811 19:34:10.917362  6457 net.cpp:99] Creating Layer fc8-1_fc8-1_0_split
I0811 19:34:10.917369  6457 net.cpp:453] fc8-1_fc8-1_0_split <- fc8-1
I0811 19:34:10.917377  6457 net.cpp:409] fc8-1_fc8-1_0_split -> fc8-1_fc8-1_0_split_0
I0811 19:34:10.917387  6457 net.cpp:409] fc8-1_fc8-1_0_split -> fc8-1_fc8-1_0_split_1
I0811 19:34:10.917394  6457 net.cpp:131] Setting up fc8-1_fc8-1_0_split
I0811 19:34:10.917402  6457 net.cpp:140] Top shape: 5 101 (505)
I0811 19:34:10.917407  6457 net.cpp:140] Top shape: 5 101 (505)
I0811 19:34:10.917413  6457 layer_factory.hpp:75] Creating layer loss
I0811 19:34:10.917421  6457 net.cpp:99] Creating Layer loss
I0811 19:34:10.917428  6457 net.cpp:453] loss <- fc8-1_fc8-1_0_split_0
I0811 19:34:10.917434  6457 net.cpp:453] loss <- label_local_data_1_split_0
I0811 19:34:10.917441  6457 net.cpp:409] loss -> loss
I0811 19:34:10.917448  6457 net.cpp:131] Setting up loss
I0811 19:34:10.917455  6457 layer_factory.hpp:75] Creating layer loss
…
