…
    mean_value: 128
    mean_value: 128
    mean_value: 128
    mean_value: 128
    mean_value: 128
    mean_value: 128
    mean_value: 128
    mean_value: 128
    mean_value: 128
    mean_value: 128
    mean_value: 128
    mean_value: 128
    fix_crop: true
    multi_scale: true
    scale_ratios: 1
    scale_ratios: 0.875
    scale_ratios: 0.75
    max_distort: 1
    is_flow: true
  }
  video_data_param {
    source: "/home/jiri/Lake/HAR/datasets/UCF-101/train-2-rnd.txt"
    batch_size: 64
    new_length: 10
    num_segments: 1
    modality: FLOW
  }
}
layer {
  name: "conv1_1"
  type: "Convolution"
  bottom: "data"
  top: "conv1_1"
  param {
    lr_mult: 1
    decay_mult: 1
  }
  param {
    lr_mult: 2
    decay_mult: 0
  }
  convolution_param {
    num_output: 64
    pad: 1
    kernel_size: 3
    weight_filler {
      type: "xavier"
    }
  }
}
layer {
  name: "relu1_1"
  type: "ReLU"
  bottom: "conv1_1"
  top: "conv1_1"
}
layer {
  name: "conv1_2"
  type: "Convolution"
  bottom: "conv1_1"
  top: "conv1_2"
  param {
    lr_mult: 1
    decay_mult: 1
  }
  param {
    lr_mult: 2
    decay_mult: 0
  }
  convolution_param {
    num_output: 64
    pad: 1
    kernel_size: 3
    weight_filler {
      type: "xavier"
    }
  }
}
layer {
  name: "relu1_2"
  type: "ReLU"
  bottom: "conv1_2"
  top: "conv1_2"
}
layer {
  name: "pool1"
  type: "Pooling"
  bottom: "conv1_2"
  top: "pool1"
  pooling_param {
    pool: MAX
    kernel_size: 2
    stride: 2
  }
}
layer {
  name: "conv2_1"
  type: "Convolution"
  bottom: "pool1"
  top: "conv2_1"
  param {
    lr_mult: 1
    decay_mult: 1
  }
  param {
    lr_mult: 2
    decay_mult: 0
  }
  convolution_param {
    num_output: 128
    pad: 1
    kernel_size: 3
    weight_filler {
      type: "xavier"
    }
  }
}
layer {
  name: "relu2_1"
  type: "ReLU"
  bottom: "conv2_1"
  top: "conv2_1"
}
layer {
  name: "conv2_2"
  type: "Convolution"
  bottom: "conv2_1"
  top: "conv2_2"
  param {
    lr_mult: 1
    decay_mult: 1
  }
  param {
    lr_mult: 2
    decay_mult: 0
  }
  convolution_param {
    num_output: 128
    pad: 1
    kernel_size: 3
    weight_filler {
      type: "xavier"
    }
  }
}
layer {
  name: "relu2_2"
  type: "ReLU"
  bottom: "conv2_2"
  top: "conv2_2"
}
layer {
  name: "pool2"
  type: "Pooling"
  bottom: "conv2_2"
  top: "pool2"
  pooling_param {
    pool: MAX
    kernel_size: 2
    stride: 2
  }
}
layer {
  name: "conv3_1"
  type: "Convolution"
  bottom: "pool2"
  top: "conv3_1"
  param {
    lr_mult: 1
    decay_mult: 1
  }
  param {
    lr_mult: 2
    decay_mult: 0
  }
  convolution_param {
    num_output: 256
    pad: 1
    kernel_size: 3
    weight_filler {
      type: "xavier"
    }
  }
}
layer {
  name: "relu3_1"
  type: "ReLU"
  bottom: "conv3_1"
  top: "conv3_1"
}
layer {
  name: "conv3_2"
  type: "Convolution"
  bottom: "conv3_1"
  top: "conv3_2"
  param {
    lr_mult: 1
    decay_mult: 1
  }
  param {
    lr_mult: 2
    decay_mult: 0
  }
  convolution_param {
    num_output: 256
    pad: 1
    kernel_size: 3
    weight_filler {
      type: "xavier"
    }
  }
}
layer {
  name: "relu3_2"
  type: "ReLU"
  bottom: "conv3_2"
  top: "conv3_2"
}
layer {
  name: "conv3_3"
  type: "Convolution"
  bottom: "conv3_2"
  top: "conv3_3"
  param {
    lr_mult: 1
    decay_mult: 1
  }
  param {
    lr_mult: 2
    decay_mult: 0
  }
  convolution_param {
    num_output: 256
    pad: 1
    kernel_size: 3
    weight_filler {
      type: "xavier"
    }
  }
}
layer {
  name: "relu3_3"
  type: "ReLU"
  bottom: "conv3_3"
  top: "conv3_3"
}
layer {
  name: "pool3"
  type: "Pooling"
  bottom: "conv3_3"
  top: "pool3"
  pooling_param {
    pool: MAX
    kernel_size: 2
    stride: 2
  }
}
layer {
  name: "conv4_1"
  type: "Convolution"
  bottom: "pool3"
  top: "conv4_1"
  param {
    lr_mult: 1
    decay_mult: 1
  }
  param {
    lr_mult: 2
    decay_mult: 0
  }
  convolution_param {
    num_output: 512
    pad: 1
    kernel_size: 3
    weight_filler {
      type: "xavier"
    }
  }
}
layer {
  name: "relu4_1"
  type: "ReLU"
  bottom: "conv4_1"
  top: "conv4_1"
}
layer {
  name: "conv4_2"
  type: "Convolution"
  bottom: "conv4_1"
  top: "conv4_2"
  param {
    lr_mult: 1
    decay_mult: 1
  }
  param {
    lr_mult: 2
    decay_mult: 0
  }
  convolution_param {
    num_output: 512
    pad: 1
    kernel_size: 3
    weight_filler {
      type: "xavier"
    }
  }
}
layer {
  name: "relu4_2"
  type: "ReLU"
  bottom: "conv4_2"
  top: "conv4_2"
}
layer {
  name: "conv4_3"
  type: "Convolution"
  bottom: "conv4_2"
  top: "conv4_3"
  param {
    lr_mult: 1
    decay_mult: 1
  }
  param {
    lr_mult: 2
    decay_mult: 0
  }
  convolution_param {
    num_output: 512
    pad: 1
    kernel_size: 3
    weight_filler {
      type: "xavier"
    }
  }
}
layer {
  name: "relu4_3"
  type: "ReLU"
  bottom: "conv4_3"
  top: "conv4_3"
}
layer {
  name: "pool4"
  type: "Pooling"
  bottom: "conv4_3"
  top: "pool4"
  pooling_param {
    pool: MAX
    kernel_size: 2
    stride: 2
  }
}
layer {
  name: "conv5_1"
  type: "Convolution"
  bottom: "pool4"
  top: "conv5_1"
  param {
    lr_mult: 1
    decay_mult: 1
  }
  param {
    lr_mult: 2
    decay_mult: 0
  }
  convolution_param {
    num_output: 512
    pad: 1
    kernel_size: 3
    weight_filler {
      type: "xavier"
    }
  }
}
layer {
  name: "relu5_1"
  type: "ReLU"
  bottom: "conv5_1"
  top: "conv5_1"
}
layer {
  name: "conv5_2"
  type: "Convolution"
  bottom: "conv5_1"
  top: "conv5_2"
  param {
    lr_mult: 1
    decay_mult: 1
  }
  param {
    lr_mult: 2
    decay_mult: 0
  }
  convolution_param {
    num_output: 512
    pad: 1
    kernel_size: 3
    weight_filler {
      type: "xavier"
    }
  }
}
layer {
  name: "relu5_2"
  type: "ReLU"
  bottom: "conv5_2"
  top: "conv5_2"
}
layer {
  name: "conv5_3"
  type: "Convolution"
  bottom: "conv5_2"
  top: "conv5_3"
  param {
    lr_mult: 1
    decay_mult: 1
  }
  param {
    lr_mult: 2
    decay_mult: 0
  }
  convolution_param {
    num_output: 512
    pad: 1
    kernel_size: 3
    weight_filler {
      type: "xavier"
    }
  }
}
layer {
  name: "relu5_3"
  type: "ReLU"
  bottom: "conv5_3"
  top: "conv5_3"
}
layer {
  name: "pool5"
  type: "Pooling"
  bottom: "conv5_3"
  top: "pool5"
  pooling_param {
    pool: MAX
    kernel_size: 2
    stride: 2
  }
}
layer {
  name: "fc6"
  type: "InnerProduct"
  bottom: "pool5"
  top: "fc6"
  param {
    lr_mult: 1
    decay_mult: 1
  }
  param {
    lr_mult: 2
    decay_mult: 0
  }
  inner_product_param {
    num_output: 4096
    weight_filler {
      type: "xavier"
    }
  }
}
layer {
  name: "relu6"
  type: "ReLU"
  bottom: "fc6"
  top: "fc6"
}
layer {
  name: "drop6"
  type: "Dropout"
  bottom: "fc6"
  top: "fc6"
  dropout_param {
    dropout_ratio: 0.9
  }
}
layer {
  name: "fc7"
  type: "InnerProduct"
  bottom: "fc6"
  top: "fc7"
  param {
    lr_mult: 1
    decay_mult: 1
  }
  param {
    lr_mult: 2
    decay_mult: 0
  }
  inner_product_param {
    num_output: 4096
    weight_filler {
      type: "xavier"
    }
  }
}
layer {
  name: "relu7"
  type: "ReLU"
  bottom: "fc7"
  top: "fc7"
}
layer {
  name: "drop7"
  type: "Dropout"
  bottom: "fc7"
  top: "fc7"
  dropout_param {
    dropout_ratio: 0.8
  }
}
layer {
  name: "fc8-1"
  type: "InnerProduct"
  bottom: "fc7"
  top: "fc8-1"
  param {
    lr_mult: 1
    decay_mult: 1
  }
  param {
    lr_mult: 2
    decay_mult: 0
  }
  inner_product_param {
    num_output: 101
    weight_filler {
      type: "gaussian"
      std: 0.001
    }
    bias_filler {
      type: "constant"
      value: 0
    }
  }
}
layer {
  name: "loss"
  type: "SoftmaxWithLoss"
  bottom: "fc8-1"
  bottom: "label_local"
  include {
    phase: TRAIN
  }
}
I0809 19:58:39.369163 30731 layer_factory.hpp:75] Creating layer data
I0809 19:58:39.369225 30731 net.cpp:99] Creating Layer data
I0809 19:58:39.369240 30731 net.cpp:409] data -> data
I0809 19:58:39.369273 30731 net.cpp:409] data -> label_local
I0809 19:58:39.369292 30731 net.cpp:131] Setting up data
I0809 19:58:39.369302 30731 video_data_layer.cpp:34] Opening file: /home/jiri/Lake/HAR/datasets/UCF-101/train-2-rnd.txt
I0809 19:58:39.377761 30731 video_data_layer.cpp:50] A total of 9537 videos.
I0809 19:58:39.395493 30731 video_data_layer.cpp:85] output data size: 64,20,224,224
I0809 19:58:39.783082 30731 net.cpp:140] Top shape: 64 20 224 224 (64225280)
I0809 19:58:39.783123 30731 net.cpp:140] Top shape: 64 1 1 1 (64)
I0809 19:58:39.783141 30731 layer_factory.hpp:75] Creating layer conv1_1
I0809 19:58:39.783169 30731 net.cpp:99] Creating Layer conv1_1
I0809 19:58:39.783185 30731 net.cpp:453] conv1_1 <- data
I0809 19:58:39.783207 30731 net.cpp:409] conv1_1 -> conv1_1
I0809 19:58:39.783231 30731 net.cpp:131] Setting up conv1_1
I0809 19:58:39.849464 30731 net.cpp:140] Top shape: 64 64 224 224 (205520896)
I0809 19:58:39.849515 30731 layer_factory.hpp:75] Creating layer relu1_1
I0809 19:58:39.849537 30731 net.cpp:99] Creating Layer relu1_1
I0809 19:58:39.849547 30731 net.cpp:453] relu1_1 <- conv1_1
I0809 19:58:39.849561 30731 net.cpp:396] relu1_1 -> conv1_1 (in-place)
I0809 19:58:39.849575 30731 net.cpp:131] Setting up relu1_1
I0809 19:58:39.849663 30731 net.cpp:140] Top shape: 64 64 224 224 (205520896)
I0809 19:58:39.849678 30731 layer_factory.hpp:75] Creating layer conv1_2
I0809 19:58:39.849694 30731 net.cpp:99] Creating Layer conv1_2
I0809 19:58:39.849704 30731 net.cpp:453] conv1_2 <- conv1_1
I0809 19:58:39.849715 30731 net.cpp:409] conv1_2 -> conv1_2
I0809 19:58:39.849728 30731 net.cpp:131] Setting up conv1_2
I0809 19:58:39.850371 30731 net.cpp:140] Top shape: 64 64 224 224 (205520896)
I0809 19:58:39.850399 30731 layer_factory.hpp:75] Creating layer relu1_2
I0809 19:58:39.850414 30731 net.cpp:99] Creating Layer relu1_2
I0809 19:58:39.850424 30731 net.cpp:453] relu1_2 <- conv1_2
I0809 19:58:39.850433 30731 net.cpp:396] relu1_2 -> conv1_2 (in-place)
I0809 19:58:39.850445 30731 net.cpp:131] Setting up relu1_2
I0809 19:58:39.850646 30731 net.cpp:140] Top shape: 64 64 224 224 (205520896)
I0809 19:58:39.850661 30731 layer_factory.hpp:75] Creating layer pool1
I0809 19:58:39.850677 30731 net.cpp:99] Creating Layer pool1
I0809 19:58:39.850685 30731 net.cpp:453] pool1 <- conv1_2
I0809 19:58:39.850695 30731 net.cpp:409] pool1 -> pool1
I0809 19:58:39.850708 30731 net.cpp:131] Setting up pool1
I0809 19:58:39.850790 30731 net.cpp:140] Top shape: 64 64 112 112 (51380224)
I0809 19:58:39.850802 30731 layer_factory.hpp:75] Creating layer conv2_1
I0809 19:58:39.850816 30731 net.cpp:99] Creating Layer conv2_1
I0809 19:58:39.850826 30731 net.cpp:453] conv2_1 <- pool1
I0809 19:58:39.850836 30731 net.cpp:409] conv2_1 -> conv2_1
I0809 19:58:39.850847 30731 net.cpp:131] Setting up conv2_1
I0809 19:58:39.852162 30731 net.cpp:140] Top shape: 64 128 112 112 (102760448)
I0809 19:58:39.852188 30731 layer_factory.hpp:75] Creating layer relu2_1
I0809 19:58:39.852201 30731 net.cpp:99] Creating Layer relu2_1
I0809 19:58:39.852236 30731 net.cpp:453] relu2_1 <- conv2_1
I0809 19:58:39.852247 30731 net.cpp:396] relu2_1 -> conv2_1 (in-place)
I0809 19:58:39.852258 30731 net.cpp:131] Setting up relu2_1
I0809 19:58:39.852330 30731 net.cpp:140] Top shape: 64 128 112 112 (102760448)
I0809 19:58:39.852342 30731 layer_factory.hpp:75] Creating layer conv2_2
I0809 19:58:39.852355 30731 net.cpp:99] Creating Layer conv2_2
I0809 19:58:39.852363 30731 net.cpp:453] conv2_2 <- conv2_1
I0809 19:58:39.852373 30731 net.cpp:409] conv2_2 -> conv2_2
I0809 19:58:39.852385 30731 net.cpp:131] Setting up conv2_2
I0809 19:58:39.853667 30731 net.cpp:140] Top shape: 64 128 112 112 (102760448)
I0809 19:58:39.853691 30731 layer_factory.hpp:75] Creating layer relu2_2
I0809 19:58:39.853704 30731 net.cpp:99] Creating Layer relu2_2
I0809 19:58:39.853713 30731 net.cpp:453] relu2_2 <- conv2_2
I0809 19:58:39.853724 30731 net.cpp:396] relu2_2 -> conv2_2 (in-place)
I0809 19:58:39.853734 30731 net.cpp:131] Setting up relu2_2
I0809 19:58:39.853801 30731 net.cpp:140] Top shape: 64 128 112 112 (102760448)
I0809 19:58:39.853811 30731 layer_factory.hpp:75] Creating layer pool2
I0809 19:58:39.853821 30731 net.cpp:99] Creating Layer pool2
I0809 19:58:39.853829 30731 net.cpp:453] pool2 <- conv2_2
I0809 19:58:39.853848 30731 net.cpp:409] pool2 -> pool2
I0809 19:58:39.853860 30731 net.cpp:131] Setting up pool2
I0809 19:58:39.854069 30731 net.cpp:140] Top shape: 64 128 56 56 (25690112)
I0809 19:58:39.854084 30731 layer_factory.hpp:75] Creating layer conv3_1
I0809 19:58:39.854097 30731 net.cpp:99] Creating Layer conv3_1
I0809 19:58:39.854105 30731 net.cpp:453] conv3_1 <- pool2
I0809 19:58:39.854115 30731 net.cpp:409] conv3_1 -> conv3_1
I0809 19:58:39.854128 30731 net.cpp:131] Setting up conv3_1
I0809 19:58:39.857482 30731 net.cpp:140] Top shape: 64 256 56 56 (51380224)
I0809 19:58:39.857512 30731 layer_factory.hpp:75] Creating layer relu3_1
I0809 19:58:39.857527 30731 net.cpp:99] Creating Layer relu3_1
I0809 19:58:39.857537 30731 net.cpp:453] relu3_1 <- conv3_1
I0809 19:58:39.857548 30731 net.cpp:396] relu3_1 -> conv3_1 (in-place)
I0809 19:58:39.857563 30731 net.cpp:131] Setting up relu3_1
I0809 19:58:39.857640 30731 net.cpp:140] Top shape: 64 256 56 56 (51380224)
I0809 19:58:39.857655 30731 layer_factory.hpp:75] Creating layer conv3_2
I0809 19:58:39.857667 30731 net.cpp:99] Creating Layer conv3_2
I0809 19:58:39.857676 30731 net.cpp:453] conv3_2 <- conv3_1
I0809 19:58:39.857686 30731 net.cpp:409] conv3_2 -> conv3_2
I0809 19:58:39.857698 30731 net.cpp:131] Setting up conv3_2
I0809 19:58:39.862969 30731 net.cpp:140] Top shape: 64 256 56 56 (51380224)
I0809 19:58:39.862996 30731 layer_factory.hpp:75] Creating layer relu3_2
I0809 19:58:39.863010 30731 net.cpp:99] Creating Layer relu3_2
I0809 19:58:39.863019 30731 net.cpp:453] relu3_2 <- conv3_2
I0809 19:58:39.863029 30731 net.cpp:396] relu3_2 -> conv3_2 (in-place)
I0809 19:58:39.863040 30731 net.cpp:131] Setting up relu3_2
I0809 19:58:39.863113 30731 net.cpp:140] Top shape: 64 256 56 56 (51380224)
I0809 19:58:39.863124 30731 layer_factory.hpp:75] Creating layer conv3_3
I0809 19:58:39.863137 30731 net.cpp:99] Creating Layer conv3_3
I0809 19:58:39.863144 30731 net.cpp:453] conv3_3 <- conv3_2
I0809 19:58:39.863154 30731 net.cpp:409] conv3_3 -> conv3_3
I0809 19:58:39.863167 30731 net.cpp:131] Setting up conv3_3
I0809 19:58:39.868669 30731 net.cpp:140] Top shape: 64 256 56 56 (51380224)
I0809 19:58:39.868702 30731 layer_factory.hpp:75] Creating layer relu3_3
I0809 19:58:39.868721 30731 net.cpp:99] Creating Layer relu3_3
I0809 19:58:39.868731 30731 net.cpp:453] relu3_3 <- conv3_3
I0809 19:58:39.868742 30731 net.cpp:396] relu3_3 -> conv3_3 (in-place)
I0809 19:58:39.868755 30731 net.cpp:131] Setting up relu3_3
I0809 19:58:39.868957 30731 net.cpp:140] Top shape: 64 256 56 56 (51380224)
I0809 19:58:39.868975 30731 layer_factory.hpp:75] Creating layer pool3
I0809 19:58:39.868990 30731 net.cpp:99] Creating Layer pool3
I0809 19:58:39.868999 30731 net.cpp:453] pool3 <- conv3_3
I0809 19:58:39.869011 30731 net.cpp:409] pool3 -> pool3
I0809 19:58:39.869045 30731 net.cpp:131] Setting up pool3
I0809 19:58:39.869124 30731 net.cpp:140] Top shape: 64 256 28 28 (12845056)
I0809 19:58:39.869137 30731 layer_factory.hpp:75] Creating layer conv4_1
I0809 19:58:39.869150 30731 net.cpp:99] Creating Layer conv4_1
I0809 19:58:39.869158 30731 net.cpp:453] conv4_1 <- pool3
I0809 19:58:39.869170 30731 net.cpp:409] conv4_1 -> conv4_1
I0809 19:58:39.869182 30731 net.cpp:131] Setting up conv4_1
I0809 19:58:39.879040 30731 net.cpp:140] Top shape: 64 512 28 28 (25690112)
I0809 19:58:39.879065 30731 layer_factory.hpp:75] Creating layer relu4_1
I0809 19:58:39.879075 30731 net.cpp:99] Creating Layer relu4_1
I0809 19:58:39.879081 30731 net.cpp:453] relu4_1 <- conv4_1
I0809 19:58:39.879088 30731 net.cpp:396] relu4_1 -> conv4_1 (in-place)
I0809 19:58:39.879096 30731 net.cpp:131] Setting up relu4_1
I0809 19:58:39.879168 30731 net.cpp:140] Top shape: 64 512 28 28 (25690112)
I0809 19:58:39.879185 30731 layer_factory.hpp:75] Creating layer conv4_2
I0809 19:58:39.879199 30731 net.cpp:99] Creating Layer conv4_2
I0809 19:58:39.879209 30731 net.cpp:453] conv4_2 <- conv4_1
I0809 19:58:39.879220 30731 net.cpp:409] conv4_2 -> conv4_2
I0809 19:58:39.879233 30731 net.cpp:131] Setting up conv4_2
I0809 19:58:39.899019 30731 net.cpp:140] Top shape: 64 512 28 28 (25690112)
I0809 19:58:39.899068 30731 layer_factory.hpp:75] Creating layer relu4_2
I0809 19:58:39.899086 30731 net.cpp:99] Creating Layer relu4_2
I0809 19:58:39.899097 30731 net.cpp:453] relu4_2 <- conv4_2
I0809 19:58:39.899111 30731 net.cpp:396] relu4_2 -> conv4_2 (in-place)
I0809 19:58:39.899123 30731 net.cpp:131] Setting up relu4_2
I0809 19:58:39.899199 30731 net.cpp:140] Top shape: 64 512 28 28 (25690112)
I0809 19:58:39.899214 30731 layer_factory.hpp:75] Creating layer conv4_3
I0809 19:58:39.899227 30731 net.cpp:99] Creating Layer conv4_3
I0809 19:58:39.899240 30731 net.cpp:453] conv4_3 <- conv4_2
I0809 19:58:39.899251 30731 net.cpp:409] conv4_3 -> conv4_3
I0809 19:58:39.899266 30731 net.cpp:131] Setting up conv4_3
I0809 19:58:39.920243 30731 net.cpp:140] Top shape: 64 512 28 28 (25690112)
I0809 19:58:39.920286 30731 layer_factory.hpp:75] Creating layer relu4_3
I0809 19:58:39.920305 30731 net.cpp:99] Creating Layer relu4_3
I0809 19:58:39.920315 30731 net.cpp:453] relu4_3 <- conv4_3
I0809 19:58:39.920328 30731 net.cpp:396] relu4_3 -> conv4_3 (in-place)
I0809 19:58:39.920341 30731 net.cpp:131] Setting up relu4_3
I0809 19:58:39.920552 30731 net.cpp:140] Top shape: 64 512 28 28 (25690112)
I0809 19:58:39.920570 30731 layer_factory.hpp:75] Creating layer pool4
I0809 19:58:39.920585 30731 net.cpp:99] Creating Layer pool4
I0809 19:58:39.920593 30731 net.cpp:453] pool4 <- conv4_3
I0809 19:58:39.920605 30731 net.cpp:409] pool4 -> pool4
I0809 19:58:39.920617 30731 net.cpp:131] Setting up pool4
I0809 19:58:39.920691 30731 net.cpp:140] Top shape: 64 512 14 14 (6422528)
I0809 19:58:39.920706 30731 layer_factory.hpp:75] Creating layer conv5_1
I0809 19:58:39.920721 30731 net.cpp:99] Creating Layer conv5_1
I0809 19:58:39.920732 30731 net.cpp:453] conv5_1 <- pool4
I0809 19:58:39.920742 30731 net.cpp:409] conv5_1 -> conv5_1
I0809 19:58:39.920758 30731 net.cpp:131] Setting up conv5_1
I0809 19:58:39.940781 30731 net.cpp:140] Top shape: 64 512 14 14 (6422528)
I0809 19:58:39.940824 30731 layer_factory.hpp:75] Creating layer relu5_1
I0809 19:58:39.940841 30731 net.cpp:99] Creating Layer relu5_1
I0809 19:58:39.940851 30731 net.cpp:453] relu5_1 <- conv5_1
I0809 19:58:39.940865 30731 net.cpp:396] relu5_1 -> conv5_1 (in-place)
I0809 19:58:39.940876 30731 net.cpp:131] Setting up relu5_1
I0809 19:58:39.940945 30731 net.cpp:140] Top shape: 64 512 14 14 (6422528)
I0809 19:58:39.940961 30731 layer_factory.hpp:75] Creating layer conv5_2
I0809 19:58:39.940979 30731 net.cpp:99] Creating Layer conv5_2
I0809 19:58:39.940991 30731 net.cpp:453] conv5_2 <- conv5_1
I0809 19:58:39.941006 30731 net.cpp:409] conv5_2 -> conv5_2
I0809 19:58:39.941022 30731 net.cpp:131] Setting up conv5_2
I0809 19:58:39.960835 30731 net.cpp:140] Top shape: 64 512 14 14 (6422528)
I0809 19:58:39.960877 30731 layer_factory.hpp:75] Creating layer relu5_2
I0809 19:58:39.960924 30731 net.cpp:99] Creating Layer relu5_2
I0809 19:58:39.960942 30731 net.cpp:453] relu5_2 <- conv5_2
I0809 19:58:39.960958 30731 net.cpp:396] relu5_2 -> conv5_2 (in-place)
I0809 19:58:39.960973 30731 net.cpp:131] Setting up relu5_2
I0809 19:58:39.961055 30731 net.cpp:140] Top shape: 64 512 14 14 (6422528)
I0809 19:58:39.961069 30731 layer_factory.hpp:75] Creating layer conv5_3
I0809 19:58:39.961084 30731 net.cpp:99] Creating Layer conv5_3
I0809 19:58:39.961093 30731 net.cpp:453] conv5_3 <- conv5_2
I0809 19:58:39.961105 30731 net.cpp:409] conv5_3 -> conv5_3
I0809 19:58:39.961120 30731 net.cpp:131] Setting up conv5_3
I0809 19:58:39.980533 30731 net.cpp:140] Top shape: 64 512 14 14 (6422528)
I0809 19:58:39.980574 30731 layer_factory.hpp:75] Creating layer relu5_3
I0809 19:58:39.980592 30731 net.cpp:99] Creating Layer relu5_3
I0809 19:58:39.980602 30731 net.cpp:453] relu5_3 <- conv5_3
I0809 19:58:39.980613 30731 net.cpp:396] relu5_3 -> conv5_3 (in-place)
I0809 19:58:39.980625 30731 net.cpp:131] Setting up relu5_3
I0809 19:58:39.980826 30731 net.cpp:140] Top shape: 64 512 14 14 (6422528)
I0809 19:58:39.980840 30731 layer_factory.hpp:75] Creating layer pool5
I0809 19:58:39.980851 30731 net.cpp:99] Creating Layer pool5
I0809 19:58:39.980857 30731 net.cpp:453] pool5 <- conv5_3
I0809 19:58:39.980865 30731 net.cpp:409] pool5 -> pool5
I0809 19:58:39.980873 30731 net.cpp:131] Setting up pool5
I0809 19:58:39.980950 30731 net.cpp:140] Top shape: 64 512 7 7 (1605632)
I0809 19:58:39.980967 30731 layer_factory.hpp:75] Creating layer fc6
I0809 19:58:39.980986 30731 net.cpp:99] Creating Layer fc6
I0809 19:58:39.980996 30731 net.cpp:453] fc6 <- pool5
I0809 19:58:39.981009 30731 net.cpp:409] fc6 -> fc6
I0809 19:58:39.981024 30731 net.cpp:131] Setting up fc6
I0809 19:58:40.780040 30731 net.cpp:140] Top shape: 64 4096 (262144)
I0809 19:58:40.780078 30731 layer_factory.hpp:75] Creating layer relu6
I0809 19:58:40.780094 30731 net.cpp:99] Creating Layer relu6
I0809 19:58:40.780104 30731 net.cpp:453] relu6 <- fc6
I0809 19:58:40.780115 30731 net.cpp:396] relu6 -> fc6 (in-place)
I0809 19:58:40.780128 30731 net.cpp:131] Setting up relu6
I0809 19:58:40.780220 30731 net.cpp:140] Top shape: 64 4096 (262144)
I0809 19:58:40.780232 30731 layer_factory.hpp:75] Creating layer drop6
I0809 19:58:40.780243 30731 net.cpp:99] Creating Layer drop6
I0809 19:58:40.780251 30731 net.cpp:453] drop6 <- fc6
I0809 19:58:40.780261 30731 net.cpp:396] drop6 -> fc6 (in-place)
I0809 19:58:40.780272 30731 net.cpp:131] Setting up drop6
I0809 19:58:40.780284 30731 net.cpp:140] Top shape: 64 4096 (262144)
I0809 19:58:40.780294 30731 layer_factory.hpp:75] Creating layer fc7
I0809 19:58:40.780305 30731 net.cpp:99] Creating Layer fc7
I0809 19:58:40.780313 30731 net.cpp:453] fc7 <- fc6
I0809 19:58:40.780323 30731 net.cpp:409] fc7 -> fc7
I0809 19:58:40.780334 30731 net.cpp:131] Setting up fc7
I0809 19:58:40.906448 30731 net.cpp:140] Top shape: 64 4096 (262144)
I0809 19:58:40.906487 30731 layer_factory.hpp:75] Creating layer relu7
I0809 19:58:40.906503 30731 net.cpp:99] Creating Layer relu7
I0809 19:58:40.906514 30731 net.cpp:453] relu7 <- fc7
I0809 19:58:40.906527 30731 net.cpp:396] relu7 -> fc7 (in-place)
I0809 19:58:40.906539 30731 net.cpp:131] Setting up relu7
I0809 19:58:40.906640 30731 net.cpp:140] Top shape: 64 4096 (262144)
I0809 19:58:40.906652 30731 layer_factory.hpp:75] Creating layer drop7
I0809 19:58:40.906663 30731 net.cpp:99] Creating Layer drop7
I0809 19:58:40.906672 30731 net.cpp:453] drop7 <- fc7
I0809 19:58:40.906680 30731 net.cpp:396] drop7 -> fc7 (in-place)
I0809 19:58:40.906690 30731 net.cpp:131] Setting up drop7
I0809 19:58:40.906702 30731 net.cpp:140] Top shape: 64 4096 (262144)
I0809 19:58:40.906710 30731 layer_factory.hpp:75] Creating layer fc8-1
I0809 19:58:40.906723 30731 net.cpp:99] Creating Layer fc8-1
I0809 19:58:40.906731 30731 net.cpp:453] fc8-1 <- fc7
I0809 19:58:40.906740 30731 net.cpp:409] fc8-1 -> fc8-1
I0809 19:58:40.906751 30731 net.cpp:131] Setting up fc8-1
I0809 19:58:40.920893 30731 net.cpp:140] Top shape: 64 101 (6464)
I0809 19:58:40.920943 30731 layer_factory.hpp:75] Creating layer loss
I0809 19:58:40.920958 30731 net.cpp:99] Creating Layer loss
I0809 19:58:40.920969 30731 net.cpp:453] loss <- fc8-1
I0809 19:58:40.920979 30731 net.cpp:453] loss <- label_local
I0809 19:58:40.920992 30731 net.cpp:409] loss -> (automatic)
I0809 19:58:40.921005 30731 net.cpp:131] Setting up loss
I0809 19:58:40.921016 30731 layer_factory.hpp:75] Creating layer loss
…
    mean_value: 128
    mean_value: 128
    mean_value: 128
    mean_value: 128
    mean_value: 128
    mean_value: 128
    mean_value: 128
    mean_value: 128
    mean_value: 128
    mean_value: 128
    mean_value: 128
    mean_value: 128
    mean_value: 128
    mean_value: 128
    mean_value: 128
    mean_value: 128
    mean_value: 128
    mean_value: 128
    fix_crop: true
    is_flow: true
  }
  video_data_param {
    source: "/home/jiri/Lake/HAR/datasets/UCF-101/val-2-rnd.txt"
    batch_size: 5
    new_length: 10
    num_segments: 1
    modality: FLOW
  }
}
layer {
  name: "conv1_1"
  type: "Convolution"
  bottom: "data"
  top: "conv1_1"
  param {
    lr_mult: 1
    decay_mult: 1
  }
  param {
    lr_mult: 2
    decay_mult: 0
  }
  convolution_param {
    num_output: 64
    pad: 1
    kernel_size: 3
    weight_filler {
      type: "xavier"
    }
  }
}
layer {
  name: "relu1_1"
  type: "ReLU"
  bottom: "conv1_1"
  top: "conv1_1"
}
layer {
  name: "conv1_2"
  type: "Convolution"
  bottom: "conv1_1"
  top: "conv1_2"
  param {
    lr_mult: 1
    decay_mult: 1
  }
  param {
    lr_mult: 2
    decay_mult: 0
  }
  convolution_param {
    num_output: 64
    pad: 1
    kernel_size: 3
    weight_filler {
      type: "xavier"
    }
  }
}
layer {
  name: "relu1_2"
  type: "ReLU"
  bottom: "conv1_2"
  top: "conv1_2"
}
layer {
  name: "pool1"
  type: "Pooling"
  bottom: "conv1_2"
  top: "pool1"
  pooling_param {
    pool: MAX
    kernel_size: 2
    stride: 2
  }
}
layer {
  name: "conv2_1"
  type: "Convolution"
  bottom: "pool1"
  top: "conv2_1"
  param {
    lr_mult: 1
    decay_mult: 1
  }
  param {
    lr_mult: 2
    decay_mult: 0
  }
  convolution_param {
    num_output: 128
    pad: 1
    kernel_size: 3
    weight_filler {
      type: "xavier"
    }
  }
}
layer {
  name: "relu2_1"
  type: "ReLU"
  bottom: "conv2_1"
  top: "conv2_1"
}
layer {
  name: "conv2_2"
  type: "Convolution"
  bottom: "conv2_1"
  top: "conv2_2"
  param {
    lr_mult: 1
    decay_mult: 1
  }
  param {
    lr_mult: 2
    decay_mult: 0
  }
  convolution_param {
    num_output: 128
    pad: 1
    kernel_size: 3
    weight_filler {
      type: "xavier"
    }
  }
}
layer {
  name: "relu2_2"
  type: "ReLU"
  bottom: "conv2_2"
  top: "conv2_2"
}
layer {
  name: "pool2"
  type: "Pooling"
  bottom: "conv2_2"
  top: "pool2"
  pooling_param {
    pool: MAX
    kernel_size: 2
    stride: 2
  }
}
layer {
  name: "conv3_1"
  type: "Convolution"
  bottom: "pool2"
  top: "conv3_1"
  param {
    lr_mult: 1
    decay_mult: 1
  }
  param {
    lr_mult: 2
    decay_mult: 0
  }
  convolution_param {
    num_output: 256
    pad: 1
    kernel_size: 3
    weight_filler {
      type: "xavier"
    }
  }
}
layer {
  name: "relu3_1"
  type: "ReLU"
  bottom: "conv3_1"
  top: "conv3_1"
}
layer {
  name: "conv3_2"
  type: "Convolution"
  bottom: "conv3_1"
  top: "conv3_2"
  param {
    lr_mult: 1
    decay_mult: 1
  }
  param {
    lr_mult: 2
    decay_mult: 0
  }
  convolution_param {
    num_output: 256
    pad: 1
    kernel_size: 3
    weight_filler {
      type: "xavier"
    }
  }
}
layer {
  name: "relu3_2"
  type: "ReLU"
  bottom: "conv3_2"
  top: "conv3_2"
}
layer {
  name: "conv3_3"
  type: "Convolution"
  bottom: "conv3_2"
  top: "conv3_3"
  param {
    lr_mult: 1
    decay_mult: 1
  }
  param {
    lr_mult: 2
    decay_mult: 0
  }
  convolution_param {
    num_output: 256
    pad: 1
    kernel_size: 3
    weight_filler {
      type: "xavier"
    }
  }
}
layer {
  name: "relu3_3"
  type: "ReLU"
  bottom: "conv3_3"
  top: "conv3_3"
}
layer {
  name: "pool3"
  type: "Pooling"
  bottom: "conv3_3"
  top: "pool3"
  pooling_param {
    pool: MAX
    kernel_size: 2
    stride: 2
  }
}
layer {
  name: "conv4_1"
  type: "Convolution"
  bottom: "pool3"
  top: "conv4_1"
  param {
    lr_mult: 1
    decay_mult: 1
  }
  param {
    lr_mult: 2
    decay_mult: 0
  }
  convolution_param {
    num_output: 512
    pad: 1
    kernel_size: 3
    weight_filler {
      type: "xavier"
    }
  }
}
layer {
  name: "relu4_1"
  type: "ReLU"
  bottom: "conv4_1"
  top: "conv4_1"
}
layer {
  name: "conv4_2"
  type: "Convolution"
  bottom: "conv4_1"
  top: "conv4_2"
  param {
    lr_mult: 1
    decay_mult: 1
  }
  param {
    lr_mult: 2
    decay_mult: 0
  }
  convolution_param {
    num_output: 512
    pad: 1
    kernel_size: 3
    weight_filler {
      type: "xavier"
    }
  }
}
layer {
  name: "relu4_2"
  type: "ReLU"
  bottom: "conv4_2"
  top: "conv4_2"
}
layer {
  name: "conv4_3"
  type: "Convolution"
  bottom: "conv4_2"
  top: "conv4_3"
  param {
    lr_mult: 1
    decay_mult: 1
  }
  param {
    lr_mult: 2
    decay_mult: 0
  }
  convolution_param {
    num_output: 512
    pad: 1
    kernel_size: 3
    weight_filler {
      type: "xavier"
    }
  }
}
layer {
  name: "relu4_3"
  type: "ReLU"
  bottom: "conv4_3"
  top: "conv4_3"
}
layer {
  name: "pool4"
  type: "Pooling"
  bottom: "conv4_3"
  top: "pool4"
  pooling_param {
    pool: MAX
    kernel_size: 2
    stride: 2
  }
}
layer {
  name: "conv5_1"
  type: "Convolution"
  bottom: "pool4"
  top: "conv5_1"
  param {
    lr_mult: 1
    decay_mult: 1
  }
  param {
    lr_mult: 2
    decay_mult: 0
  }
  convolution_param {
    num_output: 512
    pad: 1
    kernel_size: 3
    weight_filler {
      type: "xavier"
    }
  }
}
layer {
  name: "relu5_1"
  type: "ReLU"
  bottom: "conv5_1"
  top: "conv5_1"
}
layer {
  name: "conv5_2"
  type: "Convolution"
  bottom: "conv5_1"
  top: "conv5_2"
  param {
    lr_mult: 1
    decay_mult: 1
  }
  param {
    lr_mult: 2
    decay_mult: 0
  }
  convolution_param {
    num_output: 512
    pad: 1
    kernel_size: 3
    weight_filler {
      type: "xavier"
    }
  }
}
layer {
  name: "relu5_2"
  type: "ReLU"
  bottom: "conv5_2"
  top: "conv5_2"
}
layer {
  name: "conv5_3"
  type: "Convolution"
  bottom: "conv5_2"
  top: "conv5_3"
  param {
    lr_mult: 1
    decay_mult: 1
  }
  param {
    lr_mult: 2
    decay_mult: 0
  }
  convolution_param {
    num_output: 512
    pad: 1
    kernel_size: 3
    weight_filler {
      type: "xavier"
    }
  }
}
layer {
  name: "relu5_3"
  type: "ReLU"
  bottom: "conv5_3"
  top: "conv5_3"
}
layer {
  name: "pool5"
  type: "Pooling"
  bottom: "conv5_3"
  top: "pool5"
  pooling_param {
    pool: MAX
    kernel_size: 2
    stride: 2
  }
}
layer {
  name: "fc6"
  type: "InnerProduct"
  bottom: "pool5"
  top: "fc6"
  param {
    lr_mult: 1
    decay_mult: 1
  }
  param {
    lr_mult: 2
    decay_mult: 0
  }
  inner_product_param {
    num_output: 4096
    weight_filler {
      type: "xavier"
    }
  }
}
layer {
  name: "relu6"
  type: "ReLU"
  bottom: "fc6"
  top: "fc6"
}
layer {
  name: "drop6"
  type: "Dropout"
  bottom: "fc6"
  top: "fc6"
  dropout_param {
    dropout_ratio: 0.9
  }
}
layer {
  name: "fc7"
  type: "InnerProduct"
  bottom: "fc6"
  top: "fc7"
  param {
    lr_mult: 1
    decay_mult: 1
  }
  param {
    lr_mult: 2
    decay_mult: 0
  }
  inner_product_param {
    num_output: 4096
    weight_filler {
      type: "xavier"
    }
  }
}
layer {
  name: "relu7"
  type: "ReLU"
  bottom: "fc7"
  top: "fc7"
}
layer {
  name: "drop7"
  type: "Dropout"
  bottom: "fc7"
  top: "fc7"
  dropout_param {
    dropout_ratio: 0.8
  }
}
layer {
  name: "fc8-1"
  type: "InnerProduct"
  bottom: "fc7"
  top: "fc8-1"
  param {
    lr_mult: 1
    decay_mult: 1
  }
  param {
    lr_mult: 2
    decay_mult: 0
  }
  inner_product_param {
    num_output: 101
    weight_filler {
      type: "gaussian"
      std: 0.001
    }
    bias_filler {
      type: "constant"
      value: 0
    }
  }
}
layer {
  name: "loss"
  type: "SoftmaxWithLoss"
  bottom: "fc8-1"
  bottom: "label_local"
  top: "loss"
  include {
    phase: TEST
  }
}
layer {
  name: "accuracy"
  type: "Accuracy"
  bottom: "fc8-1"
  bottom: "label_local"
  top: "accuracy"
  include {
    phase: TEST
  }
}
I0809 19:58:40.925110 30731 layer_factory.hpp:75] Creating layer data
I0809 19:58:40.925132 30731 net.cpp:99] Creating Layer data
I0809 19:58:40.925140 30731 net.cpp:409] data -> data
I0809 19:58:40.925149 30731 net.cpp:409] data -> label_local
I0809 19:58:40.925158 30731 net.cpp:131] Setting up data
I0809 19:58:40.925163 30731 video_data_layer.cpp:34] Opening file: /home/jiri/Lake/HAR/datasets/UCF-101/val-2-rnd.txt
I0809 19:58:40.927700 30731 video_data_layer.cpp:50] A total of 3783 videos.
I0809 19:58:40.942023 30731 video_data_layer.cpp:85] output data size: 5,20,224,224
I0809 19:58:40.968392 30731 net.cpp:140] Top shape: 5 20 224 224 (5017600)
I0809 19:58:40.968425 30731 net.cpp:140] Top shape: 5 1 1 1 (5)
I0809 19:58:40.968437 30731 layer_factory.hpp:75] Creating layer label_local_data_1_split
I0809 19:58:40.968454 30731 net.cpp:99] Creating Layer label_local_data_1_split
I0809 19:58:40.968463 30731 net.cpp:453] label_local_data_1_split <- label_local
I0809 19:58:40.968474 30731 net.cpp:409] label_local_data_1_split -> label_local_data_1_split_0
I0809 19:58:40.968488 30731 net.cpp:409] label_local_data_1_split -> label_local_data_1_split_1
I0809 19:58:40.968498 30731 net.cpp:131] Setting up label_local_data_1_split
I0809 19:58:40.968511 30731 net.cpp:140] Top shape: 5 1 1 1 (5)
I0809 19:58:40.968519 30731 net.cpp:140] Top shape: 5 1 1 1 (5)
I0809 19:58:40.968528 30731 layer_factory.hpp:75] Creating layer conv1_1
I0809 19:58:40.968541 30731 net.cpp:99] Creating Layer conv1_1
I0809 19:58:40.968549 30731 net.cpp:453] conv1_1 <- data
I0809 19:58:40.968559 30731 net.cpp:409] conv1_1 -> conv1_1
I0809 19:58:40.968571 30731 net.cpp:131] Setting up conv1_1
I0809 19:58:40.969247 30731 net.cpp:140] Top shape: 5 64 224 224 (16056320)
I0809 19:58:40.969269 30731 layer_factory.hpp:75] Creating layer relu1_1
I0809 19:58:40.969281 30731 net.cpp:99] Creating Layer relu1_1
I0809 19:58:40.969290 30731 net.cpp:453] relu1_1 <- conv1_1
I0809 19:58:40.969298 30731 net.cpp:396] relu1_1 -> conv1_1 (in-place)
I0809 19:58:40.969308 30731 net.cpp:131] Setting up relu1_1
I0809 19:58:40.969378 30731 net.cpp:140] Top shape: 5 64 224 224 (16056320)
I0809 19:58:40.969389 30731 layer_factory.hpp:75] Creating layer conv1_2
I0809 19:58:40.969400 30731 net.cpp:99] Creating Layer conv1_2
I0809 19:58:40.969408 30731 net.cpp:453] conv1_2 <- conv1_1
I0809 19:58:40.969419 30731 net.cpp:409] conv1_2 -> conv1_2
I0809 19:58:40.969429 30731 net.cpp:131] Setting up conv1_2
I0809 19:58:40.970608 30731 net.cpp:140] Top shape: 5 64 224 224 (16056320)
I0809 19:58:40.970631 30731 layer_factory.hpp:75] Creating layer relu1_2
I0809 19:58:40.970644 30731 net.cpp:99] Creating Layer relu1_2
I0809 19:58:40.970652 30731 net.cpp:453] relu1_2 <- conv1_2
I0809 19:58:40.970664 30731 net.cpp:396] relu1_2 -> conv1_2 (in-place)
I0809 19:58:40.970674 30731 net.cpp:131] Setting up relu1_2
I0809 19:58:40.972316 30731 net.cpp:140] Top shape: 5 64 224 224 (16056320)
I0809 19:58:40.972333 30731 layer_factory.hpp:75] Creating layer pool1
I0809 19:58:40.972347 30731 net.cpp:99] Creating Layer pool1
I0809 19:58:40.972355 30731 net.cpp:453] pool1 <- conv1_2
I0809 19:58:40.972367 30731 net.cpp:409] pool1 -> pool1
I0809 19:58:40.972379 30731 net.cpp:131] Setting up pool1
I0809 19:58:40.972595 30731 net.cpp:140] Top shape: 5 64 112 112 (4014080)
I0809 19:58:40.972609 30731 layer_factory.hpp:75] Creating layer conv2_1
I0809 19:58:40.972621 30731 net.cpp:99] Creating Layer conv2_1
I0809 19:58:40.972628 30731 net.cpp:453] conv2_1 <- pool1
I0809 19:58:40.972640 30731 net.cpp:409] conv2_1 -> conv2_1
I0809 19:58:40.972651 30731 net.cpp:131] Setting up conv2_1
I0809 19:58:40.973954 30731 net.cpp:140] Top shape: 5 128 112 112 (8028160)
I0809 19:58:40.973976 30731 layer_factory.hpp:75] Creating layer relu2_1
I0809 19:58:40.973990 30731 net.cpp:99] Creating Layer relu2_1
I0809 19:58:40.973999 30731 net.cpp:453] relu2_1 <- conv2_1
I0809 19:58:40.974025 30731 net.cpp:396] relu2_1 -> conv2_1 (in-place)
I0809 19:58:40.974036 30731 net.cpp:131] Setting up relu2_1
I0809 19:58:40.974104 30731 net.cpp:140] Top shape: 5 128 112 112 (8028160)
I0809 19:58:40.974114 30731 layer_factory.hpp:75] Creating layer conv2_2
I0809 19:58:40.974125 30731 net.cpp:99] Creating Layer conv2_2
I0809 19:58:40.974133 30731 net.cpp:453] conv2_2 <- conv2_1
I0809 19:58:40.974143 30731 net.cpp:409] conv2_2 -> conv2_2
I0809 19:58:40.974153 30731 net.cpp:131] Setting up conv2_2
I0809 19:58:40.975424 30731 net.cpp:140] Top shape: 5 128 112 112 (8028160)
I0809 19:58:40.975445 30731 layer_factory.hpp:75] Creating layer relu2_2
I0809 19:58:40.975457 30731 net.cpp:99] Creating Layer relu2_2
I0809 19:58:40.975466 30731 net.cpp:453] relu2_2 <- conv2_2
I0809 19:58:40.975477 30731 net.cpp:396] relu2_2 -> conv2_2 (in-place)
I0809 19:58:40.975487 30731 net.cpp:131] Setting up relu2_2
I0809 19:58:40.975553 30731 net.cpp:140] Top shape: 5 128 112 112 (8028160)
I0809 19:58:40.975561 30731 layer_factory.hpp:75] Creating layer pool2
I0809 19:58:40.975572 30731 net.cpp:99] Creating Layer pool2
I0809 19:58:40.975579 30731 net.cpp:453] pool2 <- conv2_2
I0809 19:58:40.975589 30731 net.cpp:409] pool2 -> pool2
I0809 19:58:40.975599 30731 net.cpp:131] Setting up pool2
I0809 19:58:40.975664 30731 net.cpp:140] Top shape: 5 128 56 56 (2007040)
I0809 19:58:40.975674 30731 layer_factory.hpp:75] Creating layer conv3_1
I0809 19:58:40.975684 30731 net.cpp:99] Creating Layer conv3_1
I0809 19:58:40.975692 30731 net.cpp:453] conv3_1 <- pool2
I0809 19:58:40.975702 30731 net.cpp:409] conv3_1 -> conv3_1
I0809 19:58:40.975711 30731 net.cpp:131] Setting up conv3_1
I0809 19:58:40.978498 30731 net.cpp:140] Top shape: 5 256 56 56 (4014080)
I0809 19:58:40.978523 30731 layer_factory.hpp:75] Creating layer relu3_1
I0809 19:58:40.978535 30731 net.cpp:99] Creating Layer relu3_1
I0809 19:58:40.978543 30731 net.cpp:453] relu3_1 <- conv3_1
I0809 19:58:40.978554 30731 net.cpp:396] relu3_1 -> conv3_1 (in-place)
I0809 19:58:40.978564 30731 net.cpp:131] Setting up relu3_1
I0809 19:58:40.978777 30731 net.cpp:140] Top shape: 5 256 56 56 (4014080)
I0809 19:58:40.978793 30731 layer_factory.hpp:75] Creating layer conv3_2
I0809 19:58:40.978806 30731 net.cpp:99] Creating Layer conv3_2
I0809 19:58:40.978814 30731 net.cpp:453] conv3_2 <- conv3_1
I0809 19:58:40.978826 30731 net.cpp:409] conv3_2 -> conv3_2
I0809 19:58:40.978838 30731 net.cpp:131] Setting up conv3_2
I0809 19:58:40.983911 30731 net.cpp:140] Top shape: 5 256 56 56 (4014080)
I0809 19:58:40.983942 30731 layer_factory.hpp:75] Creating layer relu3_2
I0809 19:58:40.983955 30731 net.cpp:99] Creating Layer relu3_2
I0809 19:58:40.983964 30731 net.cpp:453] relu3_2 <- conv3_2
I0809 19:58:40.983974 30731 net.cpp:396] relu3_2 -> conv3_2 (in-place)
I0809 19:58:40.983985 30731 net.cpp:131] Setting up relu3_2
I0809 19:58:40.984056 30731 net.cpp:140] Top shape: 5 256 56 56 (4014080)
I0809 19:58:40.984069 30731 layer_factory.hpp:75] Creating layer conv3_3
I0809 19:58:40.984083 30731 net.cpp:99] Creating Layer conv3_3
I0809 19:58:40.984091 30731 net.cpp:453] conv3_3 <- conv3_2
I0809 19:58:40.984102 30731 net.cpp:409] conv3_3 -> conv3_3
I0809 19:58:40.984113 30731 net.cpp:131] Setting up conv3_3
I0809 19:58:40.989323 30731 net.cpp:140] Top shape: 5 256 56 56 (4014080)
I0809 19:58:40.989346 30731 layer_factory.hpp:75] Creating layer relu3_3
I0809 19:58:40.989358 30731 net.cpp:99] Creating Layer relu3_3
I0809 19:58:40.989367 30731 net.cpp:453] relu3_3 <- conv3_3
I0809 19:58:40.989377 30731 net.cpp:396] relu3_3 -> conv3_3 (in-place)
I0809 19:58:40.989388 30731 net.cpp:131] Setting up relu3_3
I0809 19:58:40.989464 30731 net.cpp:140] Top shape: 5 256 56 56 (4014080)
I0809 19:58:40.989475 30731 layer_factory.hpp:75] Creating layer pool3
I0809 19:58:40.989486 30731 net.cpp:99] Creating Layer pool3
I0809 19:58:40.989495 30731 net.cpp:453] pool3 <- conv3_3
I0809 19:58:40.989506 30731 net.cpp:409] pool3 -> pool3
I0809 19:58:40.989516 30731 net.cpp:131] Setting up pool3
I0809 19:58:40.989593 30731 net.cpp:140] Top shape: 5 256 28 28 (1003520)
I0809 19:58:40.989627 30731 layer_factory.hpp:75] Creating layer conv4_1
I0809 19:58:40.989640 30731 net.cpp:99] Creating Layer conv4_1
I0809 19:58:40.989650 30731 net.cpp:453] conv4_1 <- pool3
I0809 19:58:40.989660 30731 net.cpp:409] conv4_1 -> conv4_1
I0809 19:58:40.989671 30731 net.cpp:131] Setting up conv4_1
I0809 19:58:40.999629 30731 net.cpp:140] Top shape: 5 512 28 28 (2007040)
I0809 19:58:40.999658 30731 layer_factory.hpp:75] Creating layer relu4_1
I0809 19:58:40.999672 30731 net.cpp:99] Creating Layer relu4_1
I0809 19:58:40.999681 30731 net.cpp:453] relu4_1 <- conv4_1
I0809 19:58:40.999693 30731 net.cpp:396] relu4_1 -> conv4_1 (in-place)
I0809 19:58:40.999704 30731 net.cpp:131] Setting up relu4_1
I0809 19:58:40.999918 30731 net.cpp:140] Top shape: 5 512 28 28 (2007040)
I0809 19:58:40.999933 30731 layer_factory.hpp:75] Creating layer conv4_2
I0809 19:58:40.999945 30731 net.cpp:99] Creating Layer conv4_2
I0809 19:58:40.999953 30731 net.cpp:453] conv4_2 <- conv4_1
I0809 19:58:40.999965 30731 net.cpp:409] conv4_2 -> conv4_2
I0809 19:58:40.999977 30731 net.cpp:131] Setting up conv4_2
I0809 19:58:41.026865 30731 net.cpp:140] Top shape: 5 512 28 28 (2007040)
I0809 19:58:41.026906 30731 layer_factory.hpp:75] Creating layer relu4_2
I0809 19:58:41.026922 30731 net.cpp:99] Creating Layer relu4_2
I0809 19:58:41.026932 30731 net.cpp:453] relu4_2 <- conv4_2
I0809 19:58:41.026945 30731 net.cpp:396] relu4_2 -> conv4_2 (in-place)
I0809 19:58:41.026957 30731 net.cpp:131] Setting up relu4_2
I0809 19:58:41.027030 30731 net.cpp:140] Top shape: 5 512 28 28 (2007040)
I0809 19:58:41.027045 30731 layer_factory.hpp:75] Creating layer conv4_3
I0809 19:58:41.027057 30731 net.cpp:99] Creating Layer conv4_3
I0809 19:58:41.027067 30731 net.cpp:453] conv4_3 <- conv4_2
I0809 19:58:41.027077 30731 net.cpp:409] conv4_3 -> conv4_3
I0809 19:58:41.027091 30731 net.cpp:131] Setting up conv4_3
I0809 19:58:41.043747 30731 net.cpp:140] Top shape: 5 512 28 28 (2007040)
I0809 19:58:41.043783 30731 layer_factory.hpp:75] Creating layer relu4_3
I0809 19:58:41.043799 30731 net.cpp:99] Creating Layer relu4_3
I0809 19:58:41.043809 30731 net.cpp:453] relu4_3 <- conv4_3
I0809 19:58:41.043822 30731 net.cpp:396] relu4_3 -> conv4_3 (in-place)
I0809 19:58:41.043834 30731 net.cpp:131] Setting up relu4_3
I0809 19:58:41.043900 30731 net.cpp:140] Top shape: 5 512 28 28 (2007040)
I0809 19:58:41.043910 30731 layer_factory.hpp:75] Creating layer pool4
I0809 19:58:41.043918 30731 net.cpp:99] Creating Layer pool4
I0809 19:58:41.043923 30731 net.cpp:453] pool4 <- conv4_3
I0809 19:58:41.043931 30731 net.cpp:409] pool4 -> pool4
I0809 19:58:41.043938 30731 net.cpp:131] Setting up pool4
I0809 19:58:41.044148 30731 net.cpp:140] Top shape: 5 512 14 14 (501760)
I0809 19:58:41.044165 30731 layer_factory.hpp:75] Creating layer conv5_1
I0809 19:58:41.044179 30731 net.cpp:99] Creating Layer conv5_1
I0809 19:58:41.044188 30731 net.cpp:453] conv5_1 <- pool4
I0809 19:58:41.044199 30731 net.cpp:409] conv5_1 -> conv5_1
I0809 19:58:41.044212 30731 net.cpp:131] Setting up conv5_1
I0809 19:58:41.063030 30731 net.cpp:140] Top shape: 5 512 14 14 (501760)
I0809 19:58:41.063069 30731 layer_factory.hpp:75] Creating layer relu5_1
I0809 19:58:41.063086 30731 net.cpp:99] Creating Layer relu5_1
I0809 19:58:41.063094 30731 net.cpp:453] relu5_1 <- conv5_1
I0809 19:58:41.063107 30731 net.cpp:396] relu5_1 -> conv5_1 (in-place)
I0809 19:58:41.063117 30731 net.cpp:131] Setting up relu5_1
I0809 19:58:41.063186 30731 net.cpp:140] Top shape: 5 512 14 14 (501760)
I0809 19:58:41.063199 30731 layer_factory.hpp:75] Creating layer conv5_2
I0809 19:58:41.063211 30731 net.cpp:99] Creating Layer conv5_2
I0809 19:58:41.063218 30731 net.cpp:453] conv5_2 <- conv5_1
I0809 19:58:41.063230 30731 net.cpp:409] conv5_2 -> conv5_2
I0809 19:58:41.063242 30731 net.cpp:131] Setting up conv5_2
I0809 19:58:41.081907 30731 net.cpp:140] Top shape: 5 512 14 14 (501760)
I0809 19:58:41.081944 30731 layer_factory.hpp:75] Creating layer relu5_2
I0809 19:58:41.081959 30731 net.cpp:99] Creating Layer relu5_2
I0809 19:58:41.081992 30731 net.cpp:453] relu5_2 <- conv5_2
I0809 19:58:41.082006 30731 net.cpp:396] relu5_2 -> conv5_2 (in-place)
I0809 19:58:41.082018 30731 net.cpp:131] Setting up relu5_2
I0809 19:58:41.082089 30731 net.cpp:140] Top shape: 5 512 14 14 (501760)
I0809 19:58:41.082100 30731 layer_factory.hpp:75] Creating layer conv5_3
I0809 19:58:41.082113 30731 net.cpp:99] Creating Layer conv5_3
I0809 19:58:41.082120 30731 net.cpp:453] conv5_3 <- conv5_2
I0809 19:58:41.082130 30731 net.cpp:409] conv5_3 -> conv5_3
I0809 19:58:41.082142 30731 net.cpp:131] Setting up conv5_3
I0809 19:58:41.100585 30731 net.cpp:140] Top shape: 5 512 14 14 (501760)
I0809 19:58:41.100623 30731 layer_factory.hpp:75] Creating layer relu5_3
I0809 19:58:41.100641 30731 net.cpp:99] Creating Layer relu5_3
I0809 19:58:41.100651 30731 net.cpp:453] relu5_3 <- conv5_3
I0809 19:58:41.100662 30731 net.cpp:396] relu5_3 -> conv5_3 (in-place)
I0809 19:58:41.100677 30731 net.cpp:131] Setting up relu5_3
I0809 19:58:41.100738 30731 net.cpp:140] Top shape: 5 512 14 14 (501760)
I0809 19:58:41.100745 30731 layer_factory.hpp:75] Creating layer pool5
I0809 19:58:41.100759 30731 net.cpp:99] Creating Layer pool5
I0809 19:58:41.100764 30731 net.cpp:453] pool5 <- conv5_3
I0809 19:58:41.100771 30731 net.cpp:409] pool5 -> pool5
I0809 19:58:41.100780 30731 net.cpp:131] Setting up pool5
I0809 19:58:41.100992 30731 net.cpp:140] Top shape: 5 512 7 7 (125440)
I0809 19:58:41.101008 30731 layer_factory.hpp:75] Creating layer fc6
I0809 19:58:41.101022 30731 net.cpp:99] Creating Layer fc6
I0809 19:58:41.101030 30731 net.cpp:453] fc6 <- pool5
I0809 19:58:41.101042 30731 net.cpp:409] fc6 -> fc6
I0809 19:58:41.101053 30731 net.cpp:131] Setting up fc6
I0809 19:58:41.878460 30731 net.cpp:140] Top shape: 5 4096 (20480)
I0809 19:58:41.878499 30731 layer_factory.hpp:75] Creating layer relu6
I0809 19:58:41.878518 30731 net.cpp:99] Creating Layer relu6
I0809 19:58:41.878531 30731 net.cpp:453] relu6 <- fc6
I0809 19:58:41.878545 30731 net.cpp:396] relu6 -> fc6 (in-place)
I0809 19:58:41.878557 30731 net.cpp:131] Setting up relu6
I0809 19:58:41.878657 30731 net.cpp:140] Top shape: 5 4096 (20480)
I0809 19:58:41.878670 30731 layer_factory.hpp:75] Creating layer drop6
I0809 19:58:41.878682 30731 net.cpp:99] Creating Layer drop6
I0809 19:58:41.878690 30731 net.cpp:453] drop6 <- fc6
I0809 19:58:41.878702 30731 net.cpp:396] drop6 -> fc6 (in-place)
I0809 19:58:41.878712 30731 net.cpp:131] Setting up drop6
I0809 19:58:41.878725 30731 net.cpp:140] Top shape: 5 4096 (20480)
I0809 19:58:41.878733 30731 layer_factory.hpp:75] Creating layer fc7
I0809 19:58:41.878746 30731 net.cpp:99] Creating Layer fc7
I0809 19:58:41.878756 30731 net.cpp:453] fc7 <- fc6
I0809 19:58:41.878767 30731 net.cpp:409] fc7 -> fc7
I0809 19:58:41.878779 30731 net.cpp:131] Setting up fc7
I0809 19:58:42.006796 30731 net.cpp:140] Top shape: 5 4096 (20480)
I0809 19:58:42.006834 30731 layer_factory.hpp:75] Creating layer relu7
I0809 19:58:42.006850 30731 net.cpp:99] Creating Layer relu7
I0809 19:58:42.006860 30731 net.cpp:453] relu7 <- fc7
I0809 19:58:42.006872 30731 net.cpp:396] relu7 -> fc7 (in-place)
I0809 19:58:42.006883 30731 net.cpp:131] Setting up relu7
I0809 19:58:42.006984 30731 net.cpp:140] Top shape: 5 4096 (20480)
I0809 19:58:42.007001 30731 layer_factory.hpp:75] Creating layer drop7
I0809 19:58:42.007014 30731 net.cpp:99] Creating Layer drop7
I0809 19:58:42.007022 30731 net.cpp:453] drop7 <- fc7
I0809 19:58:42.007032 30731 net.cpp:396] drop7 -> fc7 (in-place)
I0809 19:58:42.007043 30731 net.cpp:131] Setting up drop7
I0809 19:58:42.007056 30731 net.cpp:140] Top shape: 5 4096 (20480)
I0809 19:58:42.007064 30731 layer_factory.hpp:75] Creating layer fc8-1
I0809 19:58:42.007077 30731 net.cpp:99] Creating Layer fc8-1
I0809 19:58:42.007086 30731 net.cpp:453] fc8-1 <- fc7
I0809 19:58:42.007097 30731 net.cpp:409] fc8-1 -> fc8-1
I0809 19:58:42.007112 30731 net.cpp:131] Setting up fc8-1
I0809 19:58:42.021910 30731 net.cpp:140] Top shape: 5 101 (505)
I0809 19:58:42.021941 30731 layer_factory.hpp:75] Creating layer fc8-1_fc8-1_0_split
I0809 19:58:42.021972 30731 net.cpp:99] Creating Layer fc8-1_fc8-1_0_split
I0809 19:58:42.021982 30731 net.cpp:453] fc8-1_fc8-1_0_split <- fc8-1
I0809 19:58:42.021993 30731 net.cpp:409] fc8-1_fc8-1_0_split -> fc8-1_fc8-1_0_split_0
I0809 19:58:42.022006 30731 net.cpp:409] fc8-1_fc8-1_0_split -> fc8-1_fc8-1_0_split_1
I0809 19:58:42.022016 30731 net.cpp:131] Setting up fc8-1_fc8-1_0_split
I0809 19:58:42.022027 30731 net.cpp:140] Top shape: 5 101 (505)
I0809 19:58:42.022037 30731 net.cpp:140] Top shape: 5 101 (505)
I0809 19:58:42.022043 30731 layer_factory.hpp:75] Creating layer loss
I0809 19:58:42.022054 30731 net.cpp:99] Creating Layer loss
I0809 19:58:42.022061 30731 net.cpp:453] loss <- fc8-1_fc8-1_0_split_0
I0809 19:58:42.022070 30731 net.cpp:453] loss <- label_local_data_1_split_0
I0809 19:58:42.022080 30731 net.cpp:409] loss -> loss
I0809 19:58:42.022090 30731 net.cpp:131] Setting up loss
I0809 19:58:42.022100 30731 layer_factory.hpp:75] Creating layer loss
…
