…
    mean_value: 128
    mean_value: 128
    mean_value: 128
    mean_value: 128
    mean_value: 128
    mean_value: 128
    mean_value: 128
    mean_value: 128
    mean_value: 128
    mean_value: 128
    mean_value: 128
    mean_value: 128
    fix_crop: true
    multi_scale: true
    scale_ratios: 1
    scale_ratios: 0.875
    scale_ratios: 0.75
    max_distort: 1
    is_flow: true
  }
  video_data_param {
    source: "/home/jiri/Lake/HAR/datasets/UCF-101/train-2-rnd.txt"
    batch_size: 64
    new_length: 10
    num_segments: 1
    modality: FLOW
  }
}
layer {
  name: "conv1_1"
  type: "Convolution"
  bottom: "data"
  top: "conv1_1"
  param {
    lr_mult: 1
    decay_mult: 1
  }
  param {
    lr_mult: 2
    decay_mult: 0
  }
  convolution_param {
    num_output: 64
    pad: 1
    kernel_size: 3
    weight_filler {
      type: "xavier"
    }
  }
}
layer {
  name: "relu1_1"
  type: "ReLU"
  bottom: "conv1_1"
  top: "conv1_1"
}
layer {
  name: "conv1_2"
  type: "Convolution"
  bottom: "conv1_1"
  top: "conv1_2"
  param {
    lr_mult: 1
    decay_mult: 1
  }
  param {
    lr_mult: 2
    decay_mult: 0
  }
  convolution_param {
    num_output: 64
    pad: 1
    kernel_size: 3
    weight_filler {
      type: "xavier"
    }
  }
}
layer {
  name: "relu1_2"
  type: "ReLU"
  bottom: "conv1_2"
  top: "conv1_2"
}
layer {
  name: "pool1"
  type: "Pooling"
  bottom: "conv1_2"
  top: "pool1"
  pooling_param {
    pool: MAX
    kernel_size: 2
    stride: 2
  }
}
layer {
  name: "conv2_1"
  type: "Convolution"
  bottom: "pool1"
  top: "conv2_1"
  param {
    lr_mult: 1
    decay_mult: 1
  }
  param {
    lr_mult: 2
    decay_mult: 0
  }
  convolution_param {
    num_output: 128
    pad: 1
    kernel_size: 3
    weight_filler {
      type: "xavier"
    }
  }
}
layer {
  name: "relu2_1"
  type: "ReLU"
  bottom: "conv2_1"
  top: "conv2_1"
}
layer {
  name: "conv2_2"
  type: "Convolution"
  bottom: "conv2_1"
  top: "conv2_2"
  param {
    lr_mult: 1
    decay_mult: 1
  }
  param {
    lr_mult: 2
    decay_mult: 0
  }
  convolution_param {
    num_output: 128
    pad: 1
    kernel_size: 3
    weight_filler {
      type: "xavier"
    }
  }
}
layer {
  name: "relu2_2"
  type: "ReLU"
  bottom: "conv2_2"
  top: "conv2_2"
}
layer {
  name: "pool2"
  type: "Pooling"
  bottom: "conv2_2"
  top: "pool2"
  pooling_param {
    pool: MAX
    kernel_size: 2
    stride: 2
  }
}
layer {
  name: "conv3_1"
  type: "Convolution"
  bottom: "pool2"
  top: "conv3_1"
  param {
    lr_mult: 1
    decay_mult: 1
  }
  param {
    lr_mult: 2
    decay_mult: 0
  }
  convolution_param {
    num_output: 256
    pad: 1
    kernel_size: 3
    weight_filler {
      type: "xavier"
    }
  }
}
layer {
  name: "relu3_1"
  type: "ReLU"
  bottom: "conv3_1"
  top: "conv3_1"
}
layer {
  name: "conv3_2"
  type: "Convolution"
  bottom: "conv3_1"
  top: "conv3_2"
  param {
    lr_mult: 1
    decay_mult: 1
  }
  param {
    lr_mult: 2
    decay_mult: 0
  }
  convolution_param {
    num_output: 256
    pad: 1
    kernel_size: 3
    weight_filler {
      type: "xavier"
    }
  }
}
layer {
  name: "relu3_2"
  type: "ReLU"
  bottom: "conv3_2"
  top: "conv3_2"
}
layer {
  name: "conv3_3"
  type: "Convolution"
  bottom: "conv3_2"
  top: "conv3_3"
  param {
    lr_mult: 1
    decay_mult: 1
  }
  param {
    lr_mult: 2
    decay_mult: 0
  }
  convolution_param {
    num_output: 256
    pad: 1
    kernel_size: 3
    weight_filler {
      type: "xavier"
    }
  }
}
layer {
  name: "relu3_3"
  type: "ReLU"
  bottom: "conv3_3"
  top: "conv3_3"
}
layer {
  name: "pool3"
  type: "Pooling"
  bottom: "conv3_3"
  top: "pool3"
  pooling_param {
    pool: MAX
    kernel_size: 2
    stride: 2
  }
}
layer {
  name: "conv4_1"
  type: "Convolution"
  bottom: "pool3"
  top: "conv4_1"
  param {
    lr_mult: 1
    decay_mult: 1
  }
  param {
    lr_mult: 2
    decay_mult: 0
  }
  convolution_param {
    num_output: 512
    pad: 1
    kernel_size: 3
    weight_filler {
      type: "xavier"
    }
  }
}
layer {
  name: "relu4_1"
  type: "ReLU"
  bottom: "conv4_1"
  top: "conv4_1"
}
layer {
  name: "conv4_2"
  type: "Convolution"
  bottom: "conv4_1"
  top: "conv4_2"
  param {
    lr_mult: 1
    decay_mult: 1
  }
  param {
    lr_mult: 2
    decay_mult: 0
  }
  convolution_param {
    num_output: 512
    pad: 1
    kernel_size: 3
    weight_filler {
      type: "xavier"
    }
  }
}
layer {
  name: "relu4_2"
  type: "ReLU"
  bottom: "conv4_2"
  top: "conv4_2"
}
layer {
  name: "conv4_3"
  type: "Convolution"
  bottom: "conv4_2"
  top: "conv4_3"
  param {
    lr_mult: 1
    decay_mult: 1
  }
  param {
    lr_mult: 2
    decay_mult: 0
  }
  convolution_param {
    num_output: 512
    pad: 1
    kernel_size: 3
    weight_filler {
      type: "xavier"
    }
  }
}
layer {
  name: "relu4_3"
  type: "ReLU"
  bottom: "conv4_3"
  top: "conv4_3"
}
layer {
  name: "pool4"
  type: "Pooling"
  bottom: "conv4_3"
  top: "pool4"
  pooling_param {
    pool: MAX
    kernel_size: 2
    stride: 2
  }
}
layer {
  name: "conv5_1"
  type: "Convolution"
  bottom: "pool4"
  top: "conv5_1"
  param {
    lr_mult: 1
    decay_mult: 1
  }
  param {
    lr_mult: 2
    decay_mult: 0
  }
  convolution_param {
    num_output: 512
    pad: 1
    kernel_size: 3
    weight_filler {
      type: "xavier"
    }
  }
}
layer {
  name: "relu5_1"
  type: "ReLU"
  bottom: "conv5_1"
  top: "conv5_1"
}
layer {
  name: "conv5_2"
  type: "Convolution"
  bottom: "conv5_1"
  top: "conv5_2"
  param {
    lr_mult: 1
    decay_mult: 1
  }
  param {
    lr_mult: 2
    decay_mult: 0
  }
  convolution_param {
    num_output: 512
    pad: 1
    kernel_size: 3
    weight_filler {
      type: "xavier"
    }
  }
}
layer {
  name: "relu5_2"
  type: "ReLU"
  bottom: "conv5_2"
  top: "conv5_2"
}
layer {
  name: "conv5_3"
  type: "Convolution"
  bottom: "conv5_2"
  top: "conv5_3"
  param {
    lr_mult: 1
    decay_mult: 1
  }
  param {
    lr_mult: 2
    decay_mult: 0
  }
  convolution_param {
    num_output: 512
    pad: 1
    kernel_size: 3
    weight_filler {
      type: "xavier"
    }
  }
}
layer {
  name: "relu5_3"
  type: "ReLU"
  bottom: "conv5_3"
  top: "conv5_3"
}
layer {
  name: "pool5"
  type: "Pooling"
  bottom: "conv5_3"
  top: "pool5_local"
  pooling_param {
    pool: MAX
    kernel_size: 2
    stride: 2
  }
}
layer {
  name: "gather"
  type: "Gather"
  bottom: "pool5_local"
  bottom: "label_local"
  top: "pool5"
  top: "label"
}
layer {
  name: "fc6"
  type: "InnerProduct"
  bottom: "pool5"
  top: "fc6"
  param {
    lr_mult: 1
    decay_mult: 1
  }
  param {
    lr_mult: 2
    decay_mult: 0
  }
  inner_product_param {
    num_output: 4096
    weight_filler {
      type: "xavier"
    }
  }
}
layer {
  name: "relu6"
  type: "ReLU"
  bottom: "fc6"
  top: "fc6"
}
layer {
  name: "drop6"
  type: "Dropout"
  bottom: "fc6"
  top: "fc6"
  dropout_param {
    dropout_ratio: 0.9
  }
}
layer {
  name: "fc7"
  type: "InnerProduct"
  bottom: "fc6"
  top: "fc7"
  param {
    lr_mult: 1
    decay_mult: 1
  }
  param {
    lr_mult: 2
    decay_mult: 0
  }
  inner_product_param {
    num_output: 4096
    weight_filler {
      type: "xavier"
    }
  }
}
layer {
  name: "relu7"
  type: "ReLU"
  bottom: "fc7"
  top: "fc7"
}
layer {
  name: "drop7"
  type: "Dropout"
  bottom: "fc7"
  top: "fc7"
  dropout_param {
    dropout_ratio: 0.8
  }
}
layer {
  name: "fc8-1"
  type: "InnerProduct"
  bottom: "fc7"
  top: "fc8-1"
  param {
    lr_mult: 1
    decay_mult: 1
  }
  param {
    lr_mult: 2
    decay_mult: 0
  }
  inner_product_param {
    num_output: 101
    weight_filler {
      type: "gaussian"
      std: 0.001
    }
    bias_filler {
      type: "constant"
      value: 0
    }
  }
}
layer {
  name: "loss"
  type: "SoftmaxWithLoss"
  bottom: "fc8-1"
  bottom: "label"
  include {
    phase: TRAIN
  }
}
I0808 20:34:37.787593  4679 layer_factory.hpp:74] Creating layer data
I0808 20:34:37.787616  4679 net.cpp:91] Creating Layer data
I0808 20:34:37.787621  4679 net.cpp:408] data -> data
I0808 20:34:37.787641  4679 net.cpp:408] data -> label_local
I0808 20:34:37.787647  4679 net.cpp:151] Setting up data
I0808 20:34:37.788036  4679 video_data_layer.cpp:34] Opening file: /home/jiri/Lake/HAR/datasets/UCF-101/train-2-rnd.txt
I0808 20:34:37.794548  4679 video_data_layer.cpp:50] A total of 9537 videos.
I0808 20:34:37.815096  4679 video_data_layer.cpp:76] output data size: 64,20,224,224
I0808 20:34:37.867368  4679 net.cpp:158] Top shape: 64 20 224 224 (64225280)
I0808 20:34:37.867413  4679 net.cpp:158] Top shape: 64 1 1 1 (64)
I0808 20:34:37.867430  4679 layer_factory.hpp:74] Creating layer conv1_1
I0808 20:34:37.867463  4679 net.cpp:91] Creating Layer conv1_1
I0808 20:34:37.867482  4679 net.cpp:452] conv1_1 <- data
I0808 20:34:37.867504  4679 net.cpp:119] This layer is inheriting previous layer's sync mode: 1
I0808 20:34:37.867527  4679 net.cpp:408] conv1_1 -> conv1_1
I0808 20:34:37.867558  4679 net.cpp:151] Setting up conv1_1
I0808 20:34:37.948426  4679 net.cpp:158] Top shape: 64 64 224 224 (205520896)
I0808 20:34:37.948462  4679 layer_factory.hpp:74] Creating layer relu1_1
I0808 20:34:37.948475  4679 net.cpp:91] Creating Layer relu1_1
I0808 20:34:37.948480  4679 net.cpp:452] relu1_1 <- conv1_1
I0808 20:34:37.948487  4679 net.cpp:119] This layer is inheriting previous layer's sync mode: 1
I0808 20:34:37.948493  4679 net.cpp:397] relu1_1 -> conv1_1 (in-place)
I0808 20:34:37.948501  4679 net.cpp:151] Setting up relu1_1
I0808 20:34:37.948578  4679 net.cpp:158] Top shape: 64 64 224 224 (205520896)
I0808 20:34:37.948585  4679 layer_factory.hpp:74] Creating layer conv1_2
I0808 20:34:37.948595  4679 net.cpp:91] Creating Layer conv1_2
I0808 20:34:37.948598  4679 net.cpp:452] conv1_2 <- conv1_1
I0808 20:34:37.948603  4679 net.cpp:119] This layer is inheriting previous layer's sync mode: 1
I0808 20:34:37.948608  4679 net.cpp:408] conv1_2 -> conv1_2
I0808 20:34:37.948616  4679 net.cpp:151] Setting up conv1_2
I0808 20:34:37.949244  4679 net.cpp:158] Top shape: 64 64 224 224 (205520896)
I0808 20:34:37.949262  4679 layer_factory.hpp:74] Creating layer relu1_2
I0808 20:34:37.949271  4679 net.cpp:91] Creating Layer relu1_2
I0808 20:34:37.949276  4679 net.cpp:452] relu1_2 <- conv1_2
I0808 20:34:37.949281  4679 net.cpp:119] This layer is inheriting previous layer's sync mode: 1
I0808 20:34:37.949286  4679 net.cpp:397] relu1_2 -> conv1_2 (in-place)
I0808 20:34:37.949293  4679 net.cpp:151] Setting up relu1_2
I0808 20:34:37.949497  4679 net.cpp:158] Top shape: 64 64 224 224 (205520896)
I0808 20:34:37.949509  4679 layer_factory.hpp:74] Creating layer pool1
I0808 20:34:37.949520  4679 net.cpp:91] Creating Layer pool1
I0808 20:34:37.949525  4679 net.cpp:452] pool1 <- conv1_2
I0808 20:34:37.949532  4679 net.cpp:119] This layer is inheriting previous layer's sync mode: 1
I0808 20:34:37.949537  4679 net.cpp:408] pool1 -> pool1
I0808 20:34:37.949587  4679 net.cpp:151] Setting up pool1
I0808 20:34:37.949667  4679 net.cpp:158] Top shape: 64 64 112 112 (51380224)
I0808 20:34:37.949676  4679 layer_factory.hpp:74] Creating layer conv2_1
I0808 20:34:37.949683  4679 net.cpp:91] Creating Layer conv2_1
I0808 20:34:37.949687  4679 net.cpp:452] conv2_1 <- pool1
I0808 20:34:37.949692  4679 net.cpp:119] This layer is inheriting previous layer's sync mode: 1
I0808 20:34:37.949697  4679 net.cpp:408] conv2_1 -> conv2_1
I0808 20:34:37.949703  4679 net.cpp:151] Setting up conv2_1
I0808 20:34:37.950573  4679 net.cpp:158] Top shape: 64 128 112 112 (102760448)
I0808 20:34:37.950590  4679 layer_factory.hpp:74] Creating layer relu2_1
I0808 20:34:37.950598  4679 net.cpp:91] Creating Layer relu2_1
I0808 20:34:37.950603  4679 net.cpp:452] relu2_1 <- conv2_1
I0808 20:34:37.950608  4679 net.cpp:119] This layer is inheriting previous layer's sync mode: 1
I0808 20:34:37.950614  4679 net.cpp:397] relu2_1 -> conv2_1 (in-place)
I0808 20:34:37.950620  4679 net.cpp:151] Setting up relu2_1
I0808 20:34:37.950690  4679 net.cpp:158] Top shape: 64 128 112 112 (102760448)
I0808 20:34:37.950705  4679 layer_factory.hpp:74] Creating layer conv2_2
I0808 20:34:37.950713  4679 net.cpp:91] Creating Layer conv2_2
I0808 20:34:37.950718  4679 net.cpp:452] conv2_2 <- conv2_1
I0808 20:34:37.950722  4679 net.cpp:119] This layer is inheriting previous layer's sync mode: 1
I0808 20:34:37.950728  4679 net.cpp:408] conv2_2 -> conv2_2
I0808 20:34:37.950736  4679 net.cpp:151] Setting up conv2_2
I0808 20:34:37.952082  4679 net.cpp:158] Top shape: 64 128 112 112 (102760448)
I0808 20:34:37.952098  4679 layer_factory.hpp:74] Creating layer relu2_2
I0808 20:34:37.952105  4679 net.cpp:91] Creating Layer relu2_2
I0808 20:34:37.952111  4679 net.cpp:452] relu2_2 <- conv2_2
I0808 20:34:37.952116  4679 net.cpp:119] This layer is inheriting previous layer's sync mode: 1
I0808 20:34:37.952119  4679 net.cpp:397] relu2_2 -> conv2_2 (in-place)
I0808 20:34:37.952126  4679 net.cpp:151] Setting up relu2_2
I0808 20:34:37.952201  4679 net.cpp:158] Top shape: 64 128 112 112 (102760448)
I0808 20:34:37.952206  4679 layer_factory.hpp:74] Creating layer pool2
I0808 20:34:37.952214  4679 net.cpp:91] Creating Layer pool2
I0808 20:34:37.952216  4679 net.cpp:452] pool2 <- conv2_2
I0808 20:34:37.952221  4679 net.cpp:119] This layer is inheriting previous layer's sync mode: 1
I0808 20:34:37.952225  4679 net.cpp:408] pool2 -> pool2
I0808 20:34:37.952231  4679 net.cpp:151] Setting up pool2
I0808 20:34:37.952420  4679 net.cpp:158] Top shape: 64 128 56 56 (25690112)
I0808 20:34:37.952430  4679 layer_factory.hpp:74] Creating layer conv3_1
I0808 20:34:37.952438  4679 net.cpp:91] Creating Layer conv3_1
I0808 20:34:37.952442  4679 net.cpp:452] conv3_1 <- pool2
I0808 20:34:37.952447  4679 net.cpp:119] This layer is inheriting previous layer's sync mode: 1
I0808 20:34:37.952452  4679 net.cpp:408] conv3_1 -> conv3_1
I0808 20:34:37.952461  4679 net.cpp:151] Setting up conv3_1
I0808 20:34:37.955080  4679 net.cpp:158] Top shape: 64 256 56 56 (51380224)
I0808 20:34:37.955101  4679 layer_factory.hpp:74] Creating layer relu3_1
I0808 20:34:37.955111  4679 net.cpp:91] Creating Layer relu3_1
I0808 20:34:37.955116  4679 net.cpp:452] relu3_1 <- conv3_1
I0808 20:34:37.955122  4679 net.cpp:119] This layer is inheriting previous layer's sync mode: 1
I0808 20:34:37.955127  4679 net.cpp:397] relu3_1 -> conv3_1 (in-place)
I0808 20:34:37.955134  4679 net.cpp:151] Setting up relu3_1
I0808 20:34:37.955207  4679 net.cpp:158] Top shape: 64 256 56 56 (51380224)
I0808 20:34:37.955215  4679 layer_factory.hpp:74] Creating layer conv3_2
I0808 20:34:37.955224  4679 net.cpp:91] Creating Layer conv3_2
I0808 20:34:37.955236  4679 net.cpp:452] conv3_2 <- conv3_1
I0808 20:34:37.955242  4679 net.cpp:119] This layer is inheriting previous layer's sync mode: 1
I0808 20:34:37.955250  4679 net.cpp:408] conv3_2 -> conv3_2
I0808 20:34:37.955257  4679 net.cpp:151] Setting up conv3_2
I0808 20:34:37.960208  4679 net.cpp:158] Top shape: 64 256 56 56 (51380224)
I0808 20:34:37.960234  4679 layer_factory.hpp:74] Creating layer relu3_2
I0808 20:34:37.960263  4679 net.cpp:91] Creating Layer relu3_2
I0808 20:34:37.960273  4679 net.cpp:452] relu3_2 <- conv3_2
I0808 20:34:37.960281  4679 net.cpp:119] This layer is inheriting previous layer's sync mode: 1
I0808 20:34:37.960288  4679 net.cpp:397] relu3_2 -> conv3_2 (in-place)
I0808 20:34:37.960295  4679 net.cpp:151] Setting up relu3_2
I0808 20:34:37.960371  4679 net.cpp:158] Top shape: 64 256 56 56 (51380224)
I0808 20:34:37.960379  4679 layer_factory.hpp:74] Creating layer conv3_3
I0808 20:34:37.960389  4679 net.cpp:91] Creating Layer conv3_3
I0808 20:34:37.960394  4679 net.cpp:452] conv3_3 <- conv3_2
I0808 20:34:37.960398  4679 net.cpp:119] This layer is inheriting previous layer's sync mode: 1
I0808 20:34:37.960404  4679 net.cpp:408] conv3_3 -> conv3_3
I0808 20:34:37.960412  4679 net.cpp:151] Setting up conv3_3
I0808 20:34:37.964938  4679 net.cpp:158] Top shape: 64 256 56 56 (51380224)
I0808 20:34:37.964968  4679 layer_factory.hpp:74] Creating layer relu3_3
I0808 20:34:37.964983  4679 net.cpp:91] Creating Layer relu3_3
I0808 20:34:37.964988  4679 net.cpp:452] relu3_3 <- conv3_3
I0808 20:34:37.964997  4679 net.cpp:119] This layer is inheriting previous layer's sync mode: 1
I0808 20:34:37.965001  4679 net.cpp:397] relu3_3 -> conv3_3 (in-place)
I0808 20:34:37.965009  4679 net.cpp:151] Setting up relu3_3
I0808 20:34:37.965080  4679 net.cpp:158] Top shape: 64 256 56 56 (51380224)
I0808 20:34:37.965085  4679 layer_factory.hpp:74] Creating layer pool3
I0808 20:34:37.965092  4679 net.cpp:91] Creating Layer pool3
I0808 20:34:37.965096  4679 net.cpp:452] pool3 <- conv3_3
I0808 20:34:37.965101  4679 net.cpp:119] This layer is inheriting previous layer's sync mode: 1
I0808 20:34:37.965109  4679 net.cpp:408] pool3 -> pool3
I0808 20:34:37.965116  4679 net.cpp:151] Setting up pool3
I0808 20:34:37.965312  4679 net.cpp:158] Top shape: 64 256 28 28 (12845056)
I0808 20:34:37.965322  4679 layer_factory.hpp:74] Creating layer conv4_1
I0808 20:34:37.965332  4679 net.cpp:91] Creating Layer conv4_1
I0808 20:34:37.965337  4679 net.cpp:452] conv4_1 <- pool3
I0808 20:34:37.965342  4679 net.cpp:119] This layer is inheriting previous layer's sync mode: 1
I0808 20:34:37.965347  4679 net.cpp:408] conv4_1 -> conv4_1
I0808 20:34:37.965353  4679 net.cpp:151] Setting up conv4_1
I0808 20:34:37.974313  4679 net.cpp:158] Top shape: 64 512 28 28 (25690112)
I0808 20:34:37.974342  4679 layer_factory.hpp:74] Creating layer relu4_1
I0808 20:34:37.974354  4679 net.cpp:91] Creating Layer relu4_1
I0808 20:34:37.974360  4679 net.cpp:452] relu4_1 <- conv4_1
I0808 20:34:37.974369  4679 net.cpp:119] This layer is inheriting previous layer's sync mode: 1
I0808 20:34:37.974373  4679 net.cpp:397] relu4_1 -> conv4_1 (in-place)
I0808 20:34:37.974382  4679 net.cpp:151] Setting up relu4_1
I0808 20:34:37.974458  4679 net.cpp:158] Top shape: 64 512 28 28 (25690112)
I0808 20:34:37.974467  4679 layer_factory.hpp:74] Creating layer conv4_2
I0808 20:34:37.974478  4679 net.cpp:91] Creating Layer conv4_2
I0808 20:34:37.974481  4679 net.cpp:452] conv4_2 <- conv4_1
I0808 20:34:37.974486  4679 net.cpp:119] This layer is inheriting previous layer's sync mode: 1
I0808 20:34:37.974491  4679 net.cpp:408] conv4_2 -> conv4_2
I0808 20:34:37.974498  4679 net.cpp:151] Setting up conv4_2
I0808 20:34:37.991127  4679 net.cpp:158] Top shape: 64 512 28 28 (25690112)
I0808 20:34:37.991164  4679 layer_factory.hpp:74] Creating layer relu4_2
I0808 20:34:37.991176  4679 net.cpp:91] Creating Layer relu4_2
I0808 20:34:37.991183  4679 net.cpp:452] relu4_2 <- conv4_2
I0808 20:34:37.991189  4679 net.cpp:119] This layer is inheriting previous layer's sync mode: 1
I0808 20:34:37.991194  4679 net.cpp:397] relu4_2 -> conv4_2 (in-place)
I0808 20:34:37.991204  4679 net.cpp:151] Setting up relu4_2
I0808 20:34:37.991288  4679 net.cpp:158] Top shape: 64 512 28 28 (25690112)
I0808 20:34:37.991303  4679 layer_factory.hpp:74] Creating layer conv4_3
I0808 20:34:37.991313  4679 net.cpp:91] Creating Layer conv4_3
I0808 20:34:37.991317  4679 net.cpp:452] conv4_3 <- conv4_2
I0808 20:34:37.991348  4679 net.cpp:119] This layer is inheriting previous layer's sync mode: 1
I0808 20:34:37.991355  4679 net.cpp:408] conv4_3 -> conv4_3
I0808 20:34:37.991364  4679 net.cpp:151] Setting up conv4_3
I0808 20:34:38.008035  4679 net.cpp:158] Top shape: 64 512 28 28 (25690112)
I0808 20:34:38.008061  4679 layer_factory.hpp:74] Creating layer relu4_3
I0808 20:34:38.008072  4679 net.cpp:91] Creating Layer relu4_3
I0808 20:34:38.008077  4679 net.cpp:452] relu4_3 <- conv4_3
I0808 20:34:38.008085  4679 net.cpp:119] This layer is inheriting previous layer's sync mode: 1
I0808 20:34:38.008091  4679 net.cpp:397] relu4_3 -> conv4_3 (in-place)
I0808 20:34:38.008100  4679 net.cpp:151] Setting up relu4_3
I0808 20:34:38.008292  4679 net.cpp:158] Top shape: 64 512 28 28 (25690112)
I0808 20:34:38.008302  4679 layer_factory.hpp:74] Creating layer pool4
I0808 20:34:38.008311  4679 net.cpp:91] Creating Layer pool4
I0808 20:34:38.008316  4679 net.cpp:452] pool4 <- conv4_3
I0808 20:34:38.008321  4679 net.cpp:119] This layer is inheriting previous layer's sync mode: 1
I0808 20:34:38.008327  4679 net.cpp:408] pool4 -> pool4
I0808 20:34:38.008333  4679 net.cpp:151] Setting up pool4
I0808 20:34:38.008402  4679 net.cpp:158] Top shape: 64 512 14 14 (6422528)
I0808 20:34:38.008409  4679 layer_factory.hpp:74] Creating layer conv5_1
I0808 20:34:38.008417  4679 net.cpp:91] Creating Layer conv5_1
I0808 20:34:38.008421  4679 net.cpp:452] conv5_1 <- pool4
I0808 20:34:38.008425  4679 net.cpp:119] This layer is inheriting previous layer's sync mode: 1
I0808 20:34:38.008430  4679 net.cpp:408] conv5_1 -> conv5_1
I0808 20:34:38.008440  4679 net.cpp:151] Setting up conv5_1
I0808 20:34:38.025008  4679 net.cpp:158] Top shape: 64 512 14 14 (6422528)
I0808 20:34:38.025043  4679 layer_factory.hpp:74] Creating layer relu5_1
I0808 20:34:38.025058  4679 net.cpp:91] Creating Layer relu5_1
I0808 20:34:38.025063  4679 net.cpp:452] relu5_1 <- conv5_1
I0808 20:34:38.025070  4679 net.cpp:119] This layer is inheriting previous layer's sync mode: 1
I0808 20:34:38.025075  4679 net.cpp:397] relu5_1 -> conv5_1 (in-place)
I0808 20:34:38.025084  4679 net.cpp:151] Setting up relu5_1
I0808 20:34:38.025152  4679 net.cpp:158] Top shape: 64 512 14 14 (6422528)
I0808 20:34:38.025161  4679 layer_factory.hpp:74] Creating layer conv5_2
I0808 20:34:38.025169  4679 net.cpp:91] Creating Layer conv5_2
I0808 20:34:38.025173  4679 net.cpp:452] conv5_2 <- conv5_1
I0808 20:34:38.025178  4679 net.cpp:119] This layer is inheriting previous layer's sync mode: 1
I0808 20:34:38.025183  4679 net.cpp:408] conv5_2 -> conv5_2
I0808 20:34:38.025192  4679 net.cpp:151] Setting up conv5_2
I0808 20:34:38.042096  4679 net.cpp:158] Top shape: 64 512 14 14 (6422528)
I0808 20:34:38.042121  4679 layer_factory.hpp:74] Creating layer relu5_2
I0808 20:34:38.042130  4679 net.cpp:91] Creating Layer relu5_2
I0808 20:34:38.042136  4679 net.cpp:452] relu5_2 <- conv5_2
I0808 20:34:38.042142  4679 net.cpp:119] This layer is inheriting previous layer's sync mode: 1
I0808 20:34:38.042148  4679 net.cpp:397] relu5_2 -> conv5_2 (in-place)
I0808 20:34:38.042155  4679 net.cpp:151] Setting up relu5_2
I0808 20:34:38.042222  4679 net.cpp:158] Top shape: 64 512 14 14 (6422528)
I0808 20:34:38.042237  4679 layer_factory.hpp:74] Creating layer conv5_3
I0808 20:34:38.042244  4679 net.cpp:91] Creating Layer conv5_3
I0808 20:34:38.042248  4679 net.cpp:452] conv5_3 <- conv5_2
I0808 20:34:38.042253  4679 net.cpp:119] This layer is inheriting previous layer's sync mode: 1
I0808 20:34:38.042259  4679 net.cpp:408] conv5_3 -> conv5_3
I0808 20:34:38.042266  4679 net.cpp:151] Setting up conv5_3
I0808 20:34:38.058774  4679 net.cpp:158] Top shape: 64 512 14 14 (6422528)
I0808 20:34:38.058804  4679 layer_factory.hpp:74] Creating layer relu5_3
I0808 20:34:38.058815  4679 net.cpp:91] Creating Layer relu5_3
I0808 20:34:38.058821  4679 net.cpp:452] relu5_3 <- conv5_3
I0808 20:34:38.058828  4679 net.cpp:119] This layer is inheriting previous layer's sync mode: 1
I0808 20:34:38.058835  4679 net.cpp:397] relu5_3 -> conv5_3 (in-place)
I0808 20:34:38.058866  4679 net.cpp:151] Setting up relu5_3
I0808 20:34:38.059092  4679 net.cpp:158] Top shape: 64 512 14 14 (6422528)
I0808 20:34:38.059103  4679 layer_factory.hpp:74] Creating layer pool5
I0808 20:34:38.059113  4679 net.cpp:91] Creating Layer pool5
I0808 20:34:38.059118  4679 net.cpp:452] pool5 <- conv5_3
I0808 20:34:38.059123  4679 net.cpp:119] This layer is inheriting previous layer's sync mode: 1
I0808 20:34:38.059130  4679 net.cpp:408] pool5 -> pool5_local
I0808 20:34:38.059139  4679 net.cpp:151] Setting up pool5
I0808 20:34:38.059214  4679 net.cpp:158] Top shape: 64 512 7 7 (1605632)
I0808 20:34:38.059222  4679 layer_factory.hpp:74] Creating layer gather
I0808 20:34:38.059248  4679 net.cpp:91] Creating Layer gather
I0808 20:34:38.059254  4679 net.cpp:452] gather <- pool5_local
I0808 20:34:38.059259  4679 net.cpp:452] gather <- label_local
I0808 20:34:38.059267  4679 net.cpp:408] gather -> pool5
I0808 20:34:38.059274  4679 net.cpp:408] gather -> label
I0808 20:34:38.059280  4679 net.cpp:151] Setting up gather
I0808 20:34:38.059289  4679 net.cpp:158] Top shape: 128 512 7 7 (3211264)
I0808 20:34:38.059294  4679 net.cpp:158] Top shape: 128 1 1 1 (128)
I0808 20:34:38.059298  4679 layer_factory.hpp:74] Creating layer fc6
I0808 20:34:38.059305  4679 net.cpp:91] Creating Layer fc6
I0808 20:34:38.059309  4679 net.cpp:452] fc6 <- pool5
I0808 20:34:38.059314  4679 net.cpp:119] This layer is inheriting previous layer's sync mode: 0
I0808 20:34:38.059319  4679 net.cpp:408] fc6 -> fc6
I0808 20:34:38.059326  4679 net.cpp:151] Setting up fc6
I0808 20:34:38.734489  4679 net.cpp:158] Top shape: 128 4096 (524288)
I0808 20:34:38.734521  4679 layer_factory.hpp:74] Creating layer relu6
I0808 20:34:38.734532  4679 net.cpp:91] Creating Layer relu6
I0808 20:34:38.734537  4679 net.cpp:452] relu6 <- fc6
I0808 20:34:38.734544  4679 net.cpp:119] This layer is inheriting previous layer's sync mode: 0
I0808 20:34:38.734550  4679 net.cpp:397] relu6 -> fc6 (in-place)
I0808 20:34:38.734558  4679 net.cpp:151] Setting up relu6
I0808 20:34:38.734663  4679 net.cpp:158] Top shape: 128 4096 (524288)
I0808 20:34:38.734671  4679 layer_factory.hpp:74] Creating layer drop6
I0808 20:34:38.734679  4679 net.cpp:91] Creating Layer drop6
I0808 20:34:38.734683  4679 net.cpp:452] drop6 <- fc6
I0808 20:34:38.734688  4679 net.cpp:119] This layer is inheriting previous layer's sync mode: 0
I0808 20:34:38.734696  4679 net.cpp:397] drop6 -> fc6 (in-place)
I0808 20:34:38.734705  4679 net.cpp:151] Setting up drop6
I0808 20:34:38.734715  4679 net.cpp:158] Top shape: 128 4096 (524288)
I0808 20:34:38.734720  4679 layer_factory.hpp:74] Creating layer fc7
I0808 20:34:38.734729  4679 net.cpp:91] Creating Layer fc7
I0808 20:34:38.734732  4679 net.cpp:452] fc7 <- fc6
I0808 20:34:38.734737  4679 net.cpp:119] This layer is inheriting previous layer's sync mode: 0
I0808 20:34:38.734745  4679 net.cpp:408] fc7 -> fc7
I0808 20:34:38.734753  4679 net.cpp:151] Setting up fc7
I0808 20:34:38.845491  4679 net.cpp:158] Top shape: 128 4096 (524288)
I0808 20:34:38.845520  4679 layer_factory.hpp:74] Creating layer relu7
I0808 20:34:38.845531  4679 net.cpp:91] Creating Layer relu7
I0808 20:34:38.845536  4679 net.cpp:452] relu7 <- fc7
I0808 20:34:38.845543  4679 net.cpp:119] This layer is inheriting previous layer's sync mode: 0
I0808 20:34:38.845548  4679 net.cpp:397] relu7 -> fc7 (in-place)
I0808 20:34:38.845556  4679 net.cpp:151] Setting up relu7
I0808 20:34:38.845666  4679 net.cpp:158] Top shape: 128 4096 (524288)
I0808 20:34:38.845674  4679 layer_factory.hpp:74] Creating layer drop7
I0808 20:34:38.845681  4679 net.cpp:91] Creating Layer drop7
I0808 20:34:38.845685  4679 net.cpp:452] drop7 <- fc7
I0808 20:34:38.845690  4679 net.cpp:119] This layer is inheriting previous layer's sync mode: 0
I0808 20:34:38.845695  4679 net.cpp:397] drop7 -> fc7 (in-place)
I0808 20:34:38.845700  4679 net.cpp:151] Setting up drop7
I0808 20:34:38.845707  4679 net.cpp:158] Top shape: 128 4096 (524288)
I0808 20:34:38.845711  4679 layer_factory.hpp:74] Creating layer fc8-1
I0808 20:34:38.845720  4679 net.cpp:91] Creating Layer fc8-1
I0808 20:34:38.845741  4679 net.cpp:452] fc8-1 <- fc7
I0808 20:34:38.845746  4679 net.cpp:119] This layer is inheriting previous layer's sync mode: 0
I0808 20:34:38.845753  4679 net.cpp:408] fc8-1 -> fc8-1
I0808 20:34:38.845762  4679 net.cpp:151] Setting up fc8-1
I0808 20:34:38.858970  4679 net.cpp:158] Top shape: 128 101 (12928)
I0808 20:34:38.858997  4679 layer_factory.hpp:74] Creating layer loss
I0808 20:34:38.859007  4679 net.cpp:91] Creating Layer loss
I0808 20:34:38.859014  4679 net.cpp:452] loss <- fc8-1
I0808 20:34:38.859019  4679 net.cpp:452] loss <- label
I0808 20:34:38.859025  4679 net.cpp:119] This layer is inheriting previous layer's sync mode: 0
I0808 20:34:38.859030  4679 net.cpp:408] loss -> (automatic)
…
    mean_value: 128
    mean_value: 128
    mean_value: 128
    mean_value: 128
    mean_value: 128
    mean_value: 128
    mean_value: 128
    mean_value: 128
    mean_value: 128
    mean_value: 128
    mean_value: 128
    mean_value: 128
    mean_value: 128
    mean_value: 128
    mean_value: 128
    mean_value: 128
    mean_value: 128
    mean_value: 128
    fix_crop: true
    is_flow: true
  }
  video_data_param {
    source: "/home/jiri/Lake/HAR/datasets/UCF-101/val-2-rnd.txt"
    batch_size: 5
    new_length: 10
    num_segments: 1
    modality: FLOW
  }
}
layer {
  name: "conv1_1"
  type: "Convolution"
  bottom: "data"
  top: "conv1_1"
  param {
    lr_mult: 1
    decay_mult: 1
  }
  param {
    lr_mult: 2
    decay_mult: 0
  }
  convolution_param {
    num_output: 64
    pad: 1
    kernel_size: 3
    weight_filler {
      type: "xavier"
    }
  }
}
layer {
  name: "relu1_1"
  type: "ReLU"
  bottom: "conv1_1"
  top: "conv1_1"
}
layer {
  name: "conv1_2"
  type: "Convolution"
  bottom: "conv1_1"
  top: "conv1_2"
  param {
    lr_mult: 1
    decay_mult: 1
  }
  param {
    lr_mult: 2
    decay_mult: 0
  }
  convolution_param {
    num_output: 64
    pad: 1
    kernel_size: 3
    weight_filler {
      type: "xavier"
    }
  }
}
layer {
  name: "relu1_2"
  type: "ReLU"
  bottom: "conv1_2"
  top: "conv1_2"
}
layer {
  name: "pool1"
  type: "Pooling"
  bottom: "conv1_2"
  top: "pool1"
  pooling_param {
    pool: MAX
    kernel_size: 2
    stride: 2
  }
}
layer {
  name: "conv2_1"
  type: "Convolution"
  bottom: "pool1"
  top: "conv2_1"
  param {
    lr_mult: 1
    decay_mult: 1
  }
  param {
    lr_mult: 2
    decay_mult: 0
  }
  convolution_param {
    num_output: 128
    pad: 1
    kernel_size: 3
    weight_filler {
      type: "xavier"
    }
  }
}
layer {
  name: "relu2_1"
  type: "ReLU"
  bottom: "conv2_1"
  top: "conv2_1"
}
layer {
  name: "conv2_2"
  type: "Convolution"
  bottom: "conv2_1"
  top: "conv2_2"
  param {
    lr_mult: 1
    decay_mult: 1
  }
  param {
    lr_mult: 2
    decay_mult: 0
  }
  convolution_param {
    num_output: 128
    pad: 1
    kernel_size: 3
    weight_filler {
      type: "xavier"
    }
  }
}
layer {
  name: "relu2_2"
  type: "ReLU"
  bottom: "conv2_2"
  top: "conv2_2"
}
layer {
  name: "pool2"
  type: "Pooling"
  bottom: "conv2_2"
  top: "pool2"
  pooling_param {
    pool: MAX
    kernel_size: 2
    stride: 2
  }
}
layer {
  name: "conv3_1"
  type: "Convolution"
  bottom: "pool2"
  top: "conv3_1"
  param {
    lr_mult: 1
    decay_mult: 1
  }
  param {
    lr_mult: 2
    decay_mult: 0
  }
  convolution_param {
    num_output: 256
    pad: 1
    kernel_size: 3
    weight_filler {
      type: "xavier"
    }
  }
}
layer {
  name: "relu3_1"
  type: "ReLU"
  bottom: "conv3_1"
  top: "conv3_1"
}
layer {
  name: "conv3_2"
  type: "Convolution"
  bottom: "conv3_1"
  top: "conv3_2"
  param {
    lr_mult: 1
    decay_mult: 1
  }
  param {
    lr_mult: 2
    decay_mult: 0
  }
  convolution_param {
    num_output: 256
    pad: 1
    kernel_size: 3
    weight_filler {
      type: "xavier"
    }
  }
}
layer {
  name: "relu3_2"
  type: "ReLU"
  bottom: "conv3_2"
  top: "conv3_2"
}
layer {
  name: "conv3_3"
  type: "Convolution"
  bottom: "conv3_2"
  top: "conv3_3"
  param {
    lr_mult: 1
    decay_mult: 1
  }
  param {
    lr_mult: 2
    decay_mult: 0
  }
  convolution_param {
    num_output: 256
    pad: 1
    kernel_size: 3
    weight_filler {
      type: "xavier"
    }
  }
}
layer {
  name: "relu3_3"
  type: "ReLU"
  bottom: "conv3_3"
  top: "conv3_3"
}
layer {
  name: "pool3"
  type: "Pooling"
  bottom: "conv3_3"
  top: "pool3"
  pooling_param {
    pool: MAX
    kernel_size: 2
    stride: 2
  }
}
layer {
  name: "conv4_1"
  type: "Convolution"
  bottom: "pool3"
  top: "conv4_1"
  param {
    lr_mult: 1
    decay_mult: 1
  }
  param {
    lr_mult: 2
    decay_mult: 0
  }
  convolution_param {
    num_output: 512
    pad: 1
    kernel_size: 3
    weight_filler {
      type: "xavier"
    }
  }
}
layer {
  name: "relu4_1"
  type: "ReLU"
  bottom: "conv4_1"
  top: "conv4_1"
}
layer {
  name: "conv4_2"
  type: "Convolution"
  bottom: "conv4_1"
  top: "conv4_2"
  param {
    lr_mult: 1
    decay_mult: 1
  }
  param {
    lr_mult: 2
    decay_mult: 0
  }
  convolution_param {
    num_output: 512
    pad: 1
    kernel_size: 3
    weight_filler {
      type: "xavier"
    }
  }
}
layer {
  name: "relu4_2"
  type: "ReLU"
  bottom: "conv4_2"
  top: "conv4_2"
}
layer {
  name: "conv4_3"
  type: "Convolution"
  bottom: "conv4_2"
  top: "conv4_3"
  param {
    lr_mult: 1
    decay_mult: 1
  }
  param {
    lr_mult: 2
    decay_mult: 0
  }
  convolution_param {
    num_output: 512
    pad: 1
    kernel_size: 3
    weight_filler {
      type: "xavier"
    }
  }
}
layer {
  name: "relu4_3"
  type: "ReLU"
  bottom: "conv4_3"
  top: "conv4_3"
}
layer {
  name: "pool4"
  type: "Pooling"
  bottom: "conv4_3"
  top: "pool4"
  pooling_param {
    pool: MAX
    kernel_size: 2
    stride: 2
  }
}
layer {
  name: "conv5_1"
  type: "Convolution"
  bottom: "pool4"
  top: "conv5_1"
  param {
    lr_mult: 1
    decay_mult: 1
  }
  param {
    lr_mult: 2
    decay_mult: 0
  }
  convolution_param {
    num_output: 512
    pad: 1
    kernel_size: 3
    weight_filler {
      type: "xavier"
    }
  }
}
layer {
  name: "relu5_1"
  type: "ReLU"
  bottom: "conv5_1"
  top: "conv5_1"
}
layer {
  name: "conv5_2"
  type: "Convolution"
  bottom: "conv5_1"
  top: "conv5_2"
  param {
    lr_mult: 1
    decay_mult: 1
  }
  param {
    lr_mult: 2
    decay_mult: 0
  }
  convolution_param {
    num_output: 512
    pad: 1
    kernel_size: 3
    weight_filler {
      type: "xavier"
    }
  }
}
layer {
  name: "relu5_2"
  type: "ReLU"
  bottom: "conv5_2"
  top: "conv5_2"
}
layer {
  name: "conv5_3"
  type: "Convolution"
  bottom: "conv5_2"
  top: "conv5_3"
  param {
    lr_mult: 1
    decay_mult: 1
  }
  param {
    lr_mult: 2
    decay_mult: 0
  }
  convolution_param {
    num_output: 512
    pad: 1
    kernel_size: 3
    weight_filler {
      type: "xavier"
    }
  }
}
layer {
  name: "relu5_3"
  type: "ReLU"
  bottom: "conv5_3"
  top: "conv5_3"
}
layer {
  name: "pool5"
  type: "Pooling"
  bottom: "conv5_3"
  top: "pool5_local"
  pooling_param {
    pool: MAX
    kernel_size: 2
    stride: 2
  }
}
layer {
  name: "gather"
  type: "Gather"
  bottom: "pool5_local"
  bottom: "label_local"
  top: "pool5"
  top: "label"
}
layer {
  name: "fc6"
  type: "InnerProduct"
  bottom: "pool5"
  top: "fc6"
  param {
    lr_mult: 1
    decay_mult: 1
  }
  param {
    lr_mult: 2
    decay_mult: 0
  }
  inner_product_param {
    num_output: 4096
    weight_filler {
      type: "xavier"
    }
  }
}
layer {
  name: "relu6"
  type: "ReLU"
  bottom: "fc6"
  top: "fc6"
}
layer {
  name: "drop6"
  type: "Dropout"
  bottom: "fc6"
  top: "fc6"
  dropout_param {
    dropout_ratio: 0.9
  }
}
layer {
  name: "fc7"
  type: "InnerProduct"
  bottom: "fc6"
  top: "fc7"
  param {
    lr_mult: 1
    decay_mult: 1
  }
  param {
    lr_mult: 2
    decay_mult: 0
  }
  inner_product_param {
    num_output: 4096
    weight_filler {
      type: "xavier"
    }
  }
}
layer {
  name: "relu7"
  type: "ReLU"
  bottom: "fc7"
  top: "fc7"
}
layer {
  name: "drop7"
  type: "Dropout"
  bottom: "fc7"
  top: "fc7"
  dropout_param {
    dropout_ratio: 0.8
  }
}
layer {
  name: "fc8-1"
  type: "InnerProduct"
  bottom: "fc7"
  top: "fc8-1"
  param {
    lr_mult: 1
    decay_mult: 1
  }
  param {
    lr_mult: 2
    decay_mult: 0
  }
  inner_product_param {
    num_output: 101
    weight_filler {
      type: "gaussian"
      std: 0.001
    }
    bias_filler {
      type: "constant"
      value: 0
    }
  }
}
layer {
  name: "loss"
  type: "SoftmaxWithLoss"
  bottom: "fc8-1"
  bottom: "label"
  top: "loss"
  include {
    phase: TEST
  }
}
layer {
  name: "accuracy"
  type: "Accuracy"
  bottom: "fc8-1"
  bottom: "label"
  top: "accuracy"
  include {
    phase: TEST
  }
}
I0808 20:34:38.861726  4679 layer_factory.hpp:74] Creating layer data
I0808 20:34:38.861738  4679 net.cpp:91] Creating Layer data
I0808 20:34:38.861744  4679 net.cpp:408] data -> data
I0808 20:34:38.861754  4679 net.cpp:408] data -> label_local
I0808 20:34:38.861763  4679 net.cpp:151] Setting up data
I0808 20:34:38.861769  4679 video_data_layer.cpp:34] Opening file: /home/jiri/Lake/HAR/datasets/UCF-101/val-2-rnd.txt
I0808 20:34:38.864581  4679 video_data_layer.cpp:50] A total of 3783 videos.
I0808 20:34:38.881763  4679 video_data_layer.cpp:76] output data size: 5,20,224,224
I0808 20:34:38.885298  4679 net.cpp:158] Top shape: 5 20 224 224 (5017600)
I0808 20:34:38.885321  4679 net.cpp:158] Top shape: 5 1 1 1 (5)
I0808 20:34:38.885329  4679 layer_factory.hpp:74] Creating layer conv1_1
I0808 20:34:38.885347  4679 net.cpp:91] Creating Layer conv1_1
I0808 20:34:38.885352  4679 net.cpp:452] conv1_1 <- data
I0808 20:34:38.885360  4679 net.cpp:119] This layer is inheriting previous layer's sync mode: 1
I0808 20:34:38.885366  4679 net.cpp:408] conv1_1 -> conv1_1
I0808 20:34:38.885378  4679 net.cpp:151] Setting up conv1_1
I0808 20:34:38.885967  4679 net.cpp:158] Top shape: 5 64 224 224 (16056320)
I0808 20:34:38.885987  4679 layer_factory.hpp:74] Creating layer relu1_1
I0808 20:34:38.885995  4679 net.cpp:91] Creating Layer relu1_1
I0808 20:34:38.885999  4679 net.cpp:452] relu1_1 <- conv1_1
I0808 20:34:38.886004  4679 net.cpp:119] This layer is inheriting previous layer's sync mode: 1
I0808 20:34:38.886008  4679 net.cpp:397] relu1_1 -> conv1_1 (in-place)
I0808 20:34:38.886014  4679 net.cpp:151] Setting up relu1_1
I0808 20:34:38.886075  4679 net.cpp:158] Top shape: 5 64 224 224 (16056320)
I0808 20:34:38.886080  4679 layer_factory.hpp:74] Creating layer conv1_2
I0808 20:34:38.886088  4679 net.cpp:91] Creating Layer conv1_2
I0808 20:34:38.886091  4679 net.cpp:452] conv1_2 <- conv1_1
I0808 20:34:38.886096  4679 net.cpp:119] This layer is inheriting previous layer's sync mode: 1
I0808 20:34:38.886101  4679 net.cpp:408] conv1_2 -> conv1_2
I0808 20:34:38.886106  4679 net.cpp:151] Setting up conv1_2
I0808 20:34:38.886760  4679 net.cpp:158] Top shape: 5 64 224 224 (16056320)
I0808 20:34:38.886780  4679 layer_factory.hpp:74] Creating layer relu1_2
I0808 20:34:38.886790  4679 net.cpp:91] Creating Layer relu1_2
I0808 20:34:38.886793  4679 net.cpp:452] relu1_2 <- conv1_2
I0808 20:34:38.886798  4679 net.cpp:119] This layer is inheriting previous layer's sync mode: 1
I0808 20:34:38.886803  4679 net.cpp:397] relu1_2 -> conv1_2 (in-place)
I0808 20:34:38.886809  4679 net.cpp:151] Setting up relu1_2
I0808 20:34:38.886873  4679 net.cpp:158] Top shape: 5 64 224 224 (16056320)
I0808 20:34:38.886878  4679 layer_factory.hpp:74] Creating layer pool1
I0808 20:34:38.886885  4679 net.cpp:91] Creating Layer pool1
I0808 20:34:38.886889  4679 net.cpp:452] pool1 <- conv1_2
I0808 20:34:38.886893  4679 net.cpp:119] This layer is inheriting previous layer's sync mode: 1
I0808 20:34:38.886898  4679 net.cpp:408] pool1 -> pool1
I0808 20:34:38.886904  4679 net.cpp:151] Setting up pool1
I0808 20:34:38.886970  4679 net.cpp:158] Top shape: 5 64 112 112 (4014080)
I0808 20:34:38.886977  4679 layer_factory.hpp:74] Creating layer conv2_1
I0808 20:34:38.886986  4679 net.cpp:91] Creating Layer conv2_1
I0808 20:34:38.886991  4679 net.cpp:452] conv2_1 <- pool1
I0808 20:34:38.887030  4679 net.cpp:119] This layer is inheriting previous layer's sync mode: 1
I0808 20:34:38.887037  4679 net.cpp:408] conv2_1 -> conv2_1
I0808 20:34:38.887045  4679 net.cpp:151] Setting up conv2_1
I0808 20:34:38.887971  4679 net.cpp:158] Top shape: 5 128 112 112 (8028160)
I0808 20:34:38.887995  4679 layer_factory.hpp:74] Creating layer relu2_1
I0808 20:34:38.888003  4679 net.cpp:91] Creating Layer relu2_1
I0808 20:34:38.888007  4679 net.cpp:452] relu2_1 <- conv2_1
I0808 20:34:38.888013  4679 net.cpp:119] This layer is inheriting previous layer's sync mode: 1
I0808 20:34:38.888017  4679 net.cpp:397] relu2_1 -> conv2_1 (in-place)
I0808 20:34:38.888023  4679 net.cpp:151] Setting up relu2_1
I0808 20:34:38.888218  4679 net.cpp:158] Top shape: 5 128 112 112 (8028160)
I0808 20:34:38.888229  4679 layer_factory.hpp:74] Creating layer conv2_2
I0808 20:34:38.888241  4679 net.cpp:91] Creating Layer conv2_2
I0808 20:34:38.888244  4679 net.cpp:452] conv2_2 <- conv2_1
I0808 20:34:38.888250  4679 net.cpp:119] This layer is inheriting previous layer's sync mode: 1
I0808 20:34:38.888255  4679 net.cpp:408] conv2_2 -> conv2_2
I0808 20:34:38.888263  4679 net.cpp:151] Setting up conv2_2
I0808 20:34:38.889580  4679 net.cpp:158] Top shape: 5 128 112 112 (8028160)
I0808 20:34:38.889592  4679 layer_factory.hpp:74] Creating layer relu2_2
I0808 20:34:38.889600  4679 net.cpp:91] Creating Layer relu2_2
I0808 20:34:38.889603  4679 net.cpp:452] relu2_2 <- conv2_2
I0808 20:34:38.889608  4679 net.cpp:119] This layer is inheriting previous layer's sync mode: 1
I0808 20:34:38.889612  4679 net.cpp:397] relu2_2 -> conv2_2 (in-place)
I0808 20:34:38.889618  4679 net.cpp:151] Setting up relu2_2
I0808 20:34:38.889678  4679 net.cpp:158] Top shape: 5 128 112 112 (8028160)
I0808 20:34:38.889681  4679 layer_factory.hpp:74] Creating layer pool2
I0808 20:34:38.889689  4679 net.cpp:91] Creating Layer pool2
I0808 20:34:38.889693  4679 net.cpp:452] pool2 <- conv2_2
I0808 20:34:38.889696  4679 net.cpp:119] This layer is inheriting previous layer's sync mode: 1
I0808 20:34:38.889701  4679 net.cpp:408] pool2 -> pool2
I0808 20:34:38.889706  4679 net.cpp:151] Setting up pool2
I0808 20:34:38.889767  4679 net.cpp:158] Top shape: 5 128 56 56 (2007040)
I0808 20:34:38.889775  4679 layer_factory.hpp:74] Creating layer conv3_1
I0808 20:34:38.889781  4679 net.cpp:91] Creating Layer conv3_1
I0808 20:34:38.889786  4679 net.cpp:452] conv3_1 <- pool2
I0808 20:34:38.889789  4679 net.cpp:119] This layer is inheriting previous layer's sync mode: 1
I0808 20:34:38.889794  4679 net.cpp:408] conv3_1 -> conv3_1
I0808 20:34:38.889802  4679 net.cpp:151] Setting up conv3_1
I0808 20:34:38.892082  4679 net.cpp:158] Top shape: 5 256 56 56 (4014080)
I0808 20:34:38.892102  4679 layer_factory.hpp:74] Creating layer relu3_1
I0808 20:34:38.892110  4679 net.cpp:91] Creating Layer relu3_1
I0808 20:34:38.892114  4679 net.cpp:452] relu3_1 <- conv3_1
I0808 20:34:38.892120  4679 net.cpp:119] This layer is inheriting previous layer's sync mode: 1
I0808 20:34:38.892125  4679 net.cpp:397] relu3_1 -> conv3_1 (in-place)
I0808 20:34:38.892132  4679 net.cpp:151] Setting up relu3_1
I0808 20:34:38.892339  4679 net.cpp:158] Top shape: 5 256 56 56 (4014080)
I0808 20:34:38.892350  4679 layer_factory.hpp:74] Creating layer conv3_2
I0808 20:34:38.892359  4679 net.cpp:91] Creating Layer conv3_2
I0808 20:34:38.892364  4679 net.cpp:452] conv3_2 <- conv3_1
I0808 20:34:38.892369  4679 net.cpp:119] This layer is inheriting previous layer's sync mode: 1
I0808 20:34:38.892374  4679 net.cpp:408] conv3_2 -> conv3_2
I0808 20:34:38.892382  4679 net.cpp:151] Setting up conv3_2
I0808 20:34:38.898361  4679 net.cpp:158] Top shape: 5 256 56 56 (4014080)
I0808 20:34:38.898387  4679 layer_factory.hpp:74] Creating layer relu3_2
I0808 20:34:38.898398  4679 net.cpp:91] Creating Layer relu3_2
I0808 20:34:38.898404  4679 net.cpp:452] relu3_2 <- conv3_2
I0808 20:34:38.898411  4679 net.cpp:119] This layer is inheriting previous layer's sync mode: 1
I0808 20:34:38.898418  4679 net.cpp:397] relu3_2 -> conv3_2 (in-place)
I0808 20:34:38.898450  4679 net.cpp:151] Setting up relu3_2
I0808 20:34:38.898533  4679 net.cpp:158] Top shape: 5 256 56 56 (4014080)
I0808 20:34:38.898543  4679 layer_factory.hpp:74] Creating layer conv3_3
I0808 20:34:38.898555  4679 net.cpp:91] Creating Layer conv3_3
I0808 20:34:38.898558  4679 net.cpp:452] conv3_3 <- conv3_2
I0808 20:34:38.898565  4679 net.cpp:119] This layer is inheriting previous layer's sync mode: 1
I0808 20:34:38.898569  4679 net.cpp:408] conv3_3 -> conv3_3
I0808 20:34:38.898578  4679 net.cpp:151] Setting up conv3_3
I0808 20:34:38.906492  4679 net.cpp:158] Top shape: 5 256 56 56 (4014080)
I0808 20:34:38.906519  4679 layer_factory.hpp:74] Creating layer relu3_3
I0808 20:34:38.906533  4679 net.cpp:91] Creating Layer relu3_3
I0808 20:34:38.906538  4679 net.cpp:452] relu3_3 <- conv3_3
I0808 20:34:38.906546  4679 net.cpp:119] This layer is inheriting previous layer's sync mode: 1
I0808 20:34:38.906551  4679 net.cpp:397] relu3_3 -> conv3_3 (in-place)
I0808 20:34:38.906559  4679 net.cpp:151] Setting up relu3_3
I0808 20:34:38.906642  4679 net.cpp:158] Top shape: 5 256 56 56 (4014080)
I0808 20:34:38.906652  4679 layer_factory.hpp:74] Creating layer pool3
I0808 20:34:38.906661  4679 net.cpp:91] Creating Layer pool3
I0808 20:34:38.906664  4679 net.cpp:452] pool3 <- conv3_3
I0808 20:34:38.906669  4679 net.cpp:119] This layer is inheriting previous layer's sync mode: 1
I0808 20:34:38.906676  4679 net.cpp:408] pool3 -> pool3
I0808 20:34:38.906682  4679 net.cpp:151] Setting up pool3
I0808 20:34:38.906791  4679 net.cpp:158] Top shape: 5 256 28 28 (1003520)
I0808 20:34:38.906802  4679 layer_factory.hpp:74] Creating layer conv4_1
I0808 20:34:38.906815  4679 net.cpp:91] Creating Layer conv4_1
I0808 20:34:38.906819  4679 net.cpp:452] conv4_1 <- pool3
I0808 20:34:38.906824  4679 net.cpp:119] This layer is inheriting previous layer's sync mode: 1
I0808 20:34:38.906831  4679 net.cpp:408] conv4_1 -> conv4_1
I0808 20:34:38.906838  4679 net.cpp:151] Setting up conv4_1
I0808 20:34:38.927510  4679 net.cpp:158] Top shape: 5 512 28 28 (2007040)
I0808 20:34:38.927538  4679 layer_factory.hpp:74] Creating layer relu4_1
I0808 20:34:38.927553  4679 net.cpp:91] Creating Layer relu4_1
I0808 20:34:38.927559  4679 net.cpp:452] relu4_1 <- conv4_1
I0808 20:34:38.927567  4679 net.cpp:119] This layer is inheriting previous layer's sync mode: 1
I0808 20:34:38.927572  4679 net.cpp:397] relu4_1 -> conv4_1 (in-place)
I0808 20:34:38.927579  4679 net.cpp:151] Setting up relu4_1
I0808 20:34:38.927852  4679 net.cpp:158] Top shape: 5 512 28 28 (2007040)
I0808 20:34:38.927863  4679 layer_factory.hpp:74] Creating layer conv4_2
I0808 20:34:38.927875  4679 net.cpp:91] Creating Layer conv4_2
I0808 20:34:38.927880  4679 net.cpp:452] conv4_2 <- conv4_1
I0808 20:34:38.927883  4679 net.cpp:119] This layer is inheriting previous layer's sync mode: 1
I0808 20:34:38.927891  4679 net.cpp:408] conv4_2 -> conv4_2
I0808 20:34:38.927898  4679 net.cpp:151] Setting up conv4_2
I0808 20:34:38.960042  4679 net.cpp:158] Top shape: 5 512 28 28 (2007040)
I0808 20:34:38.960074  4679 layer_factory.hpp:74] Creating layer relu4_2
I0808 20:34:38.960085  4679 net.cpp:91] Creating Layer relu4_2
I0808 20:34:38.960093  4679 net.cpp:452] relu4_2 <- conv4_2
I0808 20:34:38.960100  4679 net.cpp:119] This layer is inheriting previous layer's sync mode: 1
I0808 20:34:38.960105  4679 net.cpp:397] relu4_2 -> conv4_2 (in-place)
I0808 20:34:38.960113  4679 net.cpp:151] Setting up relu4_2
I0808 20:34:38.960191  4679 net.cpp:158] Top shape: 5 512 28 28 (2007040)
I0808 20:34:38.960196  4679 layer_factory.hpp:74] Creating layer conv4_3
I0808 20:34:38.960206  4679 net.cpp:91] Creating Layer conv4_3
I0808 20:34:38.960208  4679 net.cpp:452] conv4_3 <- conv4_2
I0808 20:34:38.960212  4679 net.cpp:119] This layer is inheriting previous layer's sync mode: 1
I0808 20:34:38.960219  4679 net.cpp:408] conv4_3 -> conv4_3
I0808 20:34:38.960227  4679 net.cpp:151] Setting up conv4_3
I0808 20:34:38.999866  4679 net.cpp:158] Top shape: 5 512 28 28 (2007040)
I0808 20:34:38.999893  4679 layer_factory.hpp:74] Creating layer relu4_3
I0808 20:34:38.999923  4679 net.cpp:91] Creating Layer relu4_3
I0808 20:34:38.999929  4679 net.cpp:452] relu4_3 <- conv4_3
I0808 20:34:38.999938  4679 net.cpp:119] This layer is inheriting previous layer's sync mode: 1
I0808 20:34:38.999948  4679 net.cpp:397] relu4_3 -> conv4_3 (in-place)
I0808 20:34:38.999956  4679 net.cpp:151] Setting up relu4_3
I0808 20:34:39.000026  4679 net.cpp:158] Top shape: 5 512 28 28 (2007040)
I0808 20:34:39.000032  4679 layer_factory.hpp:74] Creating layer pool4
I0808 20:34:39.000041  4679 net.cpp:91] Creating Layer pool4
I0808 20:34:39.000044  4679 net.cpp:452] pool4 <- conv4_3
I0808 20:34:39.000048  4679 net.cpp:119] This layer is inheriting previous layer's sync mode: 1
I0808 20:34:39.000054  4679 net.cpp:408] pool4 -> pool4
I0808 20:34:39.000061  4679 net.cpp:151] Setting up pool4
I0808 20:34:39.000128  4679 net.cpp:158] Top shape: 5 512 14 14 (501760)
I0808 20:34:39.000136  4679 layer_factory.hpp:74] Creating layer conv5_1
I0808 20:34:39.000145  4679 net.cpp:91] Creating Layer conv5_1
I0808 20:34:39.000149  4679 net.cpp:452] conv5_1 <- pool4
I0808 20:34:39.000154  4679 net.cpp:119] This layer is inheriting previous layer's sync mode: 1
I0808 20:34:39.000159  4679 net.cpp:408] conv5_1 -> conv5_1
I0808 20:34:39.000169  4679 net.cpp:151] Setting up conv5_1
I0808 20:34:39.016716  4679 net.cpp:158] Top shape: 5 512 14 14 (501760)
I0808 20:34:39.016742  4679 layer_factory.hpp:74] Creating layer relu5_1
I0808 20:34:39.016753  4679 net.cpp:91] Creating Layer relu5_1
I0808 20:34:39.016759  4679 net.cpp:452] relu5_1 <- conv5_1
I0808 20:34:39.016767  4679 net.cpp:119] This layer is inheriting previous layer's sync mode: 1
I0808 20:34:39.016772  4679 net.cpp:397] relu5_1 -> conv5_1 (in-place)
I0808 20:34:39.016782  4679 net.cpp:151] Setting up relu5_1
I0808 20:34:39.016989  4679 net.cpp:158] Top shape: 5 512 14 14 (501760)
I0808 20:34:39.016999  4679 layer_factory.hpp:74] Creating layer conv5_2
I0808 20:34:39.017010  4679 net.cpp:91] Creating Layer conv5_2
I0808 20:34:39.017014  4679 net.cpp:452] conv5_2 <- conv5_1
I0808 20:34:39.017020  4679 net.cpp:119] This layer is inheriting previous layer's sync mode: 1
I0808 20:34:39.017027  4679 net.cpp:408] conv5_2 -> conv5_2
I0808 20:34:39.017036  4679 net.cpp:151] Setting up conv5_2
I0808 20:34:39.034672  4679 net.cpp:158] Top shape: 5 512 14 14 (501760)
I0808 20:34:39.034695  4679 layer_factory.hpp:74] Creating layer relu5_2
I0808 20:34:39.034704  4679 net.cpp:91] Creating Layer relu5_2
I0808 20:34:39.034709  4679 net.cpp:452] relu5_2 <- conv5_2
I0808 20:34:39.034715  4679 net.cpp:119] This layer is inheriting previous layer's sync mode: 1
I0808 20:34:39.034720  4679 net.cpp:397] relu5_2 -> conv5_2 (in-place)
I0808 20:34:39.034728  4679 net.cpp:151] Setting up relu5_2
I0808 20:34:39.034800  4679 net.cpp:158] Top shape: 5 512 14 14 (501760)
I0808 20:34:39.034807  4679 layer_factory.hpp:74] Creating layer conv5_3
I0808 20:34:39.034816  4679 net.cpp:91] Creating Layer conv5_3
I0808 20:34:39.034819  4679 net.cpp:452] conv5_3 <- conv5_2
I0808 20:34:39.034824  4679 net.cpp:119] This layer is inheriting previous layer's sync mode: 1
I0808 20:34:39.034831  4679 net.cpp:408] conv5_3 -> conv5_3
I0808 20:34:39.034837  4679 net.cpp:151] Setting up conv5_3
I0808 20:34:39.066609  4679 net.cpp:158] Top shape: 5 512 14 14 (501760)
I0808 20:34:39.066634  4679 layer_factory.hpp:74] Creating layer relu5_3
I0808 20:34:39.066645  4679 net.cpp:91] Creating Layer relu5_3
I0808 20:34:39.066651  4679 net.cpp:452] relu5_3 <- conv5_3
I0808 20:34:39.066656  4679 net.cpp:119] This layer is inheriting previous layer's sync mode: 1
I0808 20:34:39.066661  4679 net.cpp:397] relu5_3 -> conv5_3 (in-place)
I0808 20:34:39.066669  4679 net.cpp:151] Setting up relu5_3
I0808 20:34:39.066738  4679 net.cpp:158] Top shape: 5 512 14 14 (501760)
I0808 20:34:39.066747  4679 layer_factory.hpp:74] Creating layer pool5
I0808 20:34:39.066756  4679 net.cpp:91] Creating Layer pool5
I0808 20:34:39.066759  4679 net.cpp:452] pool5 <- conv5_3
I0808 20:34:39.066763  4679 net.cpp:119] This layer is inheriting previous layer's sync mode: 1
I0808 20:34:39.066795  4679 net.cpp:408] pool5 -> pool5_local
I0808 20:34:39.066802  4679 net.cpp:151] Setting up pool5
I0808 20:34:39.066891  4679 net.cpp:158] Top shape: 5 512 7 7 (125440)
I0808 20:34:39.066901  4679 layer_factory.hpp:74] Creating layer gather
I0808 20:34:39.066913  4679 net.cpp:91] Creating Layer gather
I0808 20:34:39.066918  4679 net.cpp:452] gather <- pool5_local
I0808 20:34:39.066923  4679 net.cpp:452] gather <- label_local
I0808 20:34:39.066931  4679 net.cpp:408] gather -> pool5
I0808 20:34:39.066941  4679 net.cpp:408] gather -> label
I0808 20:34:39.066947  4679 net.cpp:151] Setting up gather
I0808 20:34:39.066956  4679 net.cpp:158] Top shape: 10 512 7 7 (250880)
I0808 20:34:39.066962  4679 net.cpp:158] Top shape: 10 1 1 1 (10)
I0808 20:34:39.066965  4679 layer_factory.hpp:74] Creating layer label_gather_1_split
I0808 20:34:39.066972  4679 net.cpp:91] Creating Layer label_gather_1_split
I0808 20:34:39.066977  4679 net.cpp:452] label_gather_1_split <- label
I0808 20:34:39.066982  4679 net.cpp:119] This layer is inheriting previous layer's sync mode: 0
I0808 20:34:39.066987  4679 net.cpp:408] label_gather_1_split -> label_gather_1_split_0
I0808 20:34:39.066994  4679 net.cpp:408] label_gather_1_split -> label_gather_1_split_1
I0808 20:34:39.067000  4679 net.cpp:151] Setting up label_gather_1_split
I0808 20:34:39.067008  4679 net.cpp:158] Top shape: 10 1 1 1 (10)
I0808 20:34:39.067013  4679 net.cpp:158] Top shape: 10 1 1 1 (10)
I0808 20:34:39.067018  4679 layer_factory.hpp:74] Creating layer fc6
I0808 20:34:39.067025  4679 net.cpp:91] Creating Layer fc6
I0808 20:34:39.067029  4679 net.cpp:452] fc6 <- pool5
I0808 20:34:39.067034  4679 net.cpp:119] This layer is inheriting previous layer's sync mode: 0
I0808 20:34:39.067041  4679 net.cpp:408] fc6 -> fc6
I0808 20:34:39.067049  4679 net.cpp:151] Setting up fc6
I0808 20:34:39.665571  4679 net.cpp:158] Top shape: 10 4096 (40960)
I0808 20:34:39.665597  4679 layer_factory.hpp:74] Creating layer relu6
I0808 20:34:39.665611  4679 net.cpp:91] Creating Layer relu6
I0808 20:34:39.665614  4679 net.cpp:452] relu6 <- fc6
I0808 20:34:39.665619  4679 net.cpp:119] This layer is inheriting previous layer's sync mode: 0
I0808 20:34:39.665622  4679 net.cpp:397] relu6 -> fc6 (in-place)
I0808 20:34:39.665628  4679 net.cpp:151] Setting up relu6
I0808 20:34:39.665907  4679 net.cpp:158] Top shape: 10 4096 (40960)
I0808 20:34:39.665915  4679 layer_factory.hpp:74] Creating layer drop6
I0808 20:34:39.665921  4679 net.cpp:91] Creating Layer drop6
I0808 20:34:39.665925  4679 net.cpp:452] drop6 <- fc6
I0808 20:34:39.665927  4679 net.cpp:119] This layer is inheriting previous layer's sync mode: 0
I0808 20:34:39.665930  4679 net.cpp:397] drop6 -> fc6 (in-place)
I0808 20:34:39.665935  4679 net.cpp:151] Setting up drop6
I0808 20:34:39.665940  4679 net.cpp:158] Top shape: 10 4096 (40960)
I0808 20:34:39.665942  4679 layer_factory.hpp:74] Creating layer fc7
I0808 20:34:39.665948  4679 net.cpp:91] Creating Layer fc7
I0808 20:34:39.665951  4679 net.cpp:452] fc7 <- fc6
I0808 20:34:39.665954  4679 net.cpp:119] This layer is inheriting previous layer's sync mode: 0
I0808 20:34:39.665957  4679 net.cpp:408] fc7 -> fc7
I0808 20:34:39.665962  4679 net.cpp:151] Setting up fc7
I0808 20:34:39.747966  4679 net.cpp:158] Top shape: 10 4096 (40960)
I0808 20:34:39.747989  4679 layer_factory.hpp:74] Creating layer relu7
I0808 20:34:39.747997  4679 net.cpp:91] Creating Layer relu7
I0808 20:34:39.748002  4679 net.cpp:452] relu7 <- fc7
I0808 20:34:39.748006  4679 net.cpp:119] This layer is inheriting previous layer's sync mode: 0
I0808 20:34:39.748009  4679 net.cpp:397] relu7 -> fc7 (in-place)
I0808 20:34:39.748014  4679 net.cpp:151] Setting up relu7
I0808 20:34:39.748103  4679 net.cpp:158] Top shape: 10 4096 (40960)
I0808 20:34:39.748109  4679 layer_factory.hpp:74] Creating layer drop7
I0808 20:34:39.748114  4679 net.cpp:91] Creating Layer drop7
I0808 20:34:39.748116  4679 net.cpp:452] drop7 <- fc7
I0808 20:34:39.748121  4679 net.cpp:119] This layer is inheriting previous layer's sync mode: 0
I0808 20:34:39.748142  4679 net.cpp:397] drop7 -> fc7 (in-place)
I0808 20:34:39.748147  4679 net.cpp:151] Setting up drop7
I0808 20:34:39.748152  4679 net.cpp:158] Top shape: 10 4096 (40960)
I0808 20:34:39.748154  4679 layer_factory.hpp:74] Creating layer fc8-1
I0808 20:34:39.748168  4679 net.cpp:91] Creating Layer fc8-1
I0808 20:34:39.748173  4679 net.cpp:452] fc8-1 <- fc7
I0808 20:34:39.748177  4679 net.cpp:119] This layer is inheriting previous layer's sync mode: 0
I0808 20:34:39.748181  4679 net.cpp:408] fc8-1 -> fc8-1
I0808 20:34:39.748186  4679 net.cpp:151] Setting up fc8-1
I0808 20:34:39.757612  4679 net.cpp:158] Top shape: 10 101 (1010)
I0808 20:34:39.757628  4679 layer_factory.hpp:74] Creating layer fc8-1_fc8-1_0_split
I0808 20:34:39.757635  4679 net.cpp:91] Creating Layer fc8-1_fc8-1_0_split
I0808 20:34:39.757638  4679 net.cpp:452] fc8-1_fc8-1_0_split <- fc8-1
I0808 20:34:39.757642  4679 net.cpp:119] This layer is inheriting previous layer's sync mode: 0
I0808 20:34:39.757647  4679 net.cpp:408] fc8-1_fc8-1_0_split -> fc8-1_fc8-1_0_split_0
I0808 20:34:39.757652  4679 net.cpp:408] fc8-1_fc8-1_0_split -> fc8-1_fc8-1_0_split_1
I0808 20:34:39.757658  4679 net.cpp:151] Setting up fc8-1_fc8-1_0_split
I0808 20:34:39.757661  4679 net.cpp:158] Top shape: 10 101 (1010)
I0808 20:34:39.757664  4679 net.cpp:158] Top shape: 10 101 (1010)
I0808 20:34:39.757666  4679 layer_factory.hpp:74] Creating layer loss
I0808 20:34:39.757673  4679 net.cpp:91] Creating Layer loss
I0808 20:34:39.757674  4679 net.cpp:452] loss <- fc8-1_fc8-1_0_split_0
I0808 20:34:39.757678  4679 net.cpp:452] loss <- label_gather_1_split_0
I0808 20:34:39.757681  4679 net.cpp:119] This layer is inheriting previous layer's sync mode: 0
I0808 20:34:39.757684  4679 net.cpp:408] loss -> loss
…
