…
    mean_value: 128
    mean_value: 128
    mean_value: 128
    mean_value: 128
    mean_value: 128
    mean_value: 128
    mean_value: 128
    mean_value: 128
    mean_value: 128
    mean_value: 128
    mean_value: 128
    mean_value: 128
    fix_crop: true
    multi_scale: true
    scale_ratios: 1
    scale_ratios: 0.875
    scale_ratios: 0.75
    max_distort: 1
    is_flow: true
  }
  video_data_param {
    source: "/home/jiri/Lake/HAR/datasets/UCF-101/train-2-rnd.txt"
    batch_size: 64
    new_length: 10
    num_segments: 1
    modality: FLOW
  }
}
layer {
  name: "conv1_1"
  type: "Convolution"
  bottom: "data"
  top: "conv1_1"
  param {
    lr_mult: 1
    decay_mult: 1
  }
  param {
    lr_mult: 2
    decay_mult: 0
  }
  convolution_param {
    num_output: 64
    pad: 1
    kernel_size: 3
    weight_filler {
      type: "xavier"
    }
  }
}
layer {
  name: "relu1_1"
  type: "ReLU"
  bottom: "conv1_1"
  top: "conv1_1"
}
layer {
  name: "conv1_2"
  type: "Convolution"
  bottom: "conv1_1"
  top: "conv1_2"
  param {
    lr_mult: 1
    decay_mult: 1
  }
  param {
    lr_mult: 2
    decay_mult: 0
  }
  convolution_param {
    num_output: 64
    pad: 1
    kernel_size: 3
    weight_filler {
      type: "xavier"
    }
  }
}
layer {
  name: "relu1_2"
  type: "ReLU"
  bottom: "conv1_2"
  top: "conv1_2"
}
layer {
  name: "pool1"
  type: "Pooling"
  bottom: "conv1_2"
  top: "pool1"
  pooling_param {
    pool: MAX
    kernel_size: 2
    stride: 2
  }
}
layer {
  name: "conv2_1"
  type: "Convolution"
  bottom: "pool1"
  top: "conv2_1"
  param {
    lr_mult: 1
    decay_mult: 1
  }
  param {
    lr_mult: 2
    decay_mult: 0
  }
  convolution_param {
    num_output: 128
    pad: 1
    kernel_size: 3
    weight_filler {
      type: "xavier"
    }
  }
}
layer {
  name: "relu2_1"
  type: "ReLU"
  bottom: "conv2_1"
  top: "conv2_1"
}
layer {
  name: "conv2_2"
  type: "Convolution"
  bottom: "conv2_1"
  top: "conv2_2"
  param {
    lr_mult: 1
    decay_mult: 1
  }
  param {
    lr_mult: 2
    decay_mult: 0
  }
  convolution_param {
    num_output: 128
    pad: 1
    kernel_size: 3
    weight_filler {
      type: "xavier"
    }
  }
}
layer {
  name: "relu2_2"
  type: "ReLU"
  bottom: "conv2_2"
  top: "conv2_2"
}
layer {
  name: "pool2"
  type: "Pooling"
  bottom: "conv2_2"
  top: "pool2"
  pooling_param {
    pool: MAX
    kernel_size: 2
    stride: 2
  }
}
layer {
  name: "conv3_1"
  type: "Convolution"
  bottom: "pool2"
  top: "conv3_1"
  param {
    lr_mult: 1
    decay_mult: 1
  }
  param {
    lr_mult: 2
    decay_mult: 0
  }
  convolution_param {
    num_output: 256
    pad: 1
    kernel_size: 3
    weight_filler {
      type: "xavier"
    }
  }
}
layer {
  name: "relu3_1"
  type: "ReLU"
  bottom: "conv3_1"
  top: "conv3_1"
}
layer {
  name: "conv3_2"
  type: "Convolution"
  bottom: "conv3_1"
  top: "conv3_2"
  param {
    lr_mult: 1
    decay_mult: 1
  }
  param {
    lr_mult: 2
    decay_mult: 0
  }
  convolution_param {
    num_output: 256
    pad: 1
    kernel_size: 3
    weight_filler {
      type: "xavier"
    }
  }
}
layer {
  name: "relu3_2"
  type: "ReLU"
  bottom: "conv3_2"
  top: "conv3_2"
}
layer {
  name: "conv3_3"
  type: "Convolution"
  bottom: "conv3_2"
  top: "conv3_3"
  param {
    lr_mult: 1
    decay_mult: 1
  }
  param {
    lr_mult: 2
    decay_mult: 0
  }
  convolution_param {
    num_output: 256
    pad: 1
    kernel_size: 3
    weight_filler {
      type: "xavier"
    }
  }
}
layer {
  name: "relu3_3"
  type: "ReLU"
  bottom: "conv3_3"
  top: "conv3_3"
}
layer {
  name: "pool3"
  type: "Pooling"
  bottom: "conv3_3"
  top: "pool3"
  pooling_param {
    pool: MAX
    kernel_size: 2
    stride: 2
  }
}
layer {
  name: "conv4_1"
  type: "Convolution"
  bottom: "pool3"
  top: "conv4_1"
  param {
    lr_mult: 1
    decay_mult: 1
  }
  param {
    lr_mult: 2
    decay_mult: 0
  }
  convolution_param {
    num_output: 512
    pad: 1
    kernel_size: 3
    weight_filler {
      type: "xavier"
    }
  }
}
layer {
  name: "relu4_1"
  type: "ReLU"
  bottom: "conv4_1"
  top: "conv4_1"
}
layer {
  name: "conv4_2"
  type: "Convolution"
  bottom: "conv4_1"
  top: "conv4_2"
  param {
    lr_mult: 1
    decay_mult: 1
  }
  param {
    lr_mult: 2
    decay_mult: 0
  }
  convolution_param {
    num_output: 512
    pad: 1
    kernel_size: 3
    weight_filler {
      type: "xavier"
    }
  }
}
layer {
  name: "relu4_2"
  type: "ReLU"
  bottom: "conv4_2"
  top: "conv4_2"
}
layer {
  name: "conv4_3"
  type: "Convolution"
  bottom: "conv4_2"
  top: "conv4_3"
  param {
    lr_mult: 1
    decay_mult: 1
  }
  param {
    lr_mult: 2
    decay_mult: 0
  }
  convolution_param {
    num_output: 512
    pad: 1
    kernel_size: 3
    weight_filler {
      type: "xavier"
    }
  }
}
layer {
  name: "relu4_3"
  type: "ReLU"
  bottom: "conv4_3"
  top: "conv4_3"
}
layer {
  name: "pool4"
  type: "Pooling"
  bottom: "conv4_3"
  top: "pool4"
  pooling_param {
    pool: MAX
    kernel_size: 2
    stride: 2
  }
}
layer {
  name: "conv5_1"
  type: "Convolution"
  bottom: "pool4"
  top: "conv5_1"
  param {
    lr_mult: 1
    decay_mult: 1
  }
  param {
    lr_mult: 2
    decay_mult: 0
  }
  convolution_param {
    num_output: 512
    pad: 1
    kernel_size: 3
    weight_filler {
      type: "xavier"
    }
  }
}
layer {
  name: "relu5_1"
  type: "ReLU"
  bottom: "conv5_1"
  top: "conv5_1"
}
layer {
  name: "conv5_2"
  type: "Convolution"
  bottom: "conv5_1"
  top: "conv5_2"
  param {
    lr_mult: 1
    decay_mult: 1
  }
  param {
    lr_mult: 2
    decay_mult: 0
  }
  convolution_param {
    num_output: 512
    pad: 1
    kernel_size: 3
    weight_filler {
      type: "xavier"
    }
  }
}
layer {
  name: "relu5_2"
  type: "ReLU"
  bottom: "conv5_2"
  top: "conv5_2"
}
layer {
  name: "conv5_3"
  type: "Convolution"
  bottom: "conv5_2"
  top: "conv5_3"
  param {
    lr_mult: 1
    decay_mult: 1
  }
  param {
    lr_mult: 2
    decay_mult: 0
  }
  convolution_param {
    num_output: 512
    pad: 1
    kernel_size: 3
    weight_filler {
      type: "xavier"
    }
  }
}
layer {
  name: "relu5_3"
  type: "ReLU"
  bottom: "conv5_3"
  top: "conv5_3"
}
layer {
  name: "pool5"
  type: "Pooling"
  bottom: "conv5_3"
  top: "pool5_local"
  pooling_param {
    pool: MAX
    kernel_size: 2
    stride: 2
  }
}
layer {
  name: "gather"
  type: "Gather"
  bottom: "pool5_local"
  bottom: "label_local"
  top: "pool5"
  top: "label"
}
layer {
  name: "fc6"
  type: "InnerProduct"
  bottom: "pool5"
  top: "fc6"
  param {
    lr_mult: 1
    decay_mult: 1
  }
  param {
    lr_mult: 2
    decay_mult: 0
  }
  inner_product_param {
    num_output: 4096
    weight_filler {
      type: "xavier"
    }
  }
}
layer {
  name: "relu6"
  type: "ReLU"
  bottom: "fc6"
  top: "fc6"
}
layer {
  name: "drop6"
  type: "Dropout"
  bottom: "fc6"
  top: "fc6"
  dropout_param {
    dropout_ratio: 0.9
  }
}
layer {
  name: "fc7"
  type: "InnerProduct"
  bottom: "fc6"
  top: "fc7"
  param {
    lr_mult: 1
    decay_mult: 1
  }
  param {
    lr_mult: 2
    decay_mult: 0
  }
  inner_product_param {
    num_output: 4096
    weight_filler {
      type: "xavier"
    }
  }
}
layer {
  name: "relu7"
  type: "ReLU"
  bottom: "fc7"
  top: "fc7"
}
layer {
  name: "drop7"
  type: "Dropout"
  bottom: "fc7"
  top: "fc7"
  dropout_param {
    dropout_ratio: 0.8
  }
}
layer {
  name: "fc8-1"
  type: "InnerProduct"
  bottom: "fc7"
  top: "fc8-1"
  param {
    lr_mult: 1
    decay_mult: 1
  }
  param {
    lr_mult: 2
    decay_mult: 0
  }
  inner_product_param {
    num_output: 101
    weight_filler {
      type: "gaussian"
      std: 0.001
    }
    bias_filler {
      type: "constant"
      value: 0
    }
  }
}
layer {
  name: "loss"
  type: "SoftmaxWithLoss"
  bottom: "fc8-1"
  bottom: "label"
  include {
    phase: TRAIN
  }
}
I0808 13:10:17.427577 10655 layer_factory.hpp:74] Creating layer data
I0808 13:10:17.427593 10655 net.cpp:91] Creating Layer data
I0808 13:10:17.427598 10655 net.cpp:408] data -> data
I0808 13:10:17.427616 10655 net.cpp:408] data -> label_local
I0808 13:10:17.427623 10655 net.cpp:151] Setting up data
I0808 13:10:17.427983 10655 video_data_layer.cpp:34] Opening file: /home/jiri/Lake/HAR/datasets/UCF-101/train-2-rnd.txt
I0808 13:10:17.432333 10655 video_data_layer.cpp:50] A total of 9537 videos.
I0808 13:10:17.442957 10655 video_data_layer.cpp:76] output data size: 64,20,224,224
I0808 13:10:17.486865 10655 net.cpp:158] Top shape: 64 20 224 224 (64225280)
I0808 13:10:17.486896 10655 net.cpp:158] Top shape: 64 1 1 1 (64)
I0808 13:10:17.486910 10655 layer_factory.hpp:74] Creating layer conv1_1
I0808 13:10:17.486934 10655 net.cpp:91] Creating Layer conv1_1
I0808 13:10:17.486948 10655 net.cpp:452] conv1_1 <- data
I0808 13:10:17.486971 10655 net.cpp:119] This layer is inheriting previous layer's sync mode: 1
I0808 13:10:17.486995 10655 net.cpp:408] conv1_1 -> conv1_1
I0808 13:10:17.487017 10655 net.cpp:151] Setting up conv1_1
I0808 13:10:17.576710 10655 net.cpp:158] Top shape: 64 64 224 224 (205520896)
I0808 13:10:17.576743 10655 layer_factory.hpp:74] Creating layer relu1_1
I0808 13:10:17.576757 10655 net.cpp:91] Creating Layer relu1_1
I0808 13:10:17.576763 10655 net.cpp:452] relu1_1 <- conv1_1
I0808 13:10:17.576771 10655 net.cpp:119] This layer is inheriting previous layer's sync mode: 1
I0808 13:10:17.576776 10655 net.cpp:397] relu1_1 -> conv1_1 (in-place)
I0808 13:10:17.576786 10655 net.cpp:151] Setting up relu1_1
I0808 13:10:17.576864 10655 net.cpp:158] Top shape: 64 64 224 224 (205520896)
I0808 13:10:17.576874 10655 layer_factory.hpp:74] Creating layer conv1_2
I0808 13:10:17.576884 10655 net.cpp:91] Creating Layer conv1_2
I0808 13:10:17.576887 10655 net.cpp:452] conv1_2 <- conv1_1
I0808 13:10:17.576892 10655 net.cpp:119] This layer is inheriting previous layer's sync mode: 1
I0808 13:10:17.576899 10655 net.cpp:408] conv1_2 -> conv1_2
I0808 13:10:17.576906 10655 net.cpp:151] Setting up conv1_2
I0808 13:10:17.577584 10655 net.cpp:158] Top shape: 64 64 224 224 (205520896)
I0808 13:10:17.577602 10655 layer_factory.hpp:74] Creating layer relu1_2
I0808 13:10:17.577612 10655 net.cpp:91] Creating Layer relu1_2
I0808 13:10:17.577617 10655 net.cpp:452] relu1_2 <- conv1_2
I0808 13:10:17.577622 10655 net.cpp:119] This layer is inheriting previous layer's sync mode: 1
I0808 13:10:17.577630 10655 net.cpp:397] relu1_2 -> conv1_2 (in-place)
I0808 13:10:17.577637 10655 net.cpp:151] Setting up relu1_2
I0808 13:10:17.577849 10655 net.cpp:158] Top shape: 64 64 224 224 (205520896)
I0808 13:10:17.577860 10655 layer_factory.hpp:74] Creating layer pool1
I0808 13:10:17.577875 10655 net.cpp:91] Creating Layer pool1
I0808 13:10:17.577882 10655 net.cpp:452] pool1 <- conv1_2
I0808 13:10:17.577886 10655 net.cpp:119] This layer is inheriting previous layer's sync mode: 1
I0808 13:10:17.577893 10655 net.cpp:408] pool1 -> pool1
I0808 13:10:17.577914 10655 net.cpp:151] Setting up pool1
I0808 13:10:17.577981 10655 net.cpp:158] Top shape: 64 64 112 112 (51380224)
I0808 13:10:17.577987 10655 layer_factory.hpp:74] Creating layer conv2_1
I0808 13:10:17.577993 10655 net.cpp:91] Creating Layer conv2_1
I0808 13:10:17.577996 10655 net.cpp:452] conv2_1 <- pool1
I0808 13:10:17.577998 10655 net.cpp:119] This layer is inheriting previous layer's sync mode: 1
I0808 13:10:17.578001 10655 net.cpp:408] conv2_1 -> conv2_1
I0808 13:10:17.578006 10655 net.cpp:151] Setting up conv2_1
I0808 13:10:17.578968 10655 net.cpp:158] Top shape: 64 128 112 112 (102760448)
I0808 13:10:17.578984 10655 layer_factory.hpp:74] Creating layer relu2_1
I0808 13:10:17.578992 10655 net.cpp:91] Creating Layer relu2_1
I0808 13:10:17.578997 10655 net.cpp:452] relu2_1 <- conv2_1
I0808 13:10:17.579004 10655 net.cpp:119] This layer is inheriting previous layer's sync mode: 1
I0808 13:10:17.579008 10655 net.cpp:397] relu2_1 -> conv2_1 (in-place)
I0808 13:10:17.579015 10655 net.cpp:151] Setting up relu2_1
I0808 13:10:17.579077 10655 net.cpp:158] Top shape: 64 128 112 112 (102760448)
I0808 13:10:17.579082 10655 layer_factory.hpp:74] Creating layer conv2_2
I0808 13:10:17.579089 10655 net.cpp:91] Creating Layer conv2_2
I0808 13:10:17.579092 10655 net.cpp:452] conv2_2 <- conv2_1
I0808 13:10:17.579095 10655 net.cpp:119] This layer is inheriting previous layer's sync mode: 1
I0808 13:10:17.579099 10655 net.cpp:408] conv2_2 -> conv2_2
I0808 13:10:17.579104 10655 net.cpp:151] Setting up conv2_2
I0808 13:10:17.580543 10655 net.cpp:158] Top shape: 64 128 112 112 (102760448)
I0808 13:10:17.580559 10655 layer_factory.hpp:74] Creating layer relu2_2
I0808 13:10:17.580567 10655 net.cpp:91] Creating Layer relu2_2
I0808 13:10:17.580571 10655 net.cpp:452] relu2_2 <- conv2_2
I0808 13:10:17.580576 10655 net.cpp:119] This layer is inheriting previous layer's sync mode: 1
I0808 13:10:17.580581 10655 net.cpp:397] relu2_2 -> conv2_2 (in-place)
I0808 13:10:17.580587 10655 net.cpp:151] Setting up relu2_2
I0808 13:10:17.580657 10655 net.cpp:158] Top shape: 64 128 112 112 (102760448)
I0808 13:10:17.580662 10655 layer_factory.hpp:74] Creating layer pool2
I0808 13:10:17.580669 10655 net.cpp:91] Creating Layer pool2
I0808 13:10:17.580672 10655 net.cpp:452] pool2 <- conv2_2
I0808 13:10:17.580675 10655 net.cpp:119] This layer is inheriting previous layer's sync mode: 1
I0808 13:10:17.580678 10655 net.cpp:408] pool2 -> pool2
I0808 13:10:17.580682 10655 net.cpp:151] Setting up pool2
I0808 13:10:17.580883 10655 net.cpp:158] Top shape: 64 128 56 56 (25690112)
I0808 13:10:17.580894 10655 layer_factory.hpp:74] Creating layer conv3_1
I0808 13:10:17.580904 10655 net.cpp:91] Creating Layer conv3_1
I0808 13:10:17.580909 10655 net.cpp:452] conv3_1 <- pool2
I0808 13:10:17.580914 10655 net.cpp:119] This layer is inheriting previous layer's sync mode: 1
I0808 13:10:17.580920 10655 net.cpp:408] conv3_1 -> conv3_1
I0808 13:10:17.580931 10655 net.cpp:151] Setting up conv3_1
I0808 13:10:17.583438 10655 net.cpp:158] Top shape: 64 256 56 56 (51380224)
I0808 13:10:17.583461 10655 layer_factory.hpp:74] Creating layer relu3_1
I0808 13:10:17.583468 10655 net.cpp:91] Creating Layer relu3_1
I0808 13:10:17.583473 10655 net.cpp:452] relu3_1 <- conv3_1
I0808 13:10:17.583478 10655 net.cpp:119] This layer is inheriting previous layer's sync mode: 1
I0808 13:10:17.583485 10655 net.cpp:397] relu3_1 -> conv3_1 (in-place)
I0808 13:10:17.583492 10655 net.cpp:151] Setting up relu3_1
I0808 13:10:17.583556 10655 net.cpp:158] Top shape: 64 256 56 56 (51380224)
I0808 13:10:17.583561 10655 layer_factory.hpp:74] Creating layer conv3_2
I0808 13:10:17.583570 10655 net.cpp:91] Creating Layer conv3_2
I0808 13:10:17.583575 10655 net.cpp:452] conv3_2 <- conv3_1
I0808 13:10:17.583578 10655 net.cpp:119] This layer is inheriting previous layer's sync mode: 1
I0808 13:10:17.583583 10655 net.cpp:408] conv3_2 -> conv3_2
I0808 13:10:17.583590 10655 net.cpp:151] Setting up conv3_2
I0808 13:10:17.588256 10655 net.cpp:158] Top shape: 64 256 56 56 (51380224)
I0808 13:10:17.588280 10655 layer_factory.hpp:74] Creating layer relu3_2
I0808 13:10:17.588311 10655 net.cpp:91] Creating Layer relu3_2
I0808 13:10:17.588316 10655 net.cpp:452] relu3_2 <- conv3_2
I0808 13:10:17.588322 10655 net.cpp:119] This layer is inheriting previous layer's sync mode: 1
I0808 13:10:17.588328 10655 net.cpp:397] relu3_2 -> conv3_2 (in-place)
I0808 13:10:17.588335 10655 net.cpp:151] Setting up relu3_2
I0808 13:10:17.588404 10655 net.cpp:158] Top shape: 64 256 56 56 (51380224)
I0808 13:10:17.588419 10655 layer_factory.hpp:74] Creating layer conv3_3
I0808 13:10:17.588429 10655 net.cpp:91] Creating Layer conv3_3
I0808 13:10:17.588433 10655 net.cpp:452] conv3_3 <- conv3_2
I0808 13:10:17.588438 10655 net.cpp:119] This layer is inheriting previous layer's sync mode: 1
I0808 13:10:17.588443 10655 net.cpp:408] conv3_3 -> conv3_3
I0808 13:10:17.588450 10655 net.cpp:151] Setting up conv3_3
I0808 13:10:17.593369 10655 net.cpp:158] Top shape: 64 256 56 56 (51380224)
I0808 13:10:17.593396 10655 layer_factory.hpp:74] Creating layer relu3_3
I0808 13:10:17.593410 10655 net.cpp:91] Creating Layer relu3_3
I0808 13:10:17.593415 10655 net.cpp:452] relu3_3 <- conv3_3
I0808 13:10:17.593422 10655 net.cpp:119] This layer is inheriting previous layer's sync mode: 1
I0808 13:10:17.593427 10655 net.cpp:397] relu3_3 -> conv3_3 (in-place)
I0808 13:10:17.593435 10655 net.cpp:151] Setting up relu3_3
I0808 13:10:17.593508 10655 net.cpp:158] Top shape: 64 256 56 56 (51380224)
I0808 13:10:17.593514 10655 layer_factory.hpp:74] Creating layer pool3
I0808 13:10:17.593523 10655 net.cpp:91] Creating Layer pool3
I0808 13:10:17.593526 10655 net.cpp:452] pool3 <- conv3_3
I0808 13:10:17.593531 10655 net.cpp:119] This layer is inheriting previous layer's sync mode: 1
I0808 13:10:17.593538 10655 net.cpp:408] pool3 -> pool3
I0808 13:10:17.593544 10655 net.cpp:151] Setting up pool3
I0808 13:10:17.593752 10655 net.cpp:158] Top shape: 64 256 28 28 (12845056)
I0808 13:10:17.593761 10655 layer_factory.hpp:74] Creating layer conv4_1
I0808 13:10:17.593770 10655 net.cpp:91] Creating Layer conv4_1
I0808 13:10:17.593775 10655 net.cpp:452] conv4_1 <- pool3
I0808 13:10:17.593780 10655 net.cpp:119] This layer is inheriting previous layer's sync mode: 1
I0808 13:10:17.593783 10655 net.cpp:408] conv4_1 -> conv4_1
I0808 13:10:17.593791 10655 net.cpp:151] Setting up conv4_1
I0808 13:10:17.602696 10655 net.cpp:158] Top shape: 64 512 28 28 (25690112)
I0808 13:10:17.602722 10655 layer_factory.hpp:74] Creating layer relu4_1
I0808 13:10:17.602733 10655 net.cpp:91] Creating Layer relu4_1
I0808 13:10:17.602738 10655 net.cpp:452] relu4_1 <- conv4_1
I0808 13:10:17.602744 10655 net.cpp:119] This layer is inheriting previous layer's sync mode: 1
I0808 13:10:17.602751 10655 net.cpp:397] relu4_1 -> conv4_1 (in-place)
I0808 13:10:17.602757 10655 net.cpp:151] Setting up relu4_1
I0808 13:10:17.602828 10655 net.cpp:158] Top shape: 64 512 28 28 (25690112)
I0808 13:10:17.602834 10655 layer_factory.hpp:74] Creating layer conv4_2
I0808 13:10:17.602843 10655 net.cpp:91] Creating Layer conv4_2
I0808 13:10:17.602846 10655 net.cpp:452] conv4_2 <- conv4_1
I0808 13:10:17.602850 10655 net.cpp:119] This layer is inheriting previous layer's sync mode: 1
I0808 13:10:17.602857 10655 net.cpp:408] conv4_2 -> conv4_2
I0808 13:10:17.602864 10655 net.cpp:151] Setting up conv4_2
I0808 13:10:17.618938 10655 net.cpp:158] Top shape: 64 512 28 28 (25690112)
I0808 13:10:17.618973 10655 layer_factory.hpp:74] Creating layer relu4_2
I0808 13:10:17.618984 10655 net.cpp:91] Creating Layer relu4_2
I0808 13:10:17.618990 10655 net.cpp:452] relu4_2 <- conv4_2
I0808 13:10:17.618999 10655 net.cpp:119] This layer is inheriting previous layer's sync mode: 1
I0808 13:10:17.619005 10655 net.cpp:397] relu4_2 -> conv4_2 (in-place)
I0808 13:10:17.619014 10655 net.cpp:151] Setting up relu4_2
I0808 13:10:17.619088 10655 net.cpp:158] Top shape: 64 512 28 28 (25690112)
I0808 13:10:17.619094 10655 layer_factory.hpp:74] Creating layer conv4_3
I0808 13:10:17.619105 10655 net.cpp:91] Creating Layer conv4_3
I0808 13:10:17.619109 10655 net.cpp:452] conv4_3 <- conv4_2
I0808 13:10:17.619135 10655 net.cpp:119] This layer is inheriting previous layer's sync mode: 1
I0808 13:10:17.619143 10655 net.cpp:408] conv4_3 -> conv4_3
I0808 13:10:17.619150 10655 net.cpp:151] Setting up conv4_3
I0808 13:10:17.635848 10655 net.cpp:158] Top shape: 64 512 28 28 (25690112)
I0808 13:10:17.635876 10655 layer_factory.hpp:74] Creating layer relu4_3
I0808 13:10:17.635889 10655 net.cpp:91] Creating Layer relu4_3
I0808 13:10:17.635895 10655 net.cpp:452] relu4_3 <- conv4_3
I0808 13:10:17.635901 10655 net.cpp:119] This layer is inheriting previous layer's sync mode: 1
I0808 13:10:17.635907 10655 net.cpp:397] relu4_3 -> conv4_3 (in-place)
I0808 13:10:17.635916 10655 net.cpp:151] Setting up relu4_3
I0808 13:10:17.636116 10655 net.cpp:158] Top shape: 64 512 28 28 (25690112)
I0808 13:10:17.636126 10655 layer_factory.hpp:74] Creating layer pool4
I0808 13:10:17.636132 10655 net.cpp:91] Creating Layer pool4
I0808 13:10:17.636135 10655 net.cpp:452] pool4 <- conv4_3
I0808 13:10:17.636139 10655 net.cpp:119] This layer is inheriting previous layer's sync mode: 1
I0808 13:10:17.636142 10655 net.cpp:408] pool4 -> pool4
I0808 13:10:17.636147 10655 net.cpp:151] Setting up pool4
I0808 13:10:17.636222 10655 net.cpp:158] Top shape: 64 512 14 14 (6422528)
I0808 13:10:17.636230 10655 layer_factory.hpp:74] Creating layer conv5_1
I0808 13:10:17.636240 10655 net.cpp:91] Creating Layer conv5_1
I0808 13:10:17.636245 10655 net.cpp:452] conv5_1 <- pool4
I0808 13:10:17.636250 10655 net.cpp:119] This layer is inheriting previous layer's sync mode: 1
I0808 13:10:17.636257 10655 net.cpp:408] conv5_1 -> conv5_1
I0808 13:10:17.636270 10655 net.cpp:151] Setting up conv5_1
I0808 13:10:17.653379 10655 net.cpp:158] Top shape: 64 512 14 14 (6422528)
I0808 13:10:17.653409 10655 layer_factory.hpp:74] Creating layer relu5_1
I0808 13:10:17.653421 10655 net.cpp:91] Creating Layer relu5_1
I0808 13:10:17.653427 10655 net.cpp:452] relu5_1 <- conv5_1
I0808 13:10:17.653434 10655 net.cpp:119] This layer is inheriting previous layer's sync mode: 1
I0808 13:10:17.653440 10655 net.cpp:397] relu5_1 -> conv5_1 (in-place)
I0808 13:10:17.653450 10655 net.cpp:151] Setting up relu5_1
I0808 13:10:17.653518 10655 net.cpp:158] Top shape: 64 512 14 14 (6422528)
I0808 13:10:17.653524 10655 layer_factory.hpp:74] Creating layer conv5_2
I0808 13:10:17.653534 10655 net.cpp:91] Creating Layer conv5_2
I0808 13:10:17.653539 10655 net.cpp:452] conv5_2 <- conv5_1
I0808 13:10:17.653544 10655 net.cpp:119] This layer is inheriting previous layer's sync mode: 1
I0808 13:10:17.653549 10655 net.cpp:408] conv5_2 -> conv5_2
I0808 13:10:17.653558 10655 net.cpp:151] Setting up conv5_2
I0808 13:10:17.670447 10655 net.cpp:158] Top shape: 64 512 14 14 (6422528)
I0808 13:10:17.670471 10655 layer_factory.hpp:74] Creating layer relu5_2
I0808 13:10:17.670485 10655 net.cpp:91] Creating Layer relu5_2
I0808 13:10:17.670490 10655 net.cpp:452] relu5_2 <- conv5_2
I0808 13:10:17.670496 10655 net.cpp:119] This layer is inheriting previous layer's sync mode: 1
I0808 13:10:17.670502 10655 net.cpp:397] relu5_2 -> conv5_2 (in-place)
I0808 13:10:17.670510 10655 net.cpp:151] Setting up relu5_2
I0808 13:10:17.670578 10655 net.cpp:158] Top shape: 64 512 14 14 (6422528)
I0808 13:10:17.670583 10655 layer_factory.hpp:74] Creating layer conv5_3
I0808 13:10:17.670593 10655 net.cpp:91] Creating Layer conv5_3
I0808 13:10:17.670598 10655 net.cpp:452] conv5_3 <- conv5_2
I0808 13:10:17.670603 10655 net.cpp:119] This layer is inheriting previous layer's sync mode: 1
I0808 13:10:17.670608 10655 net.cpp:408] conv5_3 -> conv5_3
I0808 13:10:17.670615 10655 net.cpp:151] Setting up conv5_3
I0808 13:10:17.688143 10655 net.cpp:158] Top shape: 64 512 14 14 (6422528)
I0808 13:10:17.688174 10655 layer_factory.hpp:74] Creating layer relu5_3
I0808 13:10:17.688185 10655 net.cpp:91] Creating Layer relu5_3
I0808 13:10:17.688190 10655 net.cpp:452] relu5_3 <- conv5_3
I0808 13:10:17.688199 10655 net.cpp:119] This layer is inheriting previous layer's sync mode: 1
I0808 13:10:17.688204 10655 net.cpp:397] relu5_3 -> conv5_3 (in-place)
I0808 13:10:17.688237 10655 net.cpp:151] Setting up relu5_3
I0808 13:10:17.688448 10655 net.cpp:158] Top shape: 64 512 14 14 (6422528)
I0808 13:10:17.688458 10655 layer_factory.hpp:74] Creating layer pool5
I0808 13:10:17.688468 10655 net.cpp:91] Creating Layer pool5
I0808 13:10:17.688472 10655 net.cpp:452] pool5 <- conv5_3
I0808 13:10:17.688477 10655 net.cpp:119] This layer is inheriting previous layer's sync mode: 1
I0808 13:10:17.688483 10655 net.cpp:408] pool5 -> pool5_local
I0808 13:10:17.688489 10655 net.cpp:151] Setting up pool5
I0808 13:10:17.688563 10655 net.cpp:158] Top shape: 64 512 7 7 (1605632)
I0808 13:10:17.688570 10655 layer_factory.hpp:74] Creating layer gather
I0808 13:10:17.688582 10655 net.cpp:91] Creating Layer gather
I0808 13:10:17.688586 10655 net.cpp:452] gather <- pool5_local
I0808 13:10:17.688591 10655 net.cpp:452] gather <- label_local
I0808 13:10:17.688601 10655 net.cpp:408] gather -> pool5
I0808 13:10:17.688607 10655 net.cpp:408] gather -> label
I0808 13:10:17.688613 10655 net.cpp:151] Setting up gather
I0808 13:10:17.688621 10655 net.cpp:158] Top shape: 128 512 7 7 (3211264)
I0808 13:10:17.688626 10655 net.cpp:158] Top shape: 128 1 1 1 (128)
I0808 13:10:17.688630 10655 layer_factory.hpp:74] Creating layer fc6
I0808 13:10:17.688644 10655 net.cpp:91] Creating Layer fc6
I0808 13:10:17.688648 10655 net.cpp:452] fc6 <- pool5
I0808 13:10:17.688653 10655 net.cpp:119] This layer is inheriting previous layer's sync mode: 0
I0808 13:10:17.688659 10655 net.cpp:408] fc6 -> fc6
I0808 13:10:17.688669 10655 net.cpp:151] Setting up fc6
I0808 13:10:18.360204 10655 net.cpp:158] Top shape: 128 4096 (524288)
I0808 13:10:18.360236 10655 layer_factory.hpp:74] Creating layer relu6
I0808 13:10:18.360247 10655 net.cpp:91] Creating Layer relu6
I0808 13:10:18.360254 10655 net.cpp:452] relu6 <- fc6
I0808 13:10:18.360260 10655 net.cpp:119] This layer is inheriting previous layer's sync mode: 0
I0808 13:10:18.360266 10655 net.cpp:397] relu6 -> fc6 (in-place)
I0808 13:10:18.360275 10655 net.cpp:151] Setting up relu6
I0808 13:10:18.360384 10655 net.cpp:158] Top shape: 128 4096 (524288)
I0808 13:10:18.360399 10655 layer_factory.hpp:74] Creating layer drop6
I0808 13:10:18.360406 10655 net.cpp:91] Creating Layer drop6
I0808 13:10:18.360410 10655 net.cpp:452] drop6 <- fc6
I0808 13:10:18.360414 10655 net.cpp:119] This layer is inheriting previous layer's sync mode: 0
I0808 13:10:18.360419 10655 net.cpp:397] drop6 -> fc6 (in-place)
I0808 13:10:18.360426 10655 net.cpp:151] Setting up drop6
I0808 13:10:18.360435 10655 net.cpp:158] Top shape: 128 4096 (524288)
I0808 13:10:18.360438 10655 layer_factory.hpp:74] Creating layer fc7
I0808 13:10:18.360447 10655 net.cpp:91] Creating Layer fc7
I0808 13:10:18.360451 10655 net.cpp:452] fc7 <- fc6
I0808 13:10:18.360455 10655 net.cpp:119] This layer is inheriting previous layer's sync mode: 0
I0808 13:10:18.360460 10655 net.cpp:408] fc7 -> fc7
I0808 13:10:18.360467 10655 net.cpp:151] Setting up fc7
I0808 13:10:18.469475 10655 net.cpp:158] Top shape: 128 4096 (524288)
I0808 13:10:18.469504 10655 layer_factory.hpp:74] Creating layer relu7
I0808 13:10:18.469516 10655 net.cpp:91] Creating Layer relu7
I0808 13:10:18.469521 10655 net.cpp:452] relu7 <- fc7
I0808 13:10:18.469527 10655 net.cpp:119] This layer is inheriting previous layer's sync mode: 0
I0808 13:10:18.469532 10655 net.cpp:397] relu7 -> fc7 (in-place)
I0808 13:10:18.469540 10655 net.cpp:151] Setting up relu7
I0808 13:10:18.469655 10655 net.cpp:158] Top shape: 128 4096 (524288)
I0808 13:10:18.469660 10655 layer_factory.hpp:74] Creating layer drop7
I0808 13:10:18.469668 10655 net.cpp:91] Creating Layer drop7
I0808 13:10:18.469672 10655 net.cpp:452] drop7 <- fc7
I0808 13:10:18.469676 10655 net.cpp:119] This layer is inheriting previous layer's sync mode: 0
I0808 13:10:18.469681 10655 net.cpp:397] drop7 -> fc7 (in-place)
I0808 13:10:18.469686 10655 net.cpp:151] Setting up drop7
I0808 13:10:18.469693 10655 net.cpp:158] Top shape: 128 4096 (524288)
I0808 13:10:18.469697 10655 layer_factory.hpp:74] Creating layer fc8-1
I0808 13:10:18.469707 10655 net.cpp:91] Creating Layer fc8-1
I0808 13:10:18.469732 10655 net.cpp:452] fc8-1 <- fc7
I0808 13:10:18.469737 10655 net.cpp:119] This layer is inheriting previous layer's sync mode: 0
I0808 13:10:18.469741 10655 net.cpp:408] fc8-1 -> fc8-1
I0808 13:10:18.469749 10655 net.cpp:151] Setting up fc8-1
I0808 13:10:18.483933 10655 net.cpp:158] Top shape: 128 101 (12928)
I0808 13:10:18.483960 10655 layer_factory.hpp:74] Creating layer loss
I0808 13:10:18.483971 10655 net.cpp:91] Creating Layer loss
I0808 13:10:18.483978 10655 net.cpp:452] loss <- fc8-1
I0808 13:10:18.483984 10655 net.cpp:452] loss <- label
I0808 13:10:18.483989 10655 net.cpp:119] This layer is inheriting previous layer's sync mode: 0
I0808 13:10:18.483997 10655 net.cpp:408] loss -> (automatic)
…
    mean_value: 128
    mean_value: 128
    mean_value: 128
    mean_value: 128
    mean_value: 128
    mean_value: 128
    mean_value: 128
    mean_value: 128
    mean_value: 128
    mean_value: 128
    mean_value: 128
    mean_value: 128
    mean_value: 128
    mean_value: 128
    mean_value: 128
    mean_value: 128
    mean_value: 128
    mean_value: 128
    fix_crop: true
    is_flow: true
  }
  video_data_param {
    source: "/home/jiri/Lake/HAR/datasets/UCF-101/val-2-rnd.txt"
    batch_size: 5
    new_length: 10
    num_segments: 1
    modality: FLOW
  }
}
layer {
  name: "conv1_1"
  type: "Convolution"
  bottom: "data"
  top: "conv1_1"
  param {
    lr_mult: 1
    decay_mult: 1
  }
  param {
    lr_mult: 2
    decay_mult: 0
  }
  convolution_param {
    num_output: 64
    pad: 1
    kernel_size: 3
    weight_filler {
      type: "xavier"
    }
  }
}
layer {
  name: "relu1_1"
  type: "ReLU"
  bottom: "conv1_1"
  top: "conv1_1"
}
layer {
  name: "conv1_2"
  type: "Convolution"
  bottom: "conv1_1"
  top: "conv1_2"
  param {
    lr_mult: 1
    decay_mult: 1
  }
  param {
    lr_mult: 2
    decay_mult: 0
  }
  convolution_param {
    num_output: 64
    pad: 1
    kernel_size: 3
    weight_filler {
      type: "xavier"
    }
  }
}
layer {
  name: "relu1_2"
  type: "ReLU"
  bottom: "conv1_2"
  top: "conv1_2"
}
layer {
  name: "pool1"
  type: "Pooling"
  bottom: "conv1_2"
  top: "pool1"
  pooling_param {
    pool: MAX
    kernel_size: 2
    stride: 2
  }
}
layer {
  name: "conv2_1"
  type: "Convolution"
  bottom: "pool1"
  top: "conv2_1"
  param {
    lr_mult: 1
    decay_mult: 1
  }
  param {
    lr_mult: 2
    decay_mult: 0
  }
  convolution_param {
    num_output: 128
    pad: 1
    kernel_size: 3
    weight_filler {
      type: "xavier"
    }
  }
}
layer {
  name: "relu2_1"
  type: "ReLU"
  bottom: "conv2_1"
  top: "conv2_1"
}
layer {
  name: "conv2_2"
  type: "Convolution"
  bottom: "conv2_1"
  top: "conv2_2"
  param {
    lr_mult: 1
    decay_mult: 1
  }
  param {
    lr_mult: 2
    decay_mult: 0
  }
  convolution_param {
    num_output: 128
    pad: 1
    kernel_size: 3
    weight_filler {
      type: "xavier"
    }
  }
}
layer {
  name: "relu2_2"
  type: "ReLU"
  bottom: "conv2_2"
  top: "conv2_2"
}
layer {
  name: "pool2"
  type: "Pooling"
  bottom: "conv2_2"
  top: "pool2"
  pooling_param {
    pool: MAX
    kernel_size: 2
    stride: 2
  }
}
layer {
  name: "conv3_1"
  type: "Convolution"
  bottom: "pool2"
  top: "conv3_1"
  param {
    lr_mult: 1
    decay_mult: 1
  }
  param {
    lr_mult: 2
    decay_mult: 0
  }
  convolution_param {
    num_output: 256
    pad: 1
    kernel_size: 3
    weight_filler {
      type: "xavier"
    }
  }
}
layer {
  name: "relu3_1"
  type: "ReLU"
  bottom: "conv3_1"
  top: "conv3_1"
}
layer {
  name: "conv3_2"
  type: "Convolution"
  bottom: "conv3_1"
  top: "conv3_2"
  param {
    lr_mult: 1
    decay_mult: 1
  }
  param {
    lr_mult: 2
    decay_mult: 0
  }
  convolution_param {
    num_output: 256
    pad: 1
    kernel_size: 3
    weight_filler {
      type: "xavier"
    }
  }
}
layer {
  name: "relu3_2"
  type: "ReLU"
  bottom: "conv3_2"
  top: "conv3_2"
}
layer {
  name: "conv3_3"
  type: "Convolution"
  bottom: "conv3_2"
  top: "conv3_3"
  param {
    lr_mult: 1
    decay_mult: 1
  }
  param {
    lr_mult: 2
    decay_mult: 0
  }
  convolution_param {
    num_output: 256
    pad: 1
    kernel_size: 3
    weight_filler {
      type: "xavier"
    }
  }
}
layer {
  name: "relu3_3"
  type: "ReLU"
  bottom: "conv3_3"
  top: "conv3_3"
}
layer {
  name: "pool3"
  type: "Pooling"
  bottom: "conv3_3"
  top: "pool3"
  pooling_param {
    pool: MAX
    kernel_size: 2
    stride: 2
  }
}
layer {
  name: "conv4_1"
  type: "Convolution"
  bottom: "pool3"
  top: "conv4_1"
  param {
    lr_mult: 1
    decay_mult: 1
  }
  param {
    lr_mult: 2
    decay_mult: 0
  }
  convolution_param {
    num_output: 512
    pad: 1
    kernel_size: 3
    weight_filler {
      type: "xavier"
    }
  }
}
layer {
  name: "relu4_1"
  type: "ReLU"
  bottom: "conv4_1"
  top: "conv4_1"
}
layer {
  name: "conv4_2"
  type: "Convolution"
  bottom: "conv4_1"
  top: "conv4_2"
  param {
    lr_mult: 1
    decay_mult: 1
  }
  param {
    lr_mult: 2
    decay_mult: 0
  }
  convolution_param {
    num_output: 512
    pad: 1
    kernel_size: 3
    weight_filler {
      type: "xavier"
    }
  }
}
layer {
  name: "relu4_2"
  type: "ReLU"
  bottom: "conv4_2"
  top: "conv4_2"
}
layer {
  name: "conv4_3"
  type: "Convolution"
  bottom: "conv4_2"
  top: "conv4_3"
  param {
    lr_mult: 1
    decay_mult: 1
  }
  param {
    lr_mult: 2
    decay_mult: 0
  }
  convolution_param {
    num_output: 512
    pad: 1
    kernel_size: 3
    weight_filler {
      type: "xavier"
    }
  }
}
layer {
  name: "relu4_3"
  type: "ReLU"
  bottom: "conv4_3"
  top: "conv4_3"
}
layer {
  name: "pool4"
  type: "Pooling"
  bottom: "conv4_3"
  top: "pool4"
  pooling_param {
    pool: MAX
    kernel_size: 2
    stride: 2
  }
}
layer {
  name: "conv5_1"
  type: "Convolution"
  bottom: "pool4"
  top: "conv5_1"
  param {
    lr_mult: 1
    decay_mult: 1
  }
  param {
    lr_mult: 2
    decay_mult: 0
  }
  convolution_param {
    num_output: 512
    pad: 1
    kernel_size: 3
    weight_filler {
      type: "xavier"
    }
  }
}
layer {
  name: "relu5_1"
  type: "ReLU"
  bottom: "conv5_1"
  top: "conv5_1"
}
layer {
  name: "conv5_2"
  type: "Convolution"
  bottom: "conv5_1"
  top: "conv5_2"
  param {
    lr_mult: 1
    decay_mult: 1
  }
  param {
    lr_mult: 2
    decay_mult: 0
  }
  convolution_param {
    num_output: 512
    pad: 1
    kernel_size: 3
    weight_filler {
      type: "xavier"
    }
  }
}
layer {
  name: "relu5_2"
  type: "ReLU"
  bottom: "conv5_2"
  top: "conv5_2"
}
layer {
  name: "conv5_3"
  type: "Convolution"
  bottom: "conv5_2"
  top: "conv5_3"
  param {
    lr_mult: 1
    decay_mult: 1
  }
  param {
    lr_mult: 2
    decay_mult: 0
  }
  convolution_param {
    num_output: 512
    pad: 1
    kernel_size: 3
    weight_filler {
      type: "xavier"
    }
  }
}
layer {
  name: "relu5_3"
  type: "ReLU"
  bottom: "conv5_3"
  top: "conv5_3"
}
layer {
  name: "pool5"
  type: "Pooling"
  bottom: "conv5_3"
  top: "pool5_local"
  pooling_param {
    pool: MAX
    kernel_size: 2
    stride: 2
  }
}
layer {
  name: "gather"
  type: "Gather"
  bottom: "pool5_local"
  bottom: "label_local"
  top: "pool5"
  top: "label"
}
layer {
  name: "fc6"
  type: "InnerProduct"
  bottom: "pool5"
  top: "fc6"
  param {
    lr_mult: 1
    decay_mult: 1
  }
  param {
    lr_mult: 2
    decay_mult: 0
  }
  inner_product_param {
    num_output: 4096
    weight_filler {
      type: "xavier"
    }
  }
}
layer {
  name: "relu6"
  type: "ReLU"
  bottom: "fc6"
  top: "fc6"
}
layer {
  name: "drop6"
  type: "Dropout"
  bottom: "fc6"
  top: "fc6"
  dropout_param {
    dropout_ratio: 0.9
  }
}
layer {
  name: "fc7"
  type: "InnerProduct"
  bottom: "fc6"
  top: "fc7"
  param {
    lr_mult: 1
    decay_mult: 1
  }
  param {
    lr_mult: 2
    decay_mult: 0
  }
  inner_product_param {
    num_output: 4096
    weight_filler {
      type: "xavier"
    }
  }
}
layer {
  name: "relu7"
  type: "ReLU"
  bottom: "fc7"
  top: "fc7"
}
layer {
  name: "drop7"
  type: "Dropout"
  bottom: "fc7"
  top: "fc7"
  dropout_param {
    dropout_ratio: 0.8
  }
}
layer {
  name: "fc8-1"
  type: "InnerProduct"
  bottom: "fc7"
  top: "fc8-1"
  param {
    lr_mult: 1
    decay_mult: 1
  }
  param {
    lr_mult: 2
    decay_mult: 0
  }
  inner_product_param {
    num_output: 101
    weight_filler {
      type: "gaussian"
      std: 0.001
    }
    bias_filler {
      type: "constant"
      value: 0
    }
  }
}
layer {
  name: "loss"
  type: "SoftmaxWithLoss"
  bottom: "fc8-1"
  bottom: "label"
  top: "loss"
  include {
    phase: TEST
  }
}
layer {
  name: "accuracy"
  type: "Accuracy"
  bottom: "fc8-1"
  bottom: "label"
  top: "accuracy"
  include {
    phase: TEST
  }
}
I0808 13:10:18.486775 10655 layer_factory.hpp:74] Creating layer data
I0808 13:10:18.486788 10655 net.cpp:91] Creating Layer data
I0808 13:10:18.486793 10655 net.cpp:408] data -> data
I0808 13:10:18.486802 10655 net.cpp:408] data -> label_local
I0808 13:10:18.486809 10655 net.cpp:151] Setting up data
I0808 13:10:18.486815 10655 video_data_layer.cpp:34] Opening file: /home/jiri/Lake/HAR/datasets/UCF-101/val-2-rnd.txt
I0808 13:10:18.489655 10655 video_data_layer.cpp:50] A total of 3783 videos.
I0808 13:10:18.506180 10655 video_data_layer.cpp:76] output data size: 5,20,224,224
I0808 13:10:18.509146 10655 net.cpp:158] Top shape: 5 20 224 224 (5017600)
I0808 13:10:18.509171 10655 net.cpp:158] Top shape: 5 1 1 1 (5)
I0808 13:10:18.509181 10655 layer_factory.hpp:74] Creating layer conv1_1
I0808 13:10:18.509197 10655 net.cpp:91] Creating Layer conv1_1
I0808 13:10:18.509204 10655 net.cpp:452] conv1_1 <- data
I0808 13:10:18.509212 10655 net.cpp:119] This layer is inheriting previous layer's sync mode: 1
I0808 13:10:18.509220 10655 net.cpp:408] conv1_1 -> conv1_1
I0808 13:10:18.509232 10655 net.cpp:151] Setting up conv1_1
I0808 13:10:18.509811 10655 net.cpp:158] Top shape: 5 64 224 224 (16056320)
I0808 13:10:18.509827 10655 layer_factory.hpp:74] Creating layer relu1_1
I0808 13:10:18.509836 10655 net.cpp:91] Creating Layer relu1_1
I0808 13:10:18.509840 10655 net.cpp:452] relu1_1 <- conv1_1
I0808 13:10:18.509845 10655 net.cpp:119] This layer is inheriting previous layer's sync mode: 1
I0808 13:10:18.509850 10655 net.cpp:397] relu1_1 -> conv1_1 (in-place)
I0808 13:10:18.509855 10655 net.cpp:151] Setting up relu1_1
I0808 13:10:18.509917 10655 net.cpp:158] Top shape: 5 64 224 224 (16056320)
I0808 13:10:18.509922 10655 layer_factory.hpp:74] Creating layer conv1_2
I0808 13:10:18.509929 10655 net.cpp:91] Creating Layer conv1_2
I0808 13:10:18.509932 10655 net.cpp:452] conv1_2 <- conv1_1
I0808 13:10:18.509937 10655 net.cpp:119] This layer is inheriting previous layer's sync mode: 1
I0808 13:10:18.509941 10655 net.cpp:408] conv1_2 -> conv1_2
I0808 13:10:18.509948 10655 net.cpp:151] Setting up conv1_2
I0808 13:10:18.510584 10655 net.cpp:158] Top shape: 5 64 224 224 (16056320)
I0808 13:10:18.510601 10655 layer_factory.hpp:74] Creating layer relu1_2
I0808 13:10:18.510612 10655 net.cpp:91] Creating Layer relu1_2
I0808 13:10:18.510617 10655 net.cpp:452] relu1_2 <- conv1_2
I0808 13:10:18.510622 10655 net.cpp:119] This layer is inheriting previous layer's sync mode: 1
I0808 13:10:18.510627 10655 net.cpp:397] relu1_2 -> conv1_2 (in-place)
I0808 13:10:18.510633 10655 net.cpp:151] Setting up relu1_2
I0808 13:10:18.510702 10655 net.cpp:158] Top shape: 5 64 224 224 (16056320)
I0808 13:10:18.510710 10655 layer_factory.hpp:74] Creating layer pool1
I0808 13:10:18.510718 10655 net.cpp:91] Creating Layer pool1
I0808 13:10:18.510722 10655 net.cpp:452] pool1 <- conv1_2
I0808 13:10:18.510727 10655 net.cpp:119] This layer is inheriting previous layer's sync mode: 1
I0808 13:10:18.510732 10655 net.cpp:408] pool1 -> pool1
I0808 13:10:18.510741 10655 net.cpp:151] Setting up pool1
I0808 13:10:18.510812 10655 net.cpp:158] Top shape: 5 64 112 112 (4014080)
I0808 13:10:18.510820 10655 layer_factory.hpp:74] Creating layer conv2_1
I0808 13:10:18.510828 10655 net.cpp:91] Creating Layer conv2_1
I0808 13:10:18.510833 10655 net.cpp:452] conv2_1 <- pool1
I0808 13:10:18.510859 10655 net.cpp:119] This layer is inheriting previous layer's sync mode: 1
I0808 13:10:18.510865 10655 net.cpp:408] conv2_1 -> conv2_1
I0808 13:10:18.510874 10655 net.cpp:151] Setting up conv2_1
I0808 13:10:18.511711 10655 net.cpp:158] Top shape: 5 128 112 112 (8028160)
I0808 13:10:18.511729 10655 layer_factory.hpp:74] Creating layer relu2_1
I0808 13:10:18.511735 10655 net.cpp:91] Creating Layer relu2_1
I0808 13:10:18.511740 10655 net.cpp:452] relu2_1 <- conv2_1
I0808 13:10:18.511745 10655 net.cpp:119] This layer is inheriting previous layer's sync mode: 1
I0808 13:10:18.511751 10655 net.cpp:397] relu2_1 -> conv2_1 (in-place)
I0808 13:10:18.511757 10655 net.cpp:151] Setting up relu2_1
I0808 13:10:18.511965 10655 net.cpp:158] Top shape: 5 128 112 112 (8028160)
I0808 13:10:18.511977 10655 layer_factory.hpp:74] Creating layer conv2_2
I0808 13:10:18.511987 10655 net.cpp:91] Creating Layer conv2_2
I0808 13:10:18.511991 10655 net.cpp:452] conv2_2 <- conv2_1
I0808 13:10:18.512001 10655 net.cpp:119] This layer is inheriting previous layer's sync mode: 1
I0808 13:10:18.512007 10655 net.cpp:408] conv2_2 -> conv2_2
I0808 13:10:18.512014 10655 net.cpp:151] Setting up conv2_2
I0808 13:10:18.513312 10655 net.cpp:158] Top shape: 5 128 112 112 (8028160)
I0808 13:10:18.513329 10655 layer_factory.hpp:74] Creating layer relu2_2
I0808 13:10:18.513336 10655 net.cpp:91] Creating Layer relu2_2
I0808 13:10:18.513341 10655 net.cpp:452] relu2_2 <- conv2_2
I0808 13:10:18.513346 10655 net.cpp:119] This layer is inheriting previous layer's sync mode: 1
I0808 13:10:18.513352 10655 net.cpp:397] relu2_2 -> conv2_2 (in-place)
I0808 13:10:18.513358 10655 net.cpp:151] Setting up relu2_2
I0808 13:10:18.513427 10655 net.cpp:158] Top shape: 5 128 112 112 (8028160)
I0808 13:10:18.513433 10655 layer_factory.hpp:74] Creating layer pool2
I0808 13:10:18.513442 10655 net.cpp:91] Creating Layer pool2
I0808 13:10:18.513445 10655 net.cpp:452] pool2 <- conv2_2
I0808 13:10:18.513450 10655 net.cpp:119] This layer is inheriting previous layer's sync mode: 1
I0808 13:10:18.513455 10655 net.cpp:408] pool2 -> pool2
I0808 13:10:18.513463 10655 net.cpp:151] Setting up pool2
I0808 13:10:18.513533 10655 net.cpp:158] Top shape: 5 128 56 56 (2007040)
I0808 13:10:18.513543 10655 layer_factory.hpp:74] Creating layer conv3_1
I0808 13:10:18.513551 10655 net.cpp:91] Creating Layer conv3_1
I0808 13:10:18.513556 10655 net.cpp:452] conv3_1 <- pool2
I0808 13:10:18.513561 10655 net.cpp:119] This layer is inheriting previous layer's sync mode: 1
I0808 13:10:18.513566 10655 net.cpp:408] conv3_1 -> conv3_1
I0808 13:10:18.513574 10655 net.cpp:151] Setting up conv3_1
I0808 13:10:18.515859 10655 net.cpp:158] Top shape: 5 256 56 56 (4014080)
I0808 13:10:18.515877 10655 layer_factory.hpp:74] Creating layer relu3_1
I0808 13:10:18.515883 10655 net.cpp:91] Creating Layer relu3_1
I0808 13:10:18.515887 10655 net.cpp:452] relu3_1 <- conv3_1
I0808 13:10:18.515892 10655 net.cpp:119] This layer is inheriting previous layer's sync mode: 1
I0808 13:10:18.515897 10655 net.cpp:397] relu3_1 -> conv3_1 (in-place)
I0808 13:10:18.515902 10655 net.cpp:151] Setting up relu3_1
I0808 13:10:18.516090 10655 net.cpp:158] Top shape: 5 256 56 56 (4014080)
I0808 13:10:18.516099 10655 layer_factory.hpp:74] Creating layer conv3_2
I0808 13:10:18.516108 10655 net.cpp:91] Creating Layer conv3_2
I0808 13:10:18.516111 10655 net.cpp:452] conv3_2 <- conv3_1
I0808 13:10:18.516115 10655 net.cpp:119] This layer is inheriting previous layer's sync mode: 1
I0808 13:10:18.516120 10655 net.cpp:408] conv3_2 -> conv3_2
I0808 13:10:18.516127 10655 net.cpp:151] Setting up conv3_2
I0808 13:10:18.535439 10655 net.cpp:158] Top shape: 5 256 56 56 (4014080)
I0808 13:10:18.535466 10655 layer_factory.hpp:74] Creating layer relu3_2
I0808 13:10:18.535478 10655 net.cpp:91] Creating Layer relu3_2
I0808 13:10:18.535485 10655 net.cpp:452] relu3_2 <- conv3_2
I0808 13:10:18.535492 10655 net.cpp:119] This layer is inheriting previous layer's sync mode: 1
I0808 13:10:18.535498 10655 net.cpp:397] relu3_2 -> conv3_2 (in-place)
I0808 13:10:18.535531 10655 net.cpp:151] Setting up relu3_2
I0808 13:10:18.535608 10655 net.cpp:158] Top shape: 5 256 56 56 (4014080)
I0808 13:10:18.535615 10655 layer_factory.hpp:74] Creating layer conv3_3
I0808 13:10:18.535625 10655 net.cpp:91] Creating Layer conv3_3
I0808 13:10:18.535629 10655 net.cpp:452] conv3_3 <- conv3_2
I0808 13:10:18.535634 10655 net.cpp:119] This layer is inheriting previous layer's sync mode: 1
I0808 13:10:18.535642 10655 net.cpp:408] conv3_3 -> conv3_3
I0808 13:10:18.535650 10655 net.cpp:151] Setting up conv3_3
I0808 13:10:18.541692 10655 net.cpp:158] Top shape: 5 256 56 56 (4014080)
I0808 13:10:18.541719 10655 layer_factory.hpp:74] Creating layer relu3_3
I0808 13:10:18.541733 10655 net.cpp:91] Creating Layer relu3_3
I0808 13:10:18.541738 10655 net.cpp:452] relu3_3 <- conv3_3
I0808 13:10:18.541745 10655 net.cpp:119] This layer is inheriting previous layer's sync mode: 1
I0808 13:10:18.541750 10655 net.cpp:397] relu3_3 -> conv3_3 (in-place)
I0808 13:10:18.541757 10655 net.cpp:151] Setting up relu3_3
I0808 13:10:18.542366 10655 net.cpp:158] Top shape: 5 256 56 56 (4014080)
I0808 13:10:18.542376 10655 layer_factory.hpp:74] Creating layer pool3
I0808 13:10:18.542387 10655 net.cpp:91] Creating Layer pool3
I0808 13:10:18.542389 10655 net.cpp:452] pool3 <- conv3_3
I0808 13:10:18.542393 10655 net.cpp:119] This layer is inheriting previous layer's sync mode: 1
I0808 13:10:18.542417 10655 net.cpp:408] pool3 -> pool3
I0808 13:10:18.542428 10655 net.cpp:151] Setting up pool3
I0808 13:10:18.542522 10655 net.cpp:158] Top shape: 5 256 28 28 (1003520)
I0808 13:10:18.542532 10655 layer_factory.hpp:74] Creating layer conv4_1
I0808 13:10:18.542562 10655 net.cpp:91] Creating Layer conv4_1
I0808 13:10:18.542574 10655 net.cpp:452] conv4_1 <- pool3
I0808 13:10:18.542579 10655 net.cpp:119] This layer is inheriting previous layer's sync mode: 1
I0808 13:10:18.542587 10655 net.cpp:408] conv4_1 -> conv4_1
I0808 13:10:18.542594 10655 net.cpp:151] Setting up conv4_1
I0808 13:10:18.561463 10655 net.cpp:158] Top shape: 5 512 28 28 (2007040)
I0808 13:10:18.561485 10655 layer_factory.hpp:74] Creating layer relu4_1
I0808 13:10:18.561493 10655 net.cpp:91] Creating Layer relu4_1
I0808 13:10:18.561498 10655 net.cpp:452] relu4_1 <- conv4_1
I0808 13:10:18.561506 10655 net.cpp:119] This layer is inheriting previous layer's sync mode: 1
I0808 13:10:18.561514 10655 net.cpp:397] relu4_1 -> conv4_1 (in-place)
I0808 13:10:18.561524 10655 net.cpp:151] Setting up relu4_1
I0808 13:10:18.561739 10655 net.cpp:158] Top shape: 5 512 28 28 (2007040)
I0808 13:10:18.561750 10655 layer_factory.hpp:74] Creating layer conv4_2
I0808 13:10:18.561764 10655 net.cpp:91] Creating Layer conv4_2
I0808 13:10:18.561769 10655 net.cpp:452] conv4_2 <- conv4_1
I0808 13:10:18.561774 10655 net.cpp:119] This layer is inheriting previous layer's sync mode: 1
I0808 13:10:18.561779 10655 net.cpp:408] conv4_2 -> conv4_2
I0808 13:10:18.561787 10655 net.cpp:151] Setting up conv4_2
I0808 13:10:18.578860 10655 net.cpp:158] Top shape: 5 512 28 28 (2007040)
I0808 13:10:18.578893 10655 layer_factory.hpp:74] Creating layer relu4_2
I0808 13:10:18.578907 10655 net.cpp:91] Creating Layer relu4_2
I0808 13:10:18.578913 10655 net.cpp:452] relu4_2 <- conv4_2
I0808 13:10:18.578920 10655 net.cpp:119] This layer is inheriting previous layer's sync mode: 1
I0808 13:10:18.578925 10655 net.cpp:397] relu4_2 -> conv4_2 (in-place)
I0808 13:10:18.578933 10655 net.cpp:151] Setting up relu4_2
I0808 13:10:18.579006 10655 net.cpp:158] Top shape: 5 512 28 28 (2007040)
I0808 13:10:18.579012 10655 layer_factory.hpp:74] Creating layer conv4_3
I0808 13:10:18.579022 10655 net.cpp:91] Creating Layer conv4_3
I0808 13:10:18.579026 10655 net.cpp:452] conv4_3 <- conv4_2
I0808 13:10:18.579030 10655 net.cpp:119] This layer is inheriting previous layer's sync mode: 1
I0808 13:10:18.579035 10655 net.cpp:408] conv4_3 -> conv4_3
I0808 13:10:18.579043 10655 net.cpp:151] Setting up conv4_3
I0808 13:10:18.597589 10655 net.cpp:158] Top shape: 5 512 28 28 (2007040)
I0808 13:10:18.597617 10655 layer_factory.hpp:74] Creating layer relu4_3
I0808 13:10:18.597656 10655 net.cpp:91] Creating Layer relu4_3
I0808 13:10:18.597662 10655 net.cpp:452] relu4_3 <- conv4_3
I0808 13:10:18.597669 10655 net.cpp:119] This layer is inheriting previous layer's sync mode: 1
I0808 13:10:18.597676 10655 net.cpp:397] relu4_3 -> conv4_3 (in-place)
I0808 13:10:18.597684 10655 net.cpp:151] Setting up relu4_3
I0808 13:10:18.597756 10655 net.cpp:158] Top shape: 5 512 28 28 (2007040)
I0808 13:10:18.597761 10655 layer_factory.hpp:74] Creating layer pool4
I0808 13:10:18.597771 10655 net.cpp:91] Creating Layer pool4
I0808 13:10:18.597775 10655 net.cpp:452] pool4 <- conv4_3
I0808 13:10:18.597780 10655 net.cpp:119] This layer is inheriting previous layer's sync mode: 1
I0808 13:10:18.597785 10655 net.cpp:408] pool4 -> pool4
I0808 13:10:18.597793 10655 net.cpp:151] Setting up pool4
I0808 13:10:18.597862 10655 net.cpp:158] Top shape: 5 512 14 14 (501760)
I0808 13:10:18.597867 10655 layer_factory.hpp:74] Creating layer conv5_1
I0808 13:10:18.597877 10655 net.cpp:91] Creating Layer conv5_1
I0808 13:10:18.597880 10655 net.cpp:452] conv5_1 <- pool4
I0808 13:10:18.597884 10655 net.cpp:119] This layer is inheriting previous layer's sync mode: 1
I0808 13:10:18.597889 10655 net.cpp:408] conv5_1 -> conv5_1
I0808 13:10:18.597899 10655 net.cpp:151] Setting up conv5_1
I0808 13:10:18.614754 10655 net.cpp:158] Top shape: 5 512 14 14 (501760)
I0808 13:10:18.614784 10655 layer_factory.hpp:74] Creating layer relu5_1
I0808 13:10:18.614796 10655 net.cpp:91] Creating Layer relu5_1
I0808 13:10:18.614801 10655 net.cpp:452] relu5_1 <- conv5_1
I0808 13:10:18.614809 10655 net.cpp:119] This layer is inheriting previous layer's sync mode: 1
I0808 13:10:18.614814 10655 net.cpp:397] relu5_1 -> conv5_1 (in-place)
I0808 13:10:18.614822 10655 net.cpp:151] Setting up relu5_1
I0808 13:10:18.615025 10655 net.cpp:158] Top shape: 5 512 14 14 (501760)
I0808 13:10:18.615036 10655 layer_factory.hpp:74] Creating layer conv5_2
I0808 13:10:18.615046 10655 net.cpp:91] Creating Layer conv5_2
I0808 13:10:18.615049 10655 net.cpp:452] conv5_2 <- conv5_1
I0808 13:10:18.615054 10655 net.cpp:119] This layer is inheriting previous layer's sync mode: 1
I0808 13:10:18.615059 10655 net.cpp:408] conv5_2 -> conv5_2
I0808 13:10:18.615067 10655 net.cpp:151] Setting up conv5_2
I0808 13:10:18.632396 10655 net.cpp:158] Top shape: 5 512 14 14 (501760)
I0808 13:10:18.632423 10655 layer_factory.hpp:74] Creating layer relu5_2
I0808 13:10:18.632436 10655 net.cpp:91] Creating Layer relu5_2
I0808 13:10:18.632442 10655 net.cpp:452] relu5_2 <- conv5_2
I0808 13:10:18.632449 10655 net.cpp:119] This layer is inheriting previous layer's sync mode: 1
I0808 13:10:18.632454 10655 net.cpp:397] relu5_2 -> conv5_2 (in-place)
I0808 13:10:18.632462 10655 net.cpp:151] Setting up relu5_2
I0808 13:10:18.632531 10655 net.cpp:158] Top shape: 5 512 14 14 (501760)
I0808 13:10:18.632536 10655 layer_factory.hpp:74] Creating layer conv5_3
I0808 13:10:18.632546 10655 net.cpp:91] Creating Layer conv5_3
I0808 13:10:18.632551 10655 net.cpp:452] conv5_3 <- conv5_2
I0808 13:10:18.632555 10655 net.cpp:119] This layer is inheriting previous layer's sync mode: 1
I0808 13:10:18.632561 10655 net.cpp:408] conv5_3 -> conv5_3
I0808 13:10:18.632570 10655 net.cpp:151] Setting up conv5_3
I0808 13:10:18.649756 10655 net.cpp:158] Top shape: 5 512 14 14 (501760)
I0808 13:10:18.649780 10655 layer_factory.hpp:74] Creating layer relu5_3
I0808 13:10:18.649790 10655 net.cpp:91] Creating Layer relu5_3
I0808 13:10:18.649794 10655 net.cpp:452] relu5_3 <- conv5_3
I0808 13:10:18.649801 10655 net.cpp:119] This layer is inheriting previous layer's sync mode: 1
I0808 13:10:18.649806 10655 net.cpp:397] relu5_3 -> conv5_3 (in-place)
I0808 13:10:18.649812 10655 net.cpp:151] Setting up relu5_3
I0808 13:10:18.649888 10655 net.cpp:158] Top shape: 5 512 14 14 (501760)
I0808 13:10:18.649894 10655 layer_factory.hpp:74] Creating layer pool5
I0808 13:10:18.649902 10655 net.cpp:91] Creating Layer pool5
I0808 13:10:18.649905 10655 net.cpp:452] pool5 <- conv5_3
I0808 13:10:18.649909 10655 net.cpp:119] This layer is inheriting previous layer's sync mode: 1
I0808 13:10:18.649938 10655 net.cpp:408] pool5 -> pool5_local
I0808 13:10:18.649945 10655 net.cpp:151] Setting up pool5
I0808 13:10:18.650012 10655 net.cpp:158] Top shape: 5 512 7 7 (125440)
I0808 13:10:18.650017 10655 layer_factory.hpp:74] Creating layer gather
I0808 13:10:18.650029 10655 net.cpp:91] Creating Layer gather
I0808 13:10:18.650033 10655 net.cpp:452] gather <- pool5_local
I0808 13:10:18.650038 10655 net.cpp:452] gather <- label_local
I0808 13:10:18.650043 10655 net.cpp:408] gather -> pool5
I0808 13:10:18.650050 10655 net.cpp:408] gather -> label
I0808 13:10:18.650055 10655 net.cpp:151] Setting up gather
I0808 13:10:18.650064 10655 net.cpp:158] Top shape: 10 512 7 7 (250880)
I0808 13:10:18.650069 10655 net.cpp:158] Top shape: 10 1 1 1 (10)
I0808 13:10:18.650073 10655 layer_factory.hpp:74] Creating layer label_gather_1_split
I0808 13:10:18.650079 10655 net.cpp:91] Creating Layer label_gather_1_split
I0808 13:10:18.650082 10655 net.cpp:452] label_gather_1_split <- label
I0808 13:10:18.650086 10655 net.cpp:119] This layer is inheriting previous layer's sync mode: 0
I0808 13:10:18.650091 10655 net.cpp:408] label_gather_1_split -> label_gather_1_split_0
I0808 13:10:18.650097 10655 net.cpp:408] label_gather_1_split -> label_gather_1_split_1
I0808 13:10:18.650102 10655 net.cpp:151] Setting up label_gather_1_split
I0808 13:10:18.650109 10655 net.cpp:158] Top shape: 10 1 1 1 (10)
I0808 13:10:18.650112 10655 net.cpp:158] Top shape: 10 1 1 1 (10)
I0808 13:10:18.650115 10655 layer_factory.hpp:74] Creating layer fc6
I0808 13:10:18.650125 10655 net.cpp:91] Creating Layer fc6
I0808 13:10:18.650128 10655 net.cpp:452] fc6 <- pool5
I0808 13:10:18.650132 10655 net.cpp:119] This layer is inheriting previous layer's sync mode: 0
I0808 13:10:18.650137 10655 net.cpp:408] fc6 -> fc6
I0808 13:10:18.650143 10655 net.cpp:151] Setting up fc6
I0808 13:10:19.280258 10655 net.cpp:158] Top shape: 10 4096 (40960)
I0808 13:10:19.280283 10655 layer_factory.hpp:74] Creating layer relu6
I0808 13:10:19.280292 10655 net.cpp:91] Creating Layer relu6
I0808 13:10:19.280297 10655 net.cpp:452] relu6 <- fc6
I0808 13:10:19.280302 10655 net.cpp:119] This layer is inheriting previous layer's sync mode: 0
I0808 13:10:19.280304 10655 net.cpp:397] relu6 -> fc6 (in-place)
I0808 13:10:19.280309 10655 net.cpp:151] Setting up relu6
I0808 13:10:19.280589 10655 net.cpp:158] Top shape: 10 4096 (40960)
I0808 13:10:19.280597 10655 layer_factory.hpp:74] Creating layer drop6
I0808 13:10:19.280603 10655 net.cpp:91] Creating Layer drop6
I0808 13:10:19.280606 10655 net.cpp:452] drop6 <- fc6
I0808 13:10:19.280609 10655 net.cpp:119] This layer is inheriting previous layer's sync mode: 0
I0808 13:10:19.280613 10655 net.cpp:397] drop6 -> fc6 (in-place)
I0808 13:10:19.280617 10655 net.cpp:151] Setting up drop6
I0808 13:10:19.280622 10655 net.cpp:158] Top shape: 10 4096 (40960)
I0808 13:10:19.280625 10655 layer_factory.hpp:74] Creating layer fc7
I0808 13:10:19.280632 10655 net.cpp:91] Creating Layer fc7
I0808 13:10:19.280633 10655 net.cpp:452] fc7 <- fc6
I0808 13:10:19.280637 10655 net.cpp:119] This layer is inheriting previous layer's sync mode: 0
I0808 13:10:19.280640 10655 net.cpp:408] fc7 -> fc7
I0808 13:10:19.280645 10655 net.cpp:151] Setting up fc7
I0808 13:10:19.361970 10655 net.cpp:158] Top shape: 10 4096 (40960)
I0808 13:10:19.361995 10655 layer_factory.hpp:74] Creating layer relu7
I0808 13:10:19.362002 10655 net.cpp:91] Creating Layer relu7
I0808 13:10:19.362006 10655 net.cpp:452] relu7 <- fc7
I0808 13:10:19.362011 10655 net.cpp:119] This layer is inheriting previous layer's sync mode: 0
I0808 13:10:19.362017 10655 net.cpp:397] relu7 -> fc7 (in-place)
I0808 13:10:19.362022 10655 net.cpp:151] Setting up relu7
I0808 13:10:19.362107 10655 net.cpp:158] Top shape: 10 4096 (40960)
I0808 13:10:19.362112 10655 layer_factory.hpp:74] Creating layer drop7
I0808 13:10:19.362117 10655 net.cpp:91] Creating Layer drop7
I0808 13:10:19.362119 10655 net.cpp:452] drop7 <- fc7
I0808 13:10:19.362123 10655 net.cpp:119] This layer is inheriting previous layer's sync mode: 0
I0808 13:10:19.362148 10655 net.cpp:397] drop7 -> fc7 (in-place)
I0808 13:10:19.362151 10655 net.cpp:151] Setting up drop7
I0808 13:10:19.362156 10655 net.cpp:158] Top shape: 10 4096 (40960)
I0808 13:10:19.362159 10655 layer_factory.hpp:74] Creating layer fc8-1
I0808 13:10:19.362165 10655 net.cpp:91] Creating Layer fc8-1
I0808 13:10:19.362167 10655 net.cpp:452] fc8-1 <- fc7
I0808 13:10:19.362170 10655 net.cpp:119] This layer is inheriting previous layer's sync mode: 0
I0808 13:10:19.362174 10655 net.cpp:408] fc8-1 -> fc8-1
I0808 13:10:19.362180 10655 net.cpp:151] Setting up fc8-1
I0808 13:10:19.371181 10655 net.cpp:158] Top shape: 10 101 (1010)
I0808 13:10:19.371196 10655 layer_factory.hpp:74] Creating layer fc8-1_fc8-1_0_split
I0808 13:10:19.371203 10655 net.cpp:91] Creating Layer fc8-1_fc8-1_0_split
I0808 13:10:19.371206 10655 net.cpp:452] fc8-1_fc8-1_0_split <- fc8-1
I0808 13:10:19.371211 10655 net.cpp:119] This layer is inheriting previous layer's sync mode: 0
I0808 13:10:19.371213 10655 net.cpp:408] fc8-1_fc8-1_0_split -> fc8-1_fc8-1_0_split_0
I0808 13:10:19.371218 10655 net.cpp:408] fc8-1_fc8-1_0_split -> fc8-1_fc8-1_0_split_1
I0808 13:10:19.371222 10655 net.cpp:151] Setting up fc8-1_fc8-1_0_split
I0808 13:10:19.371230 10655 net.cpp:158] Top shape: 10 101 (1010)
I0808 13:10:19.371233 10655 net.cpp:158] Top shape: 10 101 (1010)
I0808 13:10:19.371237 10655 layer_factory.hpp:74] Creating layer loss
I0808 13:10:19.371244 10655 net.cpp:91] Creating Layer loss
I0808 13:10:19.371247 10655 net.cpp:452] loss <- fc8-1_fc8-1_0_split_0
I0808 13:10:19.371250 10655 net.cpp:452] loss <- label_gather_1_split_0
I0808 13:10:19.371253 10655 net.cpp:119] This layer is inheriting previous layer's sync mode: 0
I0808 13:10:19.371256 10655 net.cpp:408] loss -> loss
…
